checkpoint_critic.pth (torch, 643995 bytes, 11 tensors)

pre_layer.weight f4 [400, 33]
-0.09335623 -0.09294984 0.025169222 -0.12415056 -0.4635337 -0.25949132 0.13431886 0.09180611
-0.09599226 -0.14163963 -0.09038635 0.02616122 -0.009211942 -0.016608456 -0.0018437835 -0.08371026
-0.051017094 -0.14758374 -0.48641494 -0.12481076 -0.04552092 0.051556963 0.042637542 -0.08526673
-0.017363224 -0.042418804 -0.11062292 0.23153618 0.08023995 0.02868696 -0.2052085 -0.015633201
-21.449194 0.122038506 -0.014935446 -0.033315215 -4.245264 3.4191794 -1.071449 1.4310899
-0.65958405 0.67053235 0.691731 -0.1708455 -0.6636462 -0.6542466 0.23715168 -0.3582106
0.6228827 -2.1877038 0.9072121 2.9342291 -2.097233 0.05957105 -0.05348578 -0.8412507
-0.06700017 -0.022652237 -0.32419708 -0.35663038 2.4679737 -0.18141684 0.032776978 -2.441471
0.04879996 0.24125227 0.23965167 0.058253706 -0.06086502 -1.2981199 3.5070448 5.3784695
-1.5025344 0.25472695 -1.5870914 -0.21641402 0.6186623 -0.43453288 0.3154558 -0.5034913
-0.18273294 0.28428265 0.66081697 -2.1245995 1.946587 0.8160531 -0.17349832 -0.4057156
0.13963054 -0.30543417 -0.0038334734 -0.17166895 0.079311125 1.9222419 1.26092 -0.017259419
-1.8854079 0.03407686 3.8577447 0.64303416 0.11292803 0.56702673 -4.69291 -4.052954
-2.4678879 1.7503095 0.64108634 -0.49395302 0.83009094 -0.3111294 -0.002716605 0.6613011
-0.04011592 -0.17519163 0.44894934 -0.027929045 -0.8128886 -2.2188036 1.4773695 0.1613167
-0.17554198 -0.047356058 0.27942333 -0.10615894 -0.086433545 -0.047822315 1.6310364 -0.7277351
0.024298465 -1.6596798 -0.012332839 0.4137097 0.06641238 -0.0058610137 -0.055242766 0.019672716
0.43402523 0.97881216 0.5698915 -0.0036383108 0.0015148636 0.06472575 0.058033627 -0.085264005
-0.002170065 0.013703925 0.023413023 -0.03471268 -0.021452561 0.15513328 -0.0069395844 0.35921654
-0.037145443 -0.013224261 -0.049169227 0.002911928 0.0065086405 -0.054984532 -0.08145741 -0.26288804
0.3585176 0.03154576 0.27267942 0.03727615 31.049652 0.20983441 -0.008940567 0.16598846
0.5556572 -2.437225 0.24504344 -0.5536575 0.2124008 -0.10075861 -0.25621593 0.092433244
-0.014817603 -0.013785823 0.039023038 -0.048132095 -0.15073599 0.052883774 0.06933599 -0.2129205
-0.2200946 0.102107786 -0.054422572 -0.03806828 0.010889609 -0.0153934285 -0.03377721 -0.33641297
-0.19082661 0.4040248 -0.037800808 0.103490934 -0.046423562 29.39371 0.4773067 0.22462477
-0.22513427 -1.2798759 -1.1856428 3.9335234 -0.20874575 0.3338565 -0.67410463 -0.10959535
0.455774 -0.28451195 -0.010257897 -0.011989225 -0.092440344 -0.07144893 0.84246624 0.84492254
0.9620697 1.1049131 0.06443539 0.06707756 -0.115497604 -0.053627703 -0.12867965 0.06704653
2.2762356 1.3713176 0.9653266 -0.014672953 -1.4108135 -0.025053173 0.24999084 0.43236145
0.22684531 -0.5115298 -0.5795376 -0.50567305 5.677223 -1.1197296 0.30181208 -0.45751715
0.4192514 0.78442883 0.087852955 -0.098980896 0.42124274 0.6428335 0.25638676 2.196073
2.5089278 0.5866237 -0.9165913 -0.6542855 0.04494038 -0.21749923 -0.081170276 0.29625314
00000000: 8d31 bfbd 7c5c bebd af2f ce3c a642 febd
00000010: 4a54 edbe 0cdc 84be e28a 093e d804 bc3d
00000020: 9797 c4bd fb09 11be 7b1c b9bd 0e50 d63c
00000030: afed 16bc 750e 88bc 1cab f1ba 4970 abbd
00000040: 4df7 50bd 3120 17be 610b f9be c99c ffbd
00000050: 2574 3abd 652d 533d b4a4 2e3d 53a0 aebd
00000060: 523d 8ebc 57bf 2dbd 458e e2bd d217 6d3e
00000070: d854 a43d ea00 eb3c 2d22 52be 3311 80bc
00000080: f397 abc1 53ef f93d cdb3 74bc 8975 08bd
00000090: 34d9 87c0 d6d3 5a40 3e25 89bf f42d b73f
000000a0: 80da 28bf 02a8 2b3f 4815 313f 1ff2 2ebe
000000b0: b8e4 29bf b57c 27bf e4d7 723e 6167 b7be
000000c0: 3e75 1f3f 5703 0cc0 0d3f 683f 69ca 3b40
000000d0: 1139 06c0 c600 743d e813 5bbd 355c 57bf
000000e0: 6337 89bd 2f91 b9bc 29fd a5be 4298 b6be
000000f0: 48f3 1d40 56c5 39be 2741 063d 1041 1cc0
00000100: 78e2 473d d60a 773e 3f67 753e 709b 6e3d
00000110: 994d 79bd cb28 a6bf 6c73 6040 6c1c ac40
00000120: 0c53 c0bf 926b 823e d025 cbbf a39b 5dbe
00000130: a760 1e3f 187b debe 6c83 a13e cee4 00bf
00000140: 581e 3bbe 7f8d 913e 4d2b 293f 70f9 07c0
00000150: c329 f93f dbe8 503f 8ba9 31be f5b9 cfbe
00000160: 4ffb 0e3e de61 9cbe 033b 7bbb fcc9 2fbe
00000170: df6d a23d 060c f63f d465 a13f a063 8dbc
00000180: 0c55 f1bf 2d94 0b3d 4ae5 7640 e39d 243f
00000190: d046 e73d aa28 113f 522c 96c0 cdb1 81c0
000001a0: e0f1 1dc0 240a e03f 3c1e 243f 69e7 fcbe
000001b0: d780 543f 5a4c 9fbe 1209 32bb 074b 293f
000001c0: 9750 24bd 6f65 33be b0dc e53e 74cb e4bc
000001d0: 7819 50bf e100 0ec0 721a bd3f 3430 253e
000001e0: 47c1 33be 6df8 41bd 9310 8f3e dc69 d9bd
000001f0: 1204 b1bd 55e1 43bd cdc5 d03f d94c 3abf
00000200: 930d c73c 6370 d4bf ad0f 4abc c2d1 d33e
00000210: 3703 883d bf0d c0bb 3d46 62bd ad28 a13c
00000220: 8e38 de3e 6f93 7a3f 69e4 113f ba70 6ebb
00000230: 638e c63a ef8e 843d abb4 6d3d e59e aebd
00000240: a637 0ebb 6d86 603c abcc bf3c e22e 0ebd
00000250: 48bd afbc 42db 1e3e 7465 e3bb 3beb b73e
00000260: d225 18bd 92aa 58bc ac65 49bd 0cd6 3e3b
00000270: 6f46 d53b 7637 61bd 24d3 a6bd 4399 86be
00000280: 9e8f b73e 2036 013d a39c 8b3e e0ae 183d
00000290: b065 f841 d5de 563e 757b 12bc e1f8 293e
000002a0: 8d3f 0e3f 7ffb 1bc0 abec 7a3e 7fbc 0dbf
000002b0: 987f 593e 885a cebd bc2e 83be a44d bd3d
000002c0: 88c5 72bc efdd 61bc 9fd6 1f3d 2926 45bd
000002d0: 895a 1abe a89c 583d 0700 8e3d d507 5abe
000002e0: 7b60 61be e31d d13d 34ea 5ebd 7ced 1bbd
000002f0: 556a 323c b834 7cbc f959 0abd 523e acbe
00000300: 0d68 43be 57dc ce3e 05d5 1abd 0ef3 d33d
00000310: a226 3ebd 5126 eb41 8b61 f43e 0904 663e
00000320: 9989 66be f9d2 a3bf 25c3 97bf d9be 7b40
00000330: 72c1 55be 3def aa3e 1f92 2cbf 8773 e0bd
00000340: 365b e93e 8dab 91be bd10 28bc 746e 44bc
00000350: 5d51 bdbd d153 92bd deab 573f d84c 583f
00000360: 334a 763f cb6d 8d3f b4f6 833d f65f 893d
00000370: 028a ecbd b9a8 5bbd 99c4 03be b14f 893d
00000380: d8ad 1140 5687 af3f a51f 773f d366 70bc
00000390: 8995 b4bf 503c cdbc 99fd 7f3e 7b5e dd3e
000003a0: 234a 683e 9ef3 02bf 935c 14bf ca73 01bf
000003b0: d0ab b540 4d53 8fbf 1d87 9a3e b03f eabe
000003c0: 1fa8 d63e 54d0 483f 40ec b33d 7fb6 cabd
000003d0: 21ad d73e bc90 243f 2045 833e 768c 0c40
000003e0: 4692 2040 f92c 163f baa5 6abf 417f 27bf
000003f0: 6713 383d 1eb8 5ebe 9a3c a6bd 7eae 973e

pre_layer.bias f4 [400]
-0.30993745 -2.4922256 -1.7498537 -1.6161278 0.09774188 -0.005651742 -1.5398673 -2.3184683
-2.3926446 -1.2667295 -2.6309469 -2.1518707 -1.6801405 -0.8236019 -2.0453756 -2.438905
-1.8294886 -1.9903713 -2.22501 -1.5236558 -2.7797885 -0.19565822 -2.2257967 -2.1512465
-2.3006718 -1.0097163 -1.7850766 -2.4095542 -2.2622764 -1.7720153 -0.14103514 -2.2667258
-0.8081686 -2.3114595 -1.7797871 -1.9180408 -2.05502 -2.8732095 -1.0883923 -0.65302956
-1.344348 -1.6187383 -2.4914703 -1.983741 -2.8542736 -2.1587782 -2.5755184 -2.680643
-1.850621 -2.5590463 -1.503388 -2.2003827 -1.5924823 -1.9826422 -2.4842315 -2.493833
-0.62703544 -1.7106197 -1.7295704 -1.8057103 -2.1577413 -2.8824282 -2.5278761 -2.3516455
-2.4477274 -1.9195324 -1.1489412 -2.6890154 -2.1624246 -0.8036511 -1.0525454 -1.7587129
-1.8830322 0.25328127 -2.354834 -2.54178 -2.7181892 -1.382782 -2.583157 -2.1943588
-1.8826464 -2.3088481 0.034736205 -1.5457574 -1.9552188 -1.4062811 -2.5663047 -2.2548532
-1.1159933 -1.6083314 -2.4358494 0.93136925 -0.88383806 -2.0022988 -2.6174278 -2.432361
-1.9806828 0.37102458 -2.3521194 -1.3170727 -2.4133363 1.6482521 -2.0899997 -1.8990921
-0.29379943 -1.74053 -1.576042 -2.7099993 -2.5493188 -2.479033 -1.7759845 -2.2365634
-1.0218999 -2.519061 -2.513817 -2.446786 -2.0606055 -1.317303 -2.1895213 -2.3564425
-2.5431216 -2.2527027 -1.8999548 -2.1374476 -1.8419057 -1.3077177 -1.1456926 -3.1736438
-2.225592 -2.4426382 -2.524942 -2.198285 -0.71429807 -1.3252203 -1.5361882 -1.8981477
-2.0066442 -1.8143549 -2.468175 -2.0375645 -2.8176353 -2.9430513 -1.6443841 -2.8530414
-0.9444245 -2.2938287 -1.4041114 -2.0759397 -1.6252084 -0.9055054 -2.2434485 -0.43555385
-2.7182598 -2.5052161 -2.5324354 -1.9695401 -0.41577074 -3.323423 -0.2868105 -0.63323885
-1.0139594 -2.127109 0.3564209 -2.238055 -2.1179025 -2.5924473 -2.1661062 -2.7063575
-2.8705769 -1.6773584 -1.7585173 -1.722246 -2.2841063 -2.7940211 -1.9610665 -1.7057345
-2.0956345 -1.6881845 -1.4353456 -2.46511 -1.7349223 -1.9954687 -2.3339543 -2.7951689
-2.4416714 -0.8102343 -1.7388548 -1.5573767 -1.5671641 -1.5961791 -0.6974525 -2.286649
-2.3405406 -1.2577429 -1.8607363 -0.012127934 -2.1069553 -0.6585276 -0.8021165 -1.9856813
-1.3429797 -1.9297242 -2.546034 -1.9280528 -2.500435 -1.0216248 -1.3698125 -1.9032149
-1.4388188 -1.9703729 0.322044 -1.0780553 -2.1885698 -2.3750482 0.4533557 -3.0949755
-1.693731 0.06157296 -1.6155963 -2.4962335 -1.9325261 -2.3927438 -2.1085253 -1.436672
-1.9556565 -1.5103288 -1.4079678 -0.027154615 -1.5849438 -2.3371022 -2.0464642 -0.5146971
-1.2307673 -1.5787141 -2.342724 -1.0476447 -1.0264363 -2.7905376 -2.7478833 -0.14000869
-2.2175946 -2.001695 -2.303541 -1.7105641 -1.6811352 -2.3918307 -2.1741164 -1.3295399
-0.90129226 -2.066484 -2.2476 -1.8102015 -1.2154763 -2.820269 -1.4084675 -2.5805583
00000000: 1fb0 9ebe a080 1fc0 35fb dfbf 47dd cebf
00000010: e52c c83d 4032 b9bb 5f1a c5bf c961 14c0
00000020: 1721 19c0 3124 a2bf 6f61 28c0 40b8 09c0
00000030: d80e d7bf 93d7 52bf 6fe7 02c0 0517 1cc0
00000040: af2c eabf 7dc4 febf 9066 0ec0 2707 c3bf
00000050: 0ee8 31c0 a15a 48be 7473 0ec0 06ae 09c0
00000060: 353e 13c0 623e 81bf 647d e4bf 2336 1ac0
00000070: 23c9 10c0 66d1 e2bf 846b 10be 0912 11c0
00000080: 23e4 4ebf f4ee 13c0 10d0 e3bf 5c82 f5bf
00000090: 7385 03c0 aae2 37c0 7050 8bbf f22c 27bf
000000a0: 9813 acbf d132 cfbf 4074 1fc0 3aeb fdbf
000000b0: 6bac 36c0 6c29 0ac0 4bd5 24c0 a88f 2bc0
000000c0: 26e1 ecbf 6ac7 23c0 056f c0bf 12d3 0cc0
000000d0: 76d6 cbbf 38c7 fdbf a6fd 1ec0 f69a 1fc0
000000e0: 6585 20bf 96f5 dabf 9062 ddbf 8421 e7bf
000000f0: 6f18 0ac0 b479 38c0 b9c8 21c0 5c81 16c0
00000100: 91a7 1cc0 3db3 f5bf 8110 93bf d418 2cc0
00000110: 2a65 0ac0 14bc 4dbf cfb9 86bf 811d e1bf
00000120: 3307 f1bf 15ae 813e 9ab5 16c0 86ac 22c0
00000130: d0f6 2dc0 00ff b0bf 7252 25c0 6070 0cc0
00000140: 8ffa f0bf 2bc4 13c0 8d47 0e3d 61db c5bf
00000150: 9c44 fabf 0501 b4bf 563e 24c0 844f 10c0
00000160: ded8 8ebf cedd cdbf f5e4 1bc0 376e 6e3f
00000170: 3643 62bf aa25 00c0 f083 27c0 cdab 1bc0
00000180: 0487 fdbf eff6 bd3e 2089 16c0 d795 a8bf
00000190: 1a74 1ac0 edf9 d23f 8ec2 05c0 7315 f3bf
000001a0: e16c 96be b0c9 debf bfbb c9bf a170 2dc0
000001b0: 0a28 23c0 7aa8 1ec0 7653 e3bf db23 0fc0
000001c0: 9ecd 82bf 4c38 21c0 61e2 20c0 2498 1cc0
000001d0: f6e0 03c0 629d a8bf 1e21 0cc0 f4cf 16c0
000001e0: 81c2 22c0 482c 10c0 b831 f3bf f1cb 08c0
000001f0: 91c3 ebbf 4b63 a7bf 0ea6 92bf fb1c 4bc0
00000200: 1970 0ec0 2f54 1cc0 a698 21c0 b4b0 0cc0
00000210: 3ddc 36bf d2a0 a9bf d1a1 c4bf 81f6 f2bf
00000220: dc6c 00c0 c83c e8bf 94f6 1dc0 7567 02c0
00000230: 2354 34c0 f45a 3cc0 2e7b d2bf 3b98 36c0
00000240: cec5 71bf 17ce 12c0 ecb9 b3bf 32dc 04c0
00000250: d406 d0bf 34cf 67bf a994 0fc0 ea00 dfbe
00000260: f8f7 2dc0 7655 20c0 6c13 22c0 e419 fcbf
00000270: e7df d4be f6b2 54c0 d3d8 92be f11b 22bf
00000280: 6cc9 81bf 8e22 08c0 cd7c b63e 4b3c 0fc0
00000290: b78b 07c0 a8ea 25c0 7ca1 0ac0 f634 2dc0
000002a0: 88b7 37c0 aeb3 d6bf 1817 e1bf 8f72 dcbf
000002b0: cc2e 12c0 3ed1 32c0 3a04 fbbf 8255 dabf
000002c0: e01e 06c0 6e16 d8bf 68b9 b7bf 5dc4 1dc0
000002d0: ef11 debf 856b ffbf 825f 15c0 0ce4 32c0
000002e0: 5844 1cc0 846b 4fbf cb92 debf 1f58 c7bf
000002f0: d598 c8bf 994f ccbf 3f8c 32bf 7558 12c0
00000300: 6bcb 15c0 b8fd a0bf 9b2c eebf 3eb4 46bc
00000310: 5bd8 06c0 4495 28bf 8257 4dbf ce2a febf
00000320: c2e6 abbf 3401 f7bf 39f2 22c0 6fca f6bf
00000330: 2107 20c0 9ac4 82bf 0456 afbf 8c9c f3bf
00000340: 372b b8bf 2e35 fcbf f3e2 a43e b7fd 89bf
00000350: 8711 0cc0 ca00 18c0 3d1e e83e 1414 46c0
00000360: 2dcc d8bf ee33 7c3d dccb cebf 4ac2 1fc0
00000370: 045d f7bf b722 19c0 14f2 06c0 dee4 b7bf
00000380: f452 fabf 7452 c1bf 4a38 b4bf 5b73 debc
00000390: 70df cabf 1593 15c0 45f9 02c0 30c3 03bf
000003a0: c889 9dbf 4e13 cabf 31ef 15c0 3919 86bf
000003b0: 4462 83bf 2b98 32c0 52dd 2fc0 705e 0fbe
000003c0: 12ed 0dc0 c51b 00c0 376d 13c0 c4f3 dabf
000003d0: 702f d7bf c113 19c0 b924 0bc0 5d2e aabf
000003e0: 17bb 66bf 4641 04c0 aed8 0fc0 afb4 e7bf
000003f0: ba94 9bbf 4a7f 34c0 aa48 b4bf de27 25c0

input_layer.weight f4 [256, 404]
2.5727904 -1.4244095 1.2615032 -1.3099746 0.44128457 -2.3665335 -1.3577801 -0.2441444
-0.23371197 0.13625771 -0.6391998 0.2729468 1.011255 1.06039 -0.40833804 2.151328
-0.25491676 -0.20274906 -1.6386893 -0.6990996 -0.26032344 -0.797924 -2.343355 -0.047643207
-0.69780964 -3.0634453 -1.0559247 -0.16444544 -0.7168549 1.0857285 -2.0583234 -1.2126805
-0.2647927 1.3175113 0.4452788 0.2504316 1.0840394 -1.0760337 -0.65611523 1.8260361
2.2407281 -0.48263714 0.5401698 0.5681171 0.014788405 1.3586631 0.8371123 -0.19492185
-0.4889169 0.105442576 0.91059273 0.2525368 -2.0542116 0.643331 -0.02083432 -0.037693236
-0.64975977 -0.55284935 0.1598969 -0.17729564 -0.020698393 0.35879567 0.2204699 0.8622502
-1.5256416 0.5119488 0.3737354 0.57212967 1.2305416 -0.5466438 1.5168053 -0.1284787
0.086326584 -0.74837357 0.08658399 -2.749798 -0.0118235545 -1.5717328 -3.1039026 -0.33398274
-1.4511448 0.23539929 1.0630535 -1.1049632 1.0086669 0.6734399 -0.5175747 0.061857406
1.0053855 0.90461814 0.6519026 0.37645477 0.93191195 0.6982792 -0.651422 0.47949106
-0.7985105 -0.05658312 -0.7097001 -1.4985212 -1.0933173 -0.6156261 0.0075033377 1.3852928
0.49456722 -0.6359247 -0.20203954 -1.7621981 0.21003172 0.2027629 -2.0433192 -0.0035859062
0.38484386 -0.2530911 1.3002765 -2.0931313 -1.2643155 1.6613492 0.38074046 0.5091688
-0.59093523 -1.1186922 0.21161124 -1.2862616 -0.9422084 0.53808534 -0.90235287 -0.6985989
-0.68941593 0.19914511 -2.8800917 -0.5279814 1.3702966 0.4059029 -0.14203215 0.34106472
-1.5390507 0.9281467 -2.9267783 -1.4437463 -0.6677362 0.9465153 -1.8801864 1.0433158
-1.2121416 1.239969 1.9580551 0.15686642 -0.42969006 -0.035887394 0.8193429 1.4239324
1.1800567 0.00542877 0.038679756 -0.81894714 -0.99969035 -1.6787083 2.1052608 -2.1187212
-1.3093749 -0.04613438 0.26415804 -0.033307653 -0.22286263 -1.4227896 1.0021787 0.82275975
0.2587575 -0.54224384 -0.89265454 -0.8466323 -0.8347119 -0.6496426 1.6263802 0.15331937
1.0941162 -1.0561289 1.9468038 -0.6194524 0.8618763 -0.1250227 -1.5054517 -0.6662121
-3.3302188 0.3222878 0.82891095 -0.47757542 -0.41303554 -0.4960633 0.027038964 -1.7984118
0.22613649 -2.4771025 -0.29807338 0.33950865 -0.7296303 -1.2867428 2.1258726 -0.7132931
-0.47427166 0.8882467 -0.5288609 -1.0328254 0.48153925 -1.3790617 -0.00054337777 -0.5987025
0.6048979 -0.16829419 -1.9755427 -0.23902346 -1.718724 0.9041069 -1.818445 -1.0689169
-2.0887518 0.87419206 -0.6632614 -0.94226766 1.0785178 -0.68320537 0.24926677 -0.19992739
-0.942591 0.050913367 -0.590667 -0.7877587 0.10194388 0.41987363 0.083040476 1.2863835
-0.9178728 0.69521624 -0.42057446 -0.22403345 0.75920844 1.1308763 -0.45825982 2.0898476
1.0279263 -1.3489454 -1.3863742 -0.4013814 -1.0070896 1.8473727 -0.995625 -1.0667379
-2.332471 0.79502124 0.8481414 2.528734 0.38950267 0.49463776 1.3931532 0.025415244
00000000: 99a8 2440 0d53 b6bf f078 a13f 3fad a7bf
00000010: 0df0 e13e 4975 17c0 bdcb adbf fd00 7abe
00000020: 3152 6fbe 2487 0b3e 99a2 23bf afbf 8b3e
00000030: ce70 813f dcba 873f af11 d1be 5caf 0940
00000040: 7384 82be 739d 4fbe 92c0 d1bf 31f8 32bf
00000050: 1d49 85be bf44 4cbf 87f9 15c0 8625 43bd
00000060: a7a3 32bf 7d0f 44c0 8a28 87bf 6364 28be
00000070: cd83 37bf 27f9 8a3f 92bb 03c0 1d39 9bbf
00000080: e992 87be 36a4 a83f 95fb e33e 9238 803e
00000090: cec1 8a3f 79bb 89bf 2bf7 27bf 8dbb e93f
000000a0: 1768 0f40 371c f7be 9148 0a3f 1f70 113f
000000b0: 114b 723c ace8 ad3f fe4c 563f 9899 47be
000000c0: 5153 fabe 47f2 d73d 9b1c 693f 814c 813e
000000d0: 3478 03c0 57b1 243f bcac aabc 3964 1abd
000000e0: a856 26bf 8987 0dbf 03bc 233e fd8c 35be
000000f0: ad8f a9bc 11b4 b73e ddc2 613e 6ebc 5c3f
00000100: 3948 c3bf 140f 033f 3f5a bf3e 1777 123f
00000110: 6382 9d3f d9f0 0bbf ad26 c23f ec8f 03be
00000120: fecb b03d 6995 3fbf f252 b13d b1fc 2fc0
00000130: 95b7 41bc 8a2e c9bf 57a6 46c0 c9ff aabe
00000140: 1dbf b9bf 830c 713e 2312 883f 6f6f 8dbf
00000150: ff1b 813f 8f66 2c3f c77f 04bf 315e 7d3d
00000160: 79b0 803f 0e95 673f 17e3 263f aebe c03e
00000170: c891 6e3f 6dc2 323f 98c3 26bf da7f f53e
00000180: 2f6b 4cbf b4c3 67bd e8ae 35bf 8bcf bfbf
00000190: d2f1 8bbf ac99 1dbf 8fde f53b 4651 b13f
000001a0: ea37 fd3e f6cb 22bf 74e3 4ebe b58f e1bf
000001b0: 8e12 573e 14a1 4f3e bec5 02c0 8601 6bbb
000001c0: 410a c53e 2895 81be 766f a63f ddf5 05c0
000001d0: 17d5 a1bf 17a7 d43f 6af0 c23e e358 023f
000001e0: 8847 17bf 4e31 8fbf 9eb0 583e 38a4 a4bf
000001f0: 9234 71bf f6bf 093f 9900 67bf 61d7 32bf
00000200: 907d 30bf b2ec 4b3e 6c53 38c0 ca29 07bf
00000210: e165 af3f 81d2 cf3e e070 11be 09a0 ae3e
00000220: 9dff c4bf 069b 6d3f 5650 3bc0 aecc b8bf
00000230: c2f0 2abf d44e 723f f3a9 f0bf 5f8b 853f
00000240: 7527 9bbf 4eb7 9e3f 8da1 fa3f 97a1 203e
00000250: 5600 dcbe a9fe 12bd 75c0 513f 6b43 b63f
00000260: 190c 973f d3e3 b13b aa6e 1e3d 85a6 51bf
00000270: b5eb 7fbf eadf d6bf 98bc 0640 2199 07c0
00000280: 9999 a7bf 67f7 3cbd b93f 873e 9b6d 08bd
00000290: 1a36 64be f81d b6bf 6447 803f 62a0 523f
000002a0: dd7b 843e 7ed0 0abf 0285 64bf e5bc 58bf
000002b0: aeaf 55bf fa4e 26bf 3a2d d03f c1ff 1c3e
000002c0: 000c 8c3f 3b2f 87bf de30 f93f 6f94 1ebf
000002d0: eda3 5c3f f305 00be a4b2 c0bf e08c 2abf
000002e0: 4e22 55c0 e802 a53e 8233 543f c484 f4be
000002f0: 6579 d3be 02fc fdbe d180 dd3c 5c32 e6bf
00000300: 5390 673e d988 1ec0 139d 98be 14d4 ad3e
00000310: 0dc9 3abf fdb3 a4bf 4c0e 0840 609a 36bf
00000320: bcd3 f2be 2364 633f 6e63 07bf 9f33 84bf
00000330: 508c f63e 1885 b0bf 7771 0eba 9144 19bf
00000340: 97da 1a3f 5055 2cbe 95de fcbf 91c2 74be
00000350: 26ff dbbf 8d73 673f cec2 e8bf 45d2 88bf
00000360: 1cae 05c0 0dcb 5f3f 80cb 29bf 7438 71bf
00000370: df0c 8a3f 8ce6 2ebf ca3f 7f3e c4b9 4cbe
00000380: a54d 71bf 898a 503d f435 17bf 8eaa 49bf
00000390: f4c7 d03d adf9 d63e 2011 aa3d 37a8 a43f
000003a0: b6f9 6abf b1f9 313f 8955 d7be 0669 65be
000003b0: 7c5b 423f 8ec0 903f 08a1 eabe 10c0 0540
000003c0: 1793 833f 3eaa acbf b674 b1bf dd81 cdbe
000003d0: 50e8 80bf b576 ec3f 48e1 7ebf de8a 88bf
000003e0: 3447 15c0 8386 4b3f cb1f 593f c7d6 2140
000003f0: e56c c73e 2941 fd3e d852 b23f a133 d03c

input_layer.bias f4 [256]
-0.06195412 -1.8547068 -0.06567741 0.06083012 -0.113309436 2.1206508 2.3352304 1.5660174
0.35562918 1.2653768 -1.7357594 0.11771036 -2.7477262 -0.523812 -3.92088 2.15659
-5.854082 0.67163026 -0.5442246 1.0074612 -2.9046113 -0.097689115 -4.7979274 -1.1660959
-0.1296072 0.6520888 -0.7856357 -0.98264015 3.1893895 0.12878698 -0.10661858 1.7387648
1.7926143 2.6513085 -1.6197715 0.35928965 -5.484136 1.5915459 0.9904535 -0.6348239
-2.6251168 -0.5386558 -2.2554362 -1.5498692 1.5763328 -0.632713 0.52956146 0.64637524
0.9767635 0.30428284 1.202663 1.3480339 -1.2399135 0.9444581 0.23059244 -0.28367344
1.7290442 2.0655167 2.6360958 -0.15678988 -7.5370355 -0.0974114 1.1652431 1.3632368
4.435314 1.0431244 4.312946 1.4566867 0.19089565 1.2050024 0.6644937 2.5971663
1.3009644 -3.765807 1.4487281 -1.2894237 1.7635684 1.0472968 -1.3686074 -0.764076
1.3911734 -1.4662348 0.117340885 0.49100038 2.4727964 -0.090213336 -0.07474659 -1.3198944
-0.3147331 0.58467185 1.4543679 0.008991648 1.9111637 -0.074692175 2.1981337 0.16405039
1.4369079 0.6653669 -3.3354466 2.0065017 -0.12362341 -0.26074353 0.2584001 -2.6270263
1.0907372 0.4426771 -1.2454922 1.6244202 -0.11935781 -0.43457448 -0.61593556 0.52530265
0.85936767 -0.9930771 -3.0086563 -0.18903588 0.9866228 -2.6060824 3.0130107 -0.2164162
0.26579937 0.88923806 -0.08425417 -1.1971945 1.2625571 1.2803588 -1.7015531 0.2945639
0.33730218 0.33947662 -2.3591144 -0.5697219 1.398407 0.5671526 -1.9369473 3.5478506
0.63362217 0.54704803 -0.87741363 1.4633113 0.4585543 0.0740639 -0.6067438 1.7080086
1.3930926 0.83991057 -1.1281803 -0.59883803 -0.6764301 -0.068871155 0.8247786 -1.5126323
-0.98901385 1.1908389 -0.13929035 -0.79845333 1.0150527 1.1914351 -1.3622507 1.6597365
-0.109027185 1.9262147 -4.5258594 -2.6338727 -7.6013103 -1.0680043 0.7977689 0.49941295
-0.17188634 -0.066381395 -0.94701767 -0.12575191 0.89133567 -0.13173826 2.0996058 0.7759353
1.5419753 -0.77091527 -0.029675944 -0.08465591 -0.10517763 -0.021115655 0.51023954 -0.7955642
0.9382942 2.0528557 0.14879762 1.7217717 2.0624588 3.2842822 -6.980007 1.4130883
-0.2769842 -0.696474 4.5777383 2.039848 -0.72047275 0.41212592 -0.015307456 0.14583142
1.9813182 2.1998212 2.7590413 -1.3770871 0.2463188 -1.3641268 -0.07413179 -0.005826869
0.2321351 1.29634 -0.18294449 0.28556415 -0.08094055 -0.44033855 0.052446954 0.3015483
0.13710243 -1.6035688 -0.50299495 -1.3033497 1.7981635 0.18882282 -0.18726136 3.5723732
1.5303187 2.0248334 -3.5194178 -0.26524612 0.40234038 -1.3536961 -4.4886975 0.50638473
-0.48382345 0.7151147 -0.3924932 0.08368812 0.8531191 3.0950155 1.6123618 1.917394
-0.0920731 -0.65999806 -0.03964004 1.525908 -1.0792553 0.47372404 -0.1309883 1.5314604
-1.1484748 -0.61083204 -0.15451795 1.7137454 1.1900377 -1.5400263 -4.9063544 1.94873
00000000: 9ac3 7dbd 0867 edbf e181 86bd 0129 793d
00000010: c70e e8bd beb8 0740 6a74 1540 4273 c83f
00000020: 0715 b63e def7 a13f 5d2d debf 2112 f13d
00000030: bfda 2fc0 8b18 06bf b3ef 7ac0 9205 0a40
00000040: a454 bbc0 f6ef 2b3f 4e52 0bbf 7df4 803f
00000050: 27e5 39c0 3b11 c8bd 9f88 99c0 a142 95bf
00000060: c0b7 04be 4bef 263f 6c1f 49bf 4e8e 7bbf
00000070: f51e 4c40 bce0 033e d85a dabd d88f de3f
00000080: 6374 e53f 0aaf 2940 ac54 cfbf d0f4 b73e
00000090: 0b7e afc0 c7b7 cb3f 5c8e 7d3f d283 22bf
000000a0: ea01 28c0 59e5 09bf 1159 10c0 1d62 c6bf
000000b0: 46c5 c93f 7bf9 21bf 5791 073f d978 253f
000000c0: 2c0d 7a3f f6ca 9b3e dcf0 993f 608c ac3f
000000d0: 7cb5 9ebf 02c8 713f 6d20 6c3e a53d 91be
000000e0: 5251 dd3f 6d31 0440 cbb5 2840 878d 20be
000000f0: 652f f1c0 a17f c7bd b026 953f 8b7e ae3f
00000100: 18ee 8d40 1a85 853f a703 8a40 b674 ba3f
00000110: 267a 433e 853d 9a3f 421c 2a3f f937 2640
00000120: 0086 a63f fb02 71c0 ec6f b93f d60b a5bf
00000130: 9cbc e13f d20d 863f 872e afbf 7c9a 43bf
00000140: f811 b23f 95ad bbbf 6b50 f03d 6764 fb3e
00000150: 4c42 1e40 c5c1 b8bd bd14 99bd 4df2 a8bf
00000160: b224 a1be 0ead 153f ba28 ba3f b551 133c
00000170: 03a1 f43f 36f8 98bd 39ae 0c40 d3fc 273e
00000180: 99ec b73f 7c55 2a3f f577 55c0 866a 0040
00000190: 452e fdbd 2d80 85be 054d 843e 3321 28c0
000001a0: 479d 8b3f 93a6 e23e 4a6c 9fbf 00ed cf3f
000001b0: de71 f4bd 8c80 debe f4ad 1dbf 3c7a 063f
000001c0: 85ff 5b3f 4d3a 7ebf d38d 40c0 9f92 41be
000001d0: 5093 7c3f 0eca 26c0 2bd5 4040 359c 5dbe
000001e0: db16 883e 1ba5 633f 738d acbd ab3d 99bf
000001f0: 799b a13f cce2 a33f 7ecc d9bf 14d1 963e
00000200: dfb2 ac3e e1cf ad3e bbfb 16c0 4bd9 11bf
00000210: 00ff b23f ea30 113f e4ed f7bf fc0f 6340
00000220: 1035 223f 570b 0c3f 2e9e 60bf c94d bb3f
00000230: a1c7 ea3e d0ae 973d 9053 1bbf 07a0 da3f
00000240: dc50 b23f 6104 573f 3668 90bf 734d 19bf
00000250: 862a 2dbf 520c 8dbd b124 533f ef9d c1bf
00000260: 0330 7dbf 696d 983f 21a2 0ebe 7067 4cbf
00000270: 3fed 813f f280 983f 3b5e aebf 3f72 d43f
00000280: a549 dfbd 348e f63f d7d3 90c0 5f91 28c0
00000290: ef3d f3c0 5db4 88bf 953a 4c3f 0eb3 ff3e
000002a0: f902 30be f8f2 87bd c06f 72bf 1cc5 00be
000002b0: 932e 643f 65e6 06be f15f 0640 b2a3 463f
000002c0: 725f c53f b45a 45bf f71a f3bc 1460 adbd
000002d0: 5f67 d7bd bdfa acbc 0f9f 023f 18aa 4bbf
000002e0: 0c34 703f fd61 0340 675e 183e 0463 dc3f
000002f0: 53ff 0340 ae31 5240 385c dfc0 14e0 b43f
00000300: e0d0 8dbe 1f4c 32bf d57c 9240 df8c 0240
00000310: e770 38bf 2b02 d33e 20cc 7abc d554 153e
00000320: d69b fd3f dfc9 0c40 2294 3040 6444 b0bf
00000330: ff3a 7c3e b59b aebf 68d2 97bd 52ef bebb
00000340: d3b4 6d3e 78ee a53f cd55 3bbe 7735 923e
00000350: 29c4 a5bd 0e74 e1be 9ed2 563d 8a64 9a3e
00000360: 9464 0c3e be41 cdbf 47c4 00bf 2ad4 a6bf
00000370: 392a e63f c55a 413e 71c1 3fbe c3a1 6440
00000380: 7ce1 c33f df96 0140 243e 61c0 57ce 87be
00000390: 8fff cd3e ea45 adbf 69a3 8fc0 6ea2 013f
000003a0: b5b7 f7be c211 373f def4 c8be ad64 ab3d
000003b0: 0366 5a3f bc14 4640 df61 ce3f 2b6d f53f
000003c0: d290 bcbd a2f5 28bf 985d 22bd f450 c33f
000003d0: 0a25 8abf f58b f23e cc21 06be e506 c43f
000003e0: 3901 93bf 7d5f 1cbf f439 1ebe 025c db3f
000003f0: 2853 983f 951f c5bf db00 9dc0 fc6f f93f

hidden_layers.0.weight f4 [126, 256]
1.0481751 0.17683932 -0.048733644 0.16257548 0.03509381 0.6522906 -1.4122782 -1.6063153
-1.9628538 -0.32994068 0.30713564 -1.0142705 0.634993 -0.72761977 -1.1701602 -0.30249846
-0.60804594 1.3708143 -0.6570737 0.95681083 -1.9026539 0.018766081 -1.7313852 0.038946506
-0.49008214 -0.53212327 -0.7451011 -0.40581176 -0.98085505 2.1458578 0.7850381 0.8178849
-1.0964398 -1.1365211 0.2991982 0.5104835 -1.8218431 -0.5489434 -1.4322727 0.8586261
-1.0158982 -0.38980302 0.049663696 0.7322052 0.71004343 -0.12373813 -0.650004 -0.09077546
0.18883944 1.0128367 -0.49268577 -0.08703403 1.247134 0.7771201 0.84712946 0.5529871
0.04179176 0.32270893 0.40051052 -0.95649004 -1.5674376 -1.2162939 0.45890912 0.94912475
-0.18439446 -1.6245072 -0.9027156 0.24911901 -0.21486698 0.67238444 0.7623791 -0.9340488
-0.32856748 0.70916843 -0.6806412 -0.24068636 -0.43486324 0.037986405 -0.5397085 -0.20908086
0.105909966 -1.8644742 -0.5528827 0.9637434 1.18511 -2.4144976 0.0016072737 -0.29919136
0.35891476 0.8518934 0.54868436 0.8990445 0.43448305 -0.023983343 -0.73677075 -0.18015052
0.74027354 -0.38016266 0.97598296 0.5622155 -0.08657565 0.38236216 -0.7905537 -0.33104324
0.6345241 -0.6238175 -1.5237697 0.5505457 -0.030002361 -1.3917648 0.111972965 -1.6528139
0.10351983 0.48056886 -2.8182638 0.5099131 0.24631044 0.033642907 0.31952402 0.6837456
-0.8429414 -1.703009 0.03949615 -0.7354531 -0.048635505 0.41437203 0.008181804 -0.25307775
0.12415732 -1.1421404 -1.4930246 -0.7467044 -0.08560848 1.4647288 -1.9165472 0.04604569
-0.52905905 -0.0584553 -1.081404 -0.5819187 0.3187338 -0.39604712 1.1889844 1.6162641
-0.38951594 -0.17390372 -0.7476906 1.2369403 0.2946128 0.060125727 0.9379057 -0.30427295
-2.0722015 0.790085 0.057048127 0.34748092 1.115823 -0.1975648 -0.16478246 -1.4097568
-0.055038705 -0.08965466 -0.24861269 -0.34997967 -3.6760242 -0.9414768 -2.3173585 -0.6536903
0.051797338 -0.02200054 -1.2740369 0.074546546 0.40070593 -0.0083425725 0.5298113 0.38695464
-0.47544426 -0.45507923 0.39337453 0.59540474 -0.07715331 0.067662865 -0.62926584 0.29717028
-0.73750305 -1.0486826 -1.2849107 0.48505953 0.23740423 -0.75522554 -3.970349 0.034190483
1.9533818 -0.5574766 -0.2517674 -0.8679683 0.8787337 1.3451691 -0.3330923 -0.1453151
0.4656091 -0.8335926 1.5558254 -0.8215856 0.6713098 0.19364811 0.033196487 -0.5109849
-1.6286718 -0.91455257 -0.032465883 -0.595919 0.045743767 -0.9190147 0.28295603 0.3138272
-0.092741035 -1.1852239 0.9072735 -0.5468269 -1.1022344 -0.72762555 -0.5357041 0.103995346
0.5627152 0.07945625 0.44815558 0.71172255 0.42122236 -0.21738973 -0.88753 -0.34805998
-0.056690894 -0.027433295 -0.5368462 -2.1005275 -0.18969963 -0.9180972 0.021353314 0.536832
-0.9125716 -1.1851537 -0.08264373 -0.5027581 0.6630962 -0.30236766 0.8437834 -0.8877113
-1.5179261 -0.8763882 0.9210193 0.5554467 -0.4779718 0.6082096 0.82305175 1.2624816
00000000: 9a2a 863f 5e15 353e ee9c 47bd 307a 263e
00000010: 87be 0f3d 84fc 263f 88c5 b4bf bd9b cdbf
00000020: cb3e fbbf fced a8be e240 9d3e 9ed3 81bf
00000030: e78e 223f 4a45 3abf cfc7 95bf 14e1 9abe
00000040: e6a8 1bbf d876 af3f fb35 28bf 8ef1 743f
00000050: 2a8a f3bf 53bb 993c 089e ddbf 5f86 1f3d
00000060: 0cec fabe 3b39 08bf f2be 3ebf 8fc6 cfbe
00000070: 5119 7bbf bc55 0940 42f8 483f e860 513f
00000080: 2458 8cbf 8679 91bf 8230 993e 0caf 023f
00000090: 2832 e9bf 8e87 0cbf b654 b7bf ecce 5b3f
000000a0: f408 82bf 4394 c7be 296c 4b3d cd71 3b3f
000000b0: 68c5 353f 6b6a fdbd aa66 26bf 7ce8 b9bd
000000c0: 205f 413e a2a4 813f 4f41 fcbe e63e b2bd
000000d0: 16a2 9f3f 58f1 463f 7add 583f 9090 0d3f
000000e0: d62d 2b3d 1b3a a53e b70f cd3e 88dc 74bf
000000f0: cca1 c8bf 85af 9bbf 23f6 ea3e d7f9 723f
00000100: e7d1 3cbe daef cfbf 5f18 67bf 0e19 7f3e
00000110: 1706 5cbe 6321 2c3f 472b 433f d21d 6fbf
00000120: ff39 a8be 108c 353f 803e 2ebf 7c76 76be
00000130: 65a6 debe a297 1b3d 562a 0abf 4b19 56be
00000140: 53e7 d83d 17a7 eebf b889 0dbf e3b7 763f
00000150: afb1 973f 2187 1ac0 28ab d23a 9c2f 99be
00000160: adc3 b73e b015 5a3f 9476 0c3f c827 663f
00000170: 9074 de3e b778 c4bc 029d 3cbf 6179 38be
00000180: 9182 3d3f aea4 c2be 05da 793f 5bed 0f3f
00000190: 934e b1bd f9c4 c33e ba61 4abf 807e a9be
000001a0: 2c70 223f 81b2 1fbf e30a c3bf 90f0 0c3f
000001b0: 83c7 f5bc 5925 b2bf 1552 e53d 688f d3bf
000001c0: 3402 d43d 1f0d f63e 6f5e 34c0 aa89 023f
000001d0: ce38 7c3e 25cd 093d a798 a33e f409 2f3f
000001e0: 02cb 57bf 33fc d9bf b7c6 213d a846 3cbf
000001f0: 0636 47bd 9228 d43e f90c 063c 6893 81be
00000200: 3146 fe3d a831 92bf 6e1b bfbf 0528 3fbf
00000210: 8053 afbd 3c7c bb3f 6b51 f5bf 689a 3c3d
00000220: 6a70 07bf d36e 6fbd 726b 8abf a0f8 14bf
00000230: 1431 a33e b0c6 cabe a430 983f bee1 ce3f
00000240: a26e c7be d113 32be a768 3fbf 0f54 9e3f
00000250: 7dd7 963e 6546 763d 971a 703f aac9 9bbe
00000260: f39e 04c0 0343 4a3f 4cab 693d 05e9 b13e
00000270: 4ad3 8e3f 6d4e 4abe bcbc 28be e972 b4bf
00000280: 4470 61bd dd9c b7bd 5394 7ebe 8930 b3be
00000290: fb43 6bc0 a004 71bf 9a4f 14c0 3f58 27bf
000002a0: 7229 543d 7a3a b4bc a413 a3bf dcab 983d
000002b0: 5429 cd3e 49af 08bc b7a1 073f eb1e c63e
000002c0: 6e6d f3be 2500 e9be 6368 c93e 726c 183f
000002d0: 8e02 9ebd d492 8a3d 9117 21bf b426 983e
000002e0: 00cd 3cbf 3b3b 86bf f477 a4bf b959 f83e
000002f0: 181a 733e 7656 41bf 331a 7ec0 520b 0c3d
00000300: 6a08 fa3f c9b6 0ebf a8e7 80be 2c33 5ebf
00000310: b1f4 603f 802e ac3f 138b aabe 7bcd 14be
00000320: 5164 ee3e 5366 55bf 4925 c73f 6f53 52bf
00000330: f6da 2b3f b14b 463e 0af9 073d e8cf 02bf
00000340: 5178 d0bf 1e20 6abf f2fa 04bd 268e 18bf
00000350: d15d 3b3d 8c44 6bbf 9ddf 903e f5ad a03e
00000360: 03ef bdbd 6bb5 97bf 1343 683f d9fc 0bbf
00000370: 0416 8dbf ab45 3abf e723 09bf 83fb d43d
00000380: 1a0e 103f f5b9 a23d a674 e53e 7333 363f
00000390: 75aa d73e 6a9b 5ebe 2b35 63bf eb34 b2be
000003a0: b634 68bd cabb e0bc c16e 09bf 0b6f 06c0
000003b0: 9f40 42be 6b08 6bbf 25ed ae3c d26d 093f
000003c0: 4b9e 69bf 1eb3 97bf 1e41 a9bd c1b4 00bf
000003d0: acc0 293f efcf 9abe 3002 583f 0c41 63bf
000003e0: 674b c2bf fa5a 60bf ecc7 6b3f c131 0e3f
000003f0: b8b8 f4be a0b3 1b3f 85b3 523f ff98 a13f

hidden_layers.0.bias f4 [126]
1.0163002 -4.073994 4.8698006 6.1656027 -4.516659 -4.219136 7.9638352 -4.1487675
4.2118597 4.978584 -0.8261052 2.5117953 13.308526 -5.4362197 -1.7529387 -4.506485
-3.3573291 4.5894804 6.300727 -3.3772795 8.10545 7.8710027 4.2972693 3.5894413
-3.5968783 3.6368403 3.331085 4.948654 -6.8868566 -3.7160258 -4.4927373 -4.960463
-5.644468 -0.37640122 5.2519593 2.2600641 5.5058184 -4.232935 -3.7333472 -5.3085437
-5.569497 -3.0034785 -1.370995 9.307317 -6.3102736 11.874928 -3.1269758 -2.8140717
-3.7068918 4.137558 -1.6543136 -3.4101388 8.551947 6.05317 7.140858 -4.4597816
4.1364017 -2.5228987 -4.961666 1.0709375 -4.172466 8.181412 0.12863904 0.019965814
11.286258 2.9219081 -5.3371406 5.7212915 -4.6230326 -3.1241174 -5.0163474 2.5645063
-3.7922318 8.956932 4.235877 -4.7720065 6.5339136 -3.200849 -3.7276678 -4.1568594
-4.205296 5.9353466 -3.3497574 0.376543 1.9584715 4.3814225 -4.0331054 8.19889
4.9160566 -8.170818 -4.562927 -3.0096138 -2.7503023 3.3899643 -2.6031504 -7.293319
6.557881 -5.07148 6.425472 -2.592768 3.7926784 6.508423 5.909648 1.1247371
-5.0426106 10.836183 -3.8703887 -4.474678 -5.8581405 3.3144379 -3.5145547 -9.683286
3.2244627 -3.202401 -3.4783914 -2.7606025 -0.47554377 -2.8959534 5.236948 -6.534307
3.6073716 4.7927604 4.5858145 2.7021708 11.584745 -4.928004
00000000: 2016 823f 295e 82c0 68d5 9b40 9e4c c540
00000010: 7888 90c0 2a03 87c0 bdd7 fe40 b4c2 84c0
00000020: 8ec7 8640 8f50 9f40 a17b 53bf 41c1 2040
00000030: b9ef 5441 83f5 adc0 4c60 e0bf 2035 90c0
00000040: 7bde 56c0 06dd 9240 8e9f c940 5925 58c0
00000050: ecaf 0141 41df fb40 3b83 8940 68b9 6540
00000060: 4133 66c0 fec1 6840 7f30 5540 605b 9e40
00000070: 2161 dcc0 5ed3 6dc0 81c4 8fc0 1dbc 9ec0
00000080: 7b9f b4c0 a9b7 c0be 0d10 a840 e4a4 1040
00000090: aa2f b040 3474 87c0 29ef 6ec0 97df a9c0
000000a0: 5239 b2c0 fe38 40c0 c47c afbf c5ea 1441
000000b0: c3ed c9c0 b5ff 3d41 5f20 48c0 c019 34c0
000000c0: b73d 6dc0 e066 8440 8cc0 d3bf b73f 5ac0
000000d0: c6d4 0841 92b3 c140 e981 e440 88b6 8ec0
000000e0: 675d 8440 2c77 21c0 f8c5 9ec0 7b14 893f
000000f0: d784 85c0 10e7 0241 f4b9 033e 598f a33c
00000100: 8394 3441 8b00 3b40 dbc9 aac0 d214 b740
00000110: e2ef 93c0 8af1 47c0 eb85 a0c0 df20 2440
00000120: edb3 72c0 984f 0f41 4e8c 8740 47b4 98c0
00000130: d215 d140 b6da 4cc0 1c92 6ec0 fe04 85c0
00000140: c991 86c0 5cee bd40 6d62 56c0 3eca c03e
00000150: 32af fa3f 9d34 8c40 330f 81c0 a72e 0341
00000160: 5650 9d40 acbb 02c1 7f03 92c0 839d 40c0
00000170: f404 30c0 2df5 5840 049a 26c0 df62 e9c0
00000180: 29da d140 9049 a2c0 779d cd40 e9ef 25c0
00000190: 3ebb 7240 0045 d040 d61b bd40 63f7 8f3f
000001a0: 115d a1c0 0161 2d41 73b4 77c0 9030 8fc0
000001b0: e375 bbc0 c01f 5440 77ee 60c0 bdee 1ac1
000001c0: 995d 4e40 23f4 4cc0 f79d 5ec0 b6ad 30c0
000001d0: 797a f3be 4d57 39c0 1495 a740 0b19 d1c0
000001e0: 2ddf 6640 4b5e 9940 febe 9240 5ef0 2c40
000001f0: 1e5b 3941 35b2 9dc0

hidden_layers.1.weight f4 [64, 126]
0.047214523 -0.8185666 0.099486925 -0.4479672 -0.17023446 0.06886015 -0.49159274 -0.30712473
0.78679806 -0.73038083 -0.8692377 -2.0181265 -0.038166143 -0.72211033 0.39202192 -1.3163074
-0.90710264 0.5628643 0.12391192 -0.46766472 0.027532201 0.025944402 -1.8546109 -1.268671
0.34038928 -1.1764101 -1.1880976 -1.9589809 -0.5481239 1.1887337 -0.33934835 -0.017680634
-1.6516339 0.0581895 -0.65229213 0.7386905 0.11890393 -1.2408624 -0.4669459 -1.6171517
-1.0889782 -0.38094297 -1.0022207 0.1889495 0.40385962 -1.5989734 -0.3419366 -1.8575048
-1.5129244 -0.22749786 -0.48298103 -1.3567619 -0.59971213 -0.9928729 0.18900296 -0.73899424
-0.5065277 -0.9295958 -1.1572686 -0.33826843 -0.3090009 -0.41710824 -0.4198486 0.17939211
-0.28912672 -1.4702187 -1.5428885 -2.1175528 -0.5709307 0.8648145 -0.6321638 -0.20231168
0.7524431 0.02305879 0.5873719 -0.6264901 -0.28763536 -0.43840387 -1.0931616 -0.12278149
-2.1648571 -0.92117554 0.18325791 -0.4162433 0.33769527 -0.6954841 -0.5414789 0.78520006
0.5754541 -1.0203035 0.19289017 -0.6788956 -1.1403896 0.01005542 0.47098827 0.19233645
-1.1189369 -0.6961717 0.11721457 -1.5222472 -1.2764869 -0.5099719 -0.6888227 0.10293827
-1.9496169 0.00061740185 -1.4440637 -0.45138687 -1.3093237 -0.59322387 -0.7716089 -1.9443197
-0.289704 -1.0172807 0.4119888 -0.22394125 -0.32276008 -1.6208344 -0.6527343 -2.736232
-1.1411755 -1.2373675 -0.22588149 -0.31646407 -1.0250627 -1.0101949 0.13662885 -0.8087894
1.0908481 -0.004852862 -0.30346206 -0.5227363 0.6379878 -0.47855777 -0.46258816 -1.2501452
0.44358656 0.16323167 -0.5076445 -0.08779126 -0.39714313 -0.4263358 -0.35490614 1.0414647
-0.06041486 -1.1210402 0.15993471 0.23385507 0.55238944 0.48233 -1.387901 1.2787558
-0.37638548 0.6611162 0.2578654 -0.7811666 -0.49946502 -0.6485966 -1.6418511 0.06412996
0.94899654 -0.6444899 1.3344911 0.1488482 -0.55571496 0.87753856 -1.9993135 -1.0089607
-0.3322401 -0.23592538 -0.7922143 -0.5309819 1.092749 0.3573285 -0.5104765 -1.3976201
0.6696205 -0.5767964 0.100205116 0.63941425 0.27331513 -0.80553186 -0.8811997 -0.27882457
-0.27200407 -0.5977425 -1.2864853 -0.5527926 0.29911533 0.78573865 -0.5640448 1.0102863
-1.2025466 -0.54336077 -0.31357622 1.2214712 0.92334306 0.62595236 -0.9790109 -0.72115034
-0.5293474 0.074248135 -0.41660616 -1.2504697 -1.3048306 0.36234298 -0.8820937 0.34065968
0.23873976 0.62686247 1.0826478 0.3178237 -0.901352 0.8662818 1.9256815 -1.3753984
-1.5394073 -1.1853166 -1.7934347 -0.4051047 -0.45008296 0.6242606 0.5074027 -0.13413239
-0.011627766 -1.9986027 0.63522476 -0.29586235 -0.77663267 -0.99661005 -0.27988482 -0.042314317
-0.66762626 -1.992565 -1.4098243 -1.446335 -0.15489836 -0.32568142 -1.4842691 0.5817489
-3.2439687 -0.5496582 -1.1737305 -0.2874945 -0.05945223 -0.4960006 -1.3305079 -0.8003346
1.7100643 -0.12194767 -0.33998758 0.30824044 0.6582972 0.5950796 0.5286252 0.7562242
00000000: 0464 413d 958d 51bf cdbf cb3d f55b e5be
00000010: f151 2ebe 8d06 8d3d 0bb2 fbbe 743f 9dbe
00000020: 996b 493f 3dfa 3abf 5d86 5ebf fc28 01c0
00000030: 1a54 1cbd 39dc 38bf 19b7 c83e c37c a8bf
00000040: e137 68bf e017 103f 88c5 fd3d c071 efbe
00000050: 368b e13c 5b89 d43c e463 edbf d063 a2bf
00000060: 8147 ae3e 9b94 96bf 9513 98bf e3bf fabf
00000070: d951 0cbf 6d28 983f 11bf adbe fad6 90bc
00000080: bd68 d3bf 1d58 6e3d 9efc 26bf d21a 3d3f
00000090: e783 f33d 94d4 9ebf 8813 efbe d4fe cebf
000000a0: a363 8bbf f50a c3be c548 80bf fa7b 413e
000000b0: b0c6 ce3e 29ab ccbf 5012 afbe b8c2 edbf
000000c0: 82a7 c1bf 33f5 68be 4a49 f7be 60aa adbf
000000d0: bc86 19bf eb2c 7ebf fe89 413e ba2e 3dbf
000000e0: cdab 01bf fef9 6dbf 6121 94bf 8531 adbe
000000f0: 5e35 9ebe 368f d5be 65f6 d6be 91b2 373e
00000100: 6b08 94be 2030 bcbf 5f7d c5bf fc85 07c0
00000110: 8428 12bf 7c64 5d3f 7dd5 21bf cb2a 4fbe
00000120: 1ca0 403f cae5 bc3c 015e 163f a861 20bf
00000130: f144 93be 7976 e0be b8ec 8bbf dd74 fbbd
00000140: 058d 0ac0 29d2 6bbf f6a7 3b3e d81d d5be
00000150: 65e6 ac3e 3f0b 32bf 5c9e 0abf df02 493f
00000160: f650 133f 4e99 82bf 0085 453e 1acc 2dbf
00000170: 49f8 91bf 7dbf 243c 6025 f13e d9f3 443e
00000180: 5339 8fbf 4f38 32bf 310e f03d ffd8 c2bf
00000190: ec63 a3bf 858d 02bf af56 30bf 4dd1 d23d
000001a0: 0c8d f9bf 23d9 213a 14d7 b8bf 2e1c e7be
000001b0: eb97 a7bf 85dd 17bf 2988 45bf 78df f8bf
000001c0: 1554 94be 4136 82bf 32f0 d23e db50 65be
000001d0: cf40 a5be 8077 cfbf 9819 27bf 6d1e 2fc0
000001e0: 0a12 92bf 0f62 9ebf 7a4d 67be 9407 a2be
000001f0: 4135 83bf 114e 81bf 6fe8 0b3e d20c 4fbf
00000200: e9a0 8b3f c204 9fbb 615f 9bbe 0cd2 05bf
00000210: 2b53 233f 8605 f5be 5bd8 ecbe c204 a0bf
00000220: c71d e33e 3426 273e fdf4 01bf e7cb b3bd
00000230: 5856 cbbe b048 dabe 42b6 b5be b74e 853f
00000240: 9275 77bd 3f7e 8fbf edc5 233e b477 6f3e
00000250: 6569 0d3f f5f3 f63e bda6 b1bf 45ae a33f
00000260: 99b5 c0be e93e 293f ef06 843e 89fa 47bf
00000270: e1b9 ffbe 6d0a 26bf 2d28 d2bf 9256 833d
00000280: 70f1 723f 4afd 24bf 9bd0 aa3f aa6b 183e
00000290: 5643 0ebf 5ea6 603f 81e9 ffbf a025 81bf
000002a0: 601b aabe 6c96 71be 8ece 4abf 6eee 07bf
000002b0: 33df 8b3f c3f3 b63e 97ae 02bf 37e5 b2bf
000002c0: 406c 2b3f eea8 13bf 5738 cd3d a7b0 233f
000002d0: f6ef 8b3e 5637 4ebf 4e96 61bf 18c2 8ebe
000002e0: 1e44 8bbe a705 19bf 8dab a4bf d183 0dbf
000002f0: a525 993e 2b26 493f 3d65 10bf 1051 813f
00000300: 0ced 99bf b119 0bbf 108d a0be 2b59 9c3f
00000310: 3660 6c3f 6a3e 203f 75a0 7abf 4f9d 38bf
00000320: 5083 07bf 680f 983d 674d d5be 640f a0bf
00000330: b004 a7bf 0585 b93e e5d0 61bf f26a ae3e
00000340: 3278 743e 0f7a 203f 3494 8a3f cab9 a23e
00000350: 01bf 66bf a5c4 5d3f bb7c f63f 0e0d b0bf
00000360: 4c0b c5bf 74b8 97bf 458f e5bf e269 cfbe
00000370: 4671 e6be 8bcf 1f3f 25e5 013f 005a 09be
00000380: 6382 3ebc 37d2 ffbf 179e 223f 457b 97be
00000390: 66d1 46bf d621 7fbf 104d 8fbe c751 2dbd
000003a0: 8ee9 2abf 5f0c ffbf 1f75 b4bf 8121 b9bf
000003b0: ad9d 1ebe b7bf a6be 88fc bdbf 7fed 143f
000003c0: 2f9d 4fc0 66b6 0cbf cd3c 96bf 7b32 93be
000003d0: 2e84 73bd caf3 fdbe 154e aabf bae2 4cbf
000003e0: 63e3 da3f b3bf f9bd da12 aebe b1d1 9d3e
000003f0: 2a86 283f 2357 183f fb53 073f e997 413f

hidden_layers.1.bias f4 [64]
0.7741522 -4.566475 -2.3486779 -1.8691438 1.2006562 -1.4595553 -5.9044523 -1.163406
2.1526353 -0.37662408 10.034032 -15.979978 3.074371 -2.4913394 -2.2325594 2.2289205
-1.4671254 -0.89326847 2.4088705 3.57189 1.91236 -5.098728 -0.1065011 -2.2418077
-2.6548822 15.397937 1.0727341 -5.087843 -3.732003 1.1243188 8.520078 4.6485524
1.2301685 -0.5167026 -2.5060377 -4.454281 -8.126288 20.987818 1.2024274 5.3111
-0.6275583 -3.4872978 1.0400301 3.051589 -4.908498 -0.9490482 -0.5392588 1.7221814
-3.9428542 -3.4132397 -1.172529 -4.9053946 -0.5037943 1.6872246 -7.1933913 -1.0999788
0.11265703 0.36919641 -8.771202 -1.8829616 -3.0036418 -2.3300035 -7.3560104 -5.0010977
00000000: d72e 463f 9020 92c0 bd50 16c0 1b40 efbf
00000010: 1aaf 993f b5d2 babf 46f1 bcc0 7dea 94bf
00000020: c7c4 0940 dfd4 c0be 658b 2041 fdad 7fc1
00000030: 7fc2 4440 1b72 1fc0 41e2 0ec0 a2a6 0e40
00000040: c4ca bbbf 3ead 64bf ef2a 1a40 d999 6440
00000050: 36c8 f43f c828 a3c0 401d dabd c779 0fc0
00000060: 97e9 29c0 f35d 7641 5a4f 893f 9ccf a2c0
00000070: 23d9 6ec0 aee9 8f3f 3d52 0841 f1c0 9440
00000080: 2976 9d3f 9f46 04bf ec62 20c0 7889 8ec0
00000090: 4705 02c1 0de7 a741 24e9 993f 88f4 a940
000000a0: a9a7 20bf e32f 5fc0 b51f 853f 3c4d 4340
000000b0: 6a12 9dc0 d3f4 72bf dd0c 0abf 7170 dc3f
000000c0: b957 7cc0 8572 5ac0 6e15 96bf fef8 9cc0
000000d0: aaf8 00bf faf6 d73f 4330 e6c0 1bcc 8cbf
000000e0: bbb8 e63d 5007 bd3e d856 0cc1 e304 f1bf
000000f0: ab3b 40c0 c71e 15c0 7064 ebc0 fe08 a0c0

hidden_layers.2.weight f4 [32, 64]
0.34104717 -0.058470912 -0.40105364 0.6668537 -0.28228888 -0.9069407 -0.53769904 0.5420565
0.06432219 -0.09433574 0.22708823 -0.5232705 0.07300697 0.14706853 -0.057633374 -0.06026258
0.25396904 -0.9504564 0.5756195 -0.08845238 0.06578774 0.097422734 -0.1329041 -0.16407406
-0.3868344 -0.32312238 -0.10147038 -1.3172555 -0.021382093 -0.39326882 -1.1262404 -0.15779683
-0.41945106 0.13233021 -0.6695178 -0.19918665 -0.6706865 -1.0305127 -0.08086628 0.18177772
-0.003994776 0.67963165 0.098134786 -1.0922658 -0.5314128 1.0170647 0.5286379 0.006826583
0.5829648 -0.5711384 -0.44493148 -0.16425115 -0.13429074 -0.0040841154 -0.37106076 0.18791102
0.67699456 -0.23928921 -0.66231805 -0.40462697 0.13067012 -0.16744861 -0.00024554567 -1.0602633
0.25332627 -0.12344491 -0.1946133 -0.13414979 0.086351365 -0.18885109 -0.1128498 -0.5228341
0.16699195 0.03524401 0.354577 -0.032393776 0.28013176 -0.16250835 0.22682606 0.05779023
-0.06986562 -0.45439973 0.21675543 0.08989659 0.19523728 0.032826874 0.16925737 0.120811924
-0.17790863 0.2568037 0.19477682 -0.0952903 -0.2027799 0.0960797 0.07638803 0.07427727
-0.104016356 0.17000186 -0.10006815 -0.21209626 -0.14197685 0.15414694 -0.10094725 0.1185689
0.06683604 0.08228845 -0.08575607 0.15026203 -0.19076486 0.07036447 0.11180712 0.12549451
0.13721791 -0.17983994 -0.12601355 -0.27432868 -0.009598785 0.057023056 -0.19568737 -0.15965998
-0.24108586 0.29351062 -0.34666285 -0.046133157 -0.17874682 -0.15039271 -0.11175729 -0.19739503
-0.7410513 -0.8040649 -0.19035561 -0.32779175 1.0736974 -0.6938009 0.26005524 -0.48302743
0.3853618 -0.39056507 0.23842865 -0.58261234 -1.2086521 -0.03413157 -0.027259646 0.30687925
-0.45834982 0.3877284 0.5474006 0.73777986 0.27155608 -0.04333461 -0.42059624 -0.42425638
-0.7543992 -0.85110724 0.091117665 -0.41929826 -0.046514988 0.032615542 0.2580308 -0.03575168
0.21144557 -0.04562142 -0.042950638 -0.0035446857 -0.20562947 -1.2798648 0.6058336 -0.18101138
-0.08261008 -0.28950986 0.5453469 0.24252002 -0.038683143 -0.41693068 0.6765857 0.93469816
-1.013353 -0.6902898 -0.28748363 -0.4008075 0.12219384 -0.21238479 -0.103177525 -0.11579202
0.20322771 -0.05362522 -0.12416753 -0.1682514 -0.20815624 0.38500443 -0.35142303 -0.3204501
0.065762326 -0.008236658 -0.018937485 0.08666843 0.17297609 -0.082321234 -0.37609228 -0.34955654
-0.06629474 0.13096571 -0.76328903 -0.06847753 0.10869251 -0.6253274 -0.73088694 -0.20162946
0.080032706 -0.009221808 -0.026084108 -0.11818747 0.1574137 0.109983355 0.03180281 -0.15907118
-0.44953692 -0.24836905 0.09037785 -0.58710325 0.11122136 0.01079984 -0.5664212 -0.02779864
0.0030640734 -0.18722396 -0.5908905 -0.08930628 -0.123717 -0.14974774 0.11400905 -0.16792448
-0.17299159 -0.35449782 -0.021003587 0.06255386 -0.97183913 -0.07354268 0.14327703 0.040541064
-0.3641307 -0.32762697 -0.1336011 -0.2546386 -0.048703562 0.12655137 -0.27108532 -0.19869025
-0.19349061 -0.45516467 -0.25382963 -0.016731288 -0.023545517 -0.6682344 -0.081537895 -0.24066241
00000000: bc9d ae3e 327f 6fbd e756 cdbe edb6 2a3f
00000010: 2b88 90be 442d 68bf a5a6 09bf 37c4 0a3f
00000020: 5abb 833d 1933 c1bd d189 683e 0ef5 05bf
00000030: ae84 953d 2299 163e f910 6cbd e5d5 76bd
00000040: 3b08 823e 1c51 73bf cd5b 133f 8526 b5bd
00000050: b9bb 863d 9285 c73d 0318 08be 0803 28be
00000060: 290f c6be 4c70 a5be b4cf cfbd d49b a8bf
00000070: 8029 afbc 885a c9be a528 90bf 7e95 21be
00000080: 4ac2 d6be 9281 073e 8565 2bbf 96f7 4bbe
00000090: 1cb2 2bbf d7e7 83bf 389d a5bd f023 3a3e
000000a0: 9ce6 82bb 57fc 2d3f e4fa c83d 5ecf 8bbf
000000b0: ab0a 08bf 2d2f 823f d054 073f 87b1 df3b
000000c0: 2e3d 153f 2036 12bf 0fce e3be 7431 28be
000000d0: 8383 09be 0bd4 85bb adfb bdbe bf6b 403e
000000e0: 844f 2d3f 3b08 75be ad8d 29bf 442b cfbe
000000f0: 63ce 053e a677 2bbe 95bc 80b9 b5b6 87bf
00000100: fbb3 813e afd0 fcbd b548 47be 905e 09be
00000110: fcd8 b03d 2e62 41be cc1d e7bd 75d8 05bf
00000120: f0ff 2a3e 065c 103d 1e8b b53e 56af 04bd
00000130: 6e6d 8f3e 9768 26be 1745 683e 73b5 6c3d
00000140: b515 8fbd 15a7 e8be 23f5 5d3e b41b b83d
00000150: 48ec 473e 7975 063d ce51 2d3e 3e6c f73d
00000160: ae2d 36be c67b 833e 9373 473e 9027 c3bd
00000170: 89a5 4fbe 6fc5 c43d 5471 9c3d ae1e 983d
00000180: 8706 d5bd f814 2e3e 88f0 ccbd c32f 59be
00000190: 6162 11be b2d8 1d3e 6fbd cebd 40d4 f23d
000001a0: 55e1 883d d986 a83d e1a0 afbd 4ade 193e
000001b0: dd57 43be 3f1b 903d 22fb e43d a281 003e
000001c0: da82 0c3e f627 38be b209 01be cf74 8cbe
000001d0: 3944 1dbc 0291 693d 4562 48be e87d 23be
000001e0: 36df 76be 0647 963e cb7d b1be 1ff6 3cbd
000001f0: 6809 37be 8c00 1abe 02e1 e4bd ec21 4abe
00000200: 8ab5 3dbf 33d7 4dbf 95ec 42be 52d4 a7be
00000210: eb6e 893f f09c 31bf f625 853e 5f4f f7be
00000220: 244e c53e 25f8 c7be a426 743e 1526 15bf
00000230: 1db5 9abf 8ccd 0bbd 9f4f dfbc 471f 9d3e
00000240: d4ac eabe 5684 c63e 7222 0c3f 24df 3c3f
00000250: 6609 8b3e a27f 31bd 6458 d7be 2238 d9be
00000260: 4e20 41bf 2ae2 59bf e69b ba3d 43ae d6be
00000270: 8086 3ebd e097 053d 9d1c 843e 5b70 12bd
00000280: 3085 583e 87dd 3abd 02ed 2fbd f54d 68bb
00000290: 8890 52be 9cd2 a3bf e917 1b3f 0c5b 39be
000002a0: 792f a9bd a33a 94be db9b 0b3f 2b57 783e
000002b0: 3772 1ebd f077 d5be b834 2d3f 6148 6f3f
000002c0: 8db5 81bf d5b6 30bf 0e31 93be a436 cdbe
000002d0: c440 fa3d 667b 59be bd4e d3bd 5e24 edbd
000002e0: ed1a 503e 1ea6 5bbd 8c4b febd 184a 2cbe
000002f0: e926 55be 4d1f c53e b8ed b3be 0912 a4be
00000300: 66ae 863d 0cf3 06bc c922 9bbc 387f b13d
00000310: a520 313e 0998 a8bd 2b8f c0be 13f9 b2be
00000320: 89c5 87bd e01b 063e e966 43bf f23d 8cbd
00000330: 2e9a de3d 7515 20bf 681b 3bbf f477 4ebe
00000340: 30e8 a33d 1117 17bc 57ae d5bc 460c f2bd
00000350: 0f31 213e f43e e13d aa43 023d 8ee3 22be
00000360: b429 e6be 7554 7ebe 0618 b93d 664c 16bf
00000370: 06c8 e33d d0f1 303c fb00 11bf f9b9 e3bc
00000380: 9fce 483b a3b7 3fbe 9a44 17bf 36e6 b6bd
00000390: 575f fdbd 7957 19be 947d e93d 65f4 2bbe
000003a0: b524 31be bd80 b5be b70f acbc 3d1c 803d
000003b0: 73ca 78bf 8b9d 96bd 37b7 123e 630e 263d
000003c0: 576f babe b9be a7be bace 08be fe5f 82be
000003d0: 637d 47bd af96 013e b2cb 8abe 7575 4bbe
000003e0: 6722 46be 580b e9be f5f5 81be 0e10 89bc
000003f0: 87e2 c0bc 6911 2bbf 57fd a6bd 3570 76be

hidden_layers.2.bias f4 [32]
-10.391241 17.850908 -0.16207324 12.653115 -6.6766734 -5.2584634 -5.8965573 20.310415
-1.6736873 9.906559 -0.15811633 -1.1761869 3.0080152 -0.98988223 -1.9395117 -3.0053267
-14.413123 11.867042 -2.821903 -6.8452334 -3.365616 -3.1813986 -7.000335 3.6401083
-0.8979818 -1.5104843 -8.906178 3.149019 -0.8935635 22.612892 -7.891918 5.869111
00000000: 8642 26c1 a9ce 8e41 87f6 25be 2973 4a41
00000010: 4fa7 d5c0 5545 a8c0 99b0 bcc0 bb7b a241
00000020: 633b d6bf 4481 1e41 3fe9 21be 4b8d 96bf
00000030: 5283 4040 ec68 7dbf eb41 f8bf 4657 40c0
00000040: 279c 66c1 67df 3d41 0f9a 34c0 270c dbc0
00000050: 4166 57c0 099c 4bc0 bf02 e0c0 89f7 6840
00000060: 23e2 65bf 8d57 c1bf b57f 0ec1 8789 4940
00000070: 94c0 64bf 34e7 b441 988a fcc0 c2cf bb40

output_layer.weight f4 [1, 32]
-0.041011184 0.14969033 -0.08024536 -0.07643741 -0.015204638 0.013885106 0.019057874 0.07908166
-0.11344277 0.0061393697 -0.042847503 -0.00805409 -0.17128354 -0.079414114 0.16738193 -0.035445858
-0.021259611 0.052758332 -0.040985484 0.0532349 0.027136244 0.051678576 -0.071204945 -0.09940502
0.041171975 0.045865018 -0.021086283 0.0326239 0.025614638 0.17259979 0.02426762 -0.025668213
00000000: 58fb 27bd 6c48 193e ae57 a4bd 388b 9cbd
00000010: e01c 79bc 5b7e 633c 421f 9c3c 91f5 a13d
00000020: af54 e8bd c42c c93b dd80 2fbd 4df5 03bc
00000030: f464 2fbe dea3 a2bd 2b66 2b3e ad2f 11bd
00000040: a328 aebc 1f19 583d 65e0 27bd d70c 5a3d
00000050: d44c de3c eaac 533d e6d3 91bd dc94 cbbd
00000060: f2a3 283d f5dc 3b3d 24bd acbc a3a0 053d
00000070: cad5 d13c 00be 303e e3cc c63c 2546 d2bc
