checkpoint_actor.pth (torch, 40787 bytes, 4 tensors)

input_layer.weight f4 [256, 33]
00000000: 6db0 bb3d 9d28 abbd dd65 bdbd e1dc 0f3f
00000010: cd9a cbbc 7d5c e5be a13a 833e b36c 9bbe
00000020: d3e9 8c3d 76f6 3abe aa57 333e 683c e63d
00000030: be31 27bb f195 87bc f0a2 c0bd cf63 b2bc
00000040: 4910 813f cdd7 803e 3173 d23d 18c5 04bf
00000050: b674 eabb 2b33 953d 01b5 e6bd cd98 e03c
00000060: 108f 82bd a050 c23c 62b5 823e 5b72 003e
00000070: a7ba 22be f01e d6bb 6a89 90bd 78c8 0d3c
00000080: f975 ebbd b50b 303e 5461 63bd c8cb 2fbe
00000090: ecbe 593e 76fe b73e b5ed a83e d096 c9be
000000a0: 07a4 19be 27c8 033e bc09 ad3d 1508 82bc
000000b0: 8dd0 a13d e062 4a3e 9e26 2bbb be2c f4bd
000000c0: 5152 91bd 6ead adbd 53a8 bcbd 8e07 2abe
000000d0: 2e65 f5bd 4a00 f33d e653 51be ec05 473e
000000e0: 0abf 6c3b 85cd b63c 4e15 a9bd f8a5 cd3c
000000f0: 4e08 e6bd 0fc4 3d3e 08ff 5c3c 00c4 293e
00000100: 60b7 b5bc e8d7 0abd 0885 aebd c3dc 3b3d
00000110: c5c8 b63d 1522 b03e 0a8d 72be e8f5 a8be
00000120: de5f a43e a441 74bd 48ec 9c3e 8e78 64be
00000130: a178 bfbd dea2 2e3d f4ad df3d 7280 f2bd
00000140: 6e9f adbc 184b bdbc 85d1 2a3e d5f8 753d
00000150: d1a3 e7be 2fd9 543e a2a7 eebc 9ccd e53b
00000160: 4158 bf3d f110 2fbe f82c d43c e2b5 263e
00000170: 8e30 26be 852f 493e 04ac 673d ecb3 93bc
00000180: bcd5 50be 4e75 58bd 2a18 a4be 791a 343d
00000190: f197 d83d aa3e 163e 33f3 f4be bb7e 7dbe
000001a0: 9aeb d93c b449 1fbe 67da 863d d3fa 39bd
000001b0: 7152 05bd 3f19 b93d 88b3 a23d da88 cdbd
000001c0: 7030 343e ae33 743e 0935 f83d 7671 73be
000001d0: 2321 2b3e b7fc e53e e82e 9c3d c53c 24bd
000001e0: d3c3 4dbd 541d dd3d b16e 08be 2d3d 9bbc
000001f0: 7f84 acbd 2ed5 883e 73e8 48be da43 a53e
00000200: 2860 b5bc a4a5 e63d 90f4 3f3c f58c 283f
00000210: 10a3 b13d 8be5 14bd aeb0 403e cb7c 193e
00000220: 5e49 22be 5732 63be 52f5 213d bdba 373d
00000230: b267 24bd 39a3 06bd 5f4e d6bd dfe4 943d
00000240: 7f98 b4bd de46 4c3e 65fd 26bd c065 8e3d
00000250: 0646 8b3d 37c1 f5bc 6542 8abc 8948 6c3e
00000260: a94b 70bd 177b fabd 8518 a03d 445b 6a3d
00000270: bef0 913d 5cc1 6bbd 09e0 dfbd 1883 88bd
00000280: 1740 7dbe 7ed7 43bd 7e68 9c3d a091 88bc
00000290: 2663 d93f a0fc bd3d ec4a c13b 840e 26bc
000002a0: 310b 8a3e 41b8 b8bd 02cb 0dbe 99ce b03d
000002b0: 650f 84bd 3cab 703e 387e 8bbd be88 05be
000002c0: e2fb cd3d af72 05bd 7eb0 9cbc 4fac 96bd
000002d0: 8b53 c9bd c7d0 cbbe e37c d4bd e366 8cbd
000002e0: d2e2 adbe 1301 9a3d 49ff 003e 78bc 5cbd
000002f0: 143a 8dbd 421a b93d 85c3 32be 7b87 54bc
00000300: 2717 9ebe 44cd debd b081 b1bc 60a9 7a3e
00000310: 40ff 64bd 9395 2c3f 8173 373c 97ba 58be
00000320: ee7c dabd 3c8b c6be 5f3c 5abe 0fbc 563e
00000330: d106 013e 6468 a0bd 0c69 ddbd 14a8 2cbd
00000340: c375 33be 3b85 cf3d 264f 2bbd 2e1c 7f3d
00000350: dec9 18be 1f6c 363d bd1e 043e 5513 74bd
00000360: 669e 4cbe f69b 45be 821a 9e3c 8ed3 5a3d
00000370: 9027 b7bd 3e85 39be ae7f 43bd bc37 36be
00000380: fed6 a9bc fa07 3e3e 0e03 78be 4656 7a3d
00000390: 6e4b 0abe 68f2 93bc e726 83bf d0f8 19be
000003a0: 4002 ef3d 5d2c 643e baaf 903e 5ba3 2a3f
000003b0: 0b92 b03e 4be5 5ebe c52f cfbd 8e20 75bd
000003c0: f0eb f73d 2191 9ebb 17ae f0bc d5d4 bdbd
000003d0: 7fa8 19be e63d c13d 2193 6a3d fe9b 08be
000003e0: 571a 0b3f ea22 403d f749 3abd 5e4a b5bd
000003f0: c901 253d aa60 90bc e9d0 913d a3b1 29bd
0.0916451 -0.08357356 -0.092479445 0.5619641 -0.024854088 -0.44797125 0.25630668 -0.30356368
0.06880536 -0.1825808 0.1751391 0.1124199 -0.0025511826 -0.01655099 -0.09406078 -0.021776108
1.0083095 0.25164643 0.10275877 -0.5186324 -0.0071550263 0.0728515 -0.112649925 0.027416611
-0.06374943 0.023720086 0.2552901 0.12543623 -0.15891515 -0.0065344498 -0.0705746 0.0086537525
-0.11497111 0.17191966 -0.05551274 -0.1716758 0.21264237 0.35936326 0.32993856 -0.39372873
-0.15003978 0.12869321 0.08449122 -0.015872994 0.07901106 0.1976428 -0.0026115547 -0.119225964
-0.07095779 -0.08480345 -0.09211793 -0.16604444 -0.11982189 0.118652895 -0.20442161 0.19435853
0.003612461 0.022314796 -0.08256017 0.025103554 -0.11232053 0.18531822 0.013488539 0.16578674
-0.022182167 -0.03389731 -0.085214674 0.04586483 0.089250125 0.34401003 -0.23686615 -0.33000112
0.3210439 -0.059632912 0.30649018 -0.22311613 -0.0934918 0.04263579 0.10921851 -0.11840905
-0.021194186 -0.023107097 0.16681488 0.060051758 -0.4524217 0.20785974 -0.029132668 0.007013036
0.09343005 -0.17096306 0.025900349 0.1628032 -0.1622946 0.19647034 0.05656053 -0.01803013
-0.20394033 -0.052846245 -0.32049686 0.04397056 0.105758555 0.14672342 -0.47841796 -0.24755375
0.026601601 -0.1555546 0.06584626 -0.04540522 -0.032549325 0.090380184 0.07944399 -0.10035868
0.17596602 0.23847839 0.12119491 -0.2377375 0.1671186 0.4491937 0.07626134 -0.040097017
-0.05023558 0.107966095 -0.13323475 -0.01895007 -0.08423709 0.26725143 -0.19619922 0.3227833
-0.022140577 0.11262062 0.011716023 0.65840083 0.0867368 -0.03635172 0.18817398 0.14989011
-0.158483 -0.22187172 0.039540596 0.044855822 -0.040137954 -0.032870505 -0.10464167 0.07270216
-0.08818149 0.19948909 -0.040769 0.06953001 0.06800465 -0.029999359 -0.016877363 0.23074545
-0.058665905 -0.12230509 0.07817177 0.057215944 0.07125996 -0.05755745 -0.10931403 -0.06665629
-0.2473148 -0.04781293 0.07637118 -0.016671002 1.6983383 0.092767 0.005898824 -0.010135297
0.26961663 -0.09019519 -0.13846973 0.086331554 -0.06448249 0.2350282 -0.06811184 -0.13040444
0.100578085 -0.032580074 -0.019127127 -0.07357084 -0.09830388 -0.39807722 -0.10375383 -0.068555616
-0.33962113 0.07519736 0.12597384 -0.053890675 -0.06895843 0.090382114 -0.17457397 -0.012971754
-0.3087704 -0.10878995 -0.021668285 0.24478674 -0.055907488 0.6741573 0.011196972 -0.21164928
-0.1066836 -0.38778102 -0.21312092 0.20970176 0.12600257 -0.07832411 -0.10811052 -0.04215248
-0.17525391 0.101328336 -0.04182353 0.062282734 -0.14920756 0.044536706 0.1290235 -0.05958875
-0.19982299 -0.19297776 0.01929975 0.05342441 -0.08943093 -0.18117234 -0.047729187 -0.17794698
-0.0207324 0.1855773 -0.24219915 0.061117433 -0.13505337 -0.018059924 -1.0246247 -0.1503632
0.11670351 0.22282548 0.2825907 0.6665551 0.34486422 -0.21767156 -0.10116533 -0.0598455
0.121055484 -0.004839078 -0.029379888 -0.0926911 -0.15005682 0.09435634 0.05726922 -0.13340756
0.54337066 0.046908297 -0.045480695 -0.08852075 0.040284906 -0.017624218 0.071199246 -0.041429173

input_layer.bias f4 [256]
00000000: 4044 12bd eb60 943e 175b 95be 5353 983e
00000010: c2f7 963d f78f ef3d 924c a3be fd3e 1dbe
00000020: 4512 8ebd 9cbc 6f3e 03de bdbd f30c 08be
00000030: 6946 54be b966 2f3d efea 993e 9f48 8fbe
00000040: 4194 65be eed4 b6be 65af f93d eb4f 023d
00000050: 8772 2a3d 6d7e 8bbd 7c18 90bd 50b5 d73d
00000060: 158f 7e3e 17ec 7fbd d000 50be 1058 c5bd
00000070: 1f29 3c3d c82d 66be 3ee7 0a3e 6630 833e
00000080: ba51 e73d 2283 e7bd 5982 96be 921f 9b3e
00000090: 12cb b23e c275 693e 4817 7f3e 97bb f53d
000000a0: c124 f9be fb5b 8dbd 2533 a33d 3c91 2dbe
000000b0: 211b eebe 6ffb 0ebe 21f2 ca3d b405 683e
000000c0: 2f17 c43d 4862 053e a1a2 4bbe 2dfa 6b3e
000000d0: 8ba3 00be 7a4f 47bc 3117 94be 3947 9a3d
000000e0: e0d7 1ebe 5912 2dbe 56ac 083e 28a2 1e3e
000000f0: 38c1 673d a9ad a53e 7b52 00bf 89f4 a2bd
00000100: b4f1 103e f179 213e 91b3 613e a6bb c63e
00000110: 769d c53c f3c6 5b3e eca9 56be e521 ce3d
00000120: 6cb5 5a3d e41e 15bf 64c8 8fbe efbe 7cbe
00000130: 7fa8 903e eee7 3a3e b15e b93e 363a 6fbf
00000140: cec5 043d 7f9b 6e3c decb 713d cc11 553e
00000150: 9c98 3a3d e510 f9bd 58bd 183c ab8a 0e3e
00000160: 9a0d b5bc 5089 bfbd 311f 063e cf40 5c3e
00000170: 9002 0fbd 94b2 60be 5a9a 66be 657d 98be
00000180: a43c 9b3e c36a 61bc d25c 723e 9ada cbbd
00000190: a73c c33e 013c 413e a15d 9e3d f48d 88be
000001a0: 071e d1be 7838 0dbe 5f31 55be c68a a13e
000001b0: 386e 193e d6d7 17bf 7bfd 01bc e609 89be
000001c0: 3e4d ea3d b0ac bbbd 76ae 6cbe ef3c 0abf
000001d0: b14a 97be b17b a8be 93e9 b53c b994 d7be
000001e0: 569f b63d 72f4 a1bd 0c5b bf3d 5f79 463e
000001f0: d0e6 33be 3d2b 993d 95f0 2f3e 945c b53e
00000200: 685f f0be f3fa ab3e 94bc cdbe 9e56 54be
00000210: 3d79 8bbd 81f5 163e fe92 81bd 8e09 883e
00000220: b83c 20bd cb53 403e dcd8 a8bd e96b bcbe
00000230: 0d82 bf3d 709a 433e 2ae3 88bd e7c1 c4bd
00000240: b475 463e ec52 8cbd fce3 57be 3454 ba3d
00000250: dbe1 a93d 0cca 193e 3316 21be 32dc 52bc
00000260: a4e9 dabe d2b4 9d3e 7c35 bb3e 0b0b 60be
00000270: 9e08 abbc c374 07be 74e9 073e 2b9b f3bd
00000280: df96 a43c 2e93 bd3c 51e0 79bd 19df 3fbd
00000290: 9065 973e 8ec4 063a 7265 34be 3330 fe3c
000002a0: a220 9abe 2b2d c93e f391 f1bc 4eb2 963e
000002b0: 9704 963d bdfd 733e 347e f3be 8f9c 8b3e
000002c0: 8288 503e 86f9 25be 8f39 05bf 4131 d0bc
000002d0: b068 883e 14ba 01bd c190 a8be 34ef ddbe
000002e0: a05b f63d 59a8 58bc aa54 5abe 5cdb c1be
000002f0: 961f 94be 7dc9 8b3e 964b 8e3c c4c1 213d
00000300: 6b51 f23d b94c ae3e 5c3a 8b3e f99b 49bd
00000310: b46e 1ebe 86bb 1c3e e9ff 5ebe 0412 f53d
00000320: 3ff4 bdbd e762 583e c9aa adbd 0510 923d
00000330: 6b9c abbe 8af8 e83d 014a e63c 5721 a13b
00000340: bdaa cabd aaf3 373d 8aba c43e cb56 2abc
00000350: 4a90 153e 9dfa b3bb 05d9 6f3d 92ed ab3e
00000360: b27d 443e 0754 3b3e 0723 23bd dc10 873d
00000370: ad6f 563d 5b78 09bf b5d0 86bd 4d95 10bf
00000380: 01a8 913e b2b2 a3be d862 0d3e 2cd9 07bd
00000390: 49cd ce3c de4f a3bd 9b4d 2d3e 5cbb 363d
000003a0: 32dd 47bf df72 c8be b796 533e adc7 4bbe
000003b0: a10f 08be 281a 8d3b d670 8abd a57a adbd
000003c0: df56 9dbc 9207 83be ab52 23bc b372 dabd
000003d0: ce60 c4bd aba4 c03d e6de d33d 9c96 80bd
000003e0: 0c69 853d 2896 3c3e 6419 babd c6f7 09be
000003f0: 7640 ce3d c9c8 fd3b 783c c0bd 85b0 de3d
-0.03570962 0.28980193 -0.2917106 0.2975107 0.07371475 0.11697381 -0.31894356 -0.1535606
-0.069370784 0.23411793 -0.09270861 -0.1328619 -0.20729984 0.042822573 0.30062053 -0.27985093
-0.22419836 -0.35709327 0.12191657 0.031814497 0.041613128 -0.06811223 -0.0703592 0.105326295
0.24859269 -0.062481012 -0.2031281 -0.09635937 0.045937654 -0.22478402 0.13564774 0.25622863
0.11294885 -0.113043085 -0.29396322 0.30297524 0.34920555 0.22798827 0.24911225 0.119986705
-0.48660854 -0.069023095 0.079687394 -0.16949934 -0.46505073 -0.13963102 0.09909464 0.22658426
0.095747344 0.13025773 -0.19886257 0.23044653 -0.12562387 -0.012164945 -0.28923944 0.07533116
-0.15512037 -0.1690153 0.13346991 0.15491545 0.056580752 0.32359055 -0.50125855 -0.07956798
0.14154702 0.15769173 0.22041155 0.3881504 0.024122935 0.21462612 -0.20963258 0.100650586
0.053395674 -0.5825026 -0.28082573 -0.2468221 0.28253552 0.18252537 0.36205056 -0.934482
0.032415204 0.01456344 0.059032314 0.2080757 0.045555696 -0.121614255 0.009322487 0.13920085
-0.022101212 -0.09352362 0.13097836 0.21509098 -0.034914553 -0.21943122 -0.22519818 -0.29783168
0.30319703 -0.013758364 0.2366822 -0.09953804 0.38132212 0.18870546 0.07732702 -0.26670802
-0.40843222 -0.13791072 -0.20819615 0.31551188 0.14983451 -0.59313715 -0.00793397 -0.26765364
0.11440514 -0.09163797 -0.23113427 -0.5399923 -0.29549173 -0.3290687 0.022206103 -0.42105654
0.0891711 -0.07907952 0.09343538 0.19382237 -0.17568517 0.0747895 0.17181619 0.35422194
-0.4694779 0.33589897 -0.40182936 -0.20736167 -0.06810234 0.1474209 -0.06326865 0.2656979
-0.039120406 0.18781964 -0.08244488 -0.3680108 0.09350977 0.19101882 -0.06683953 -0.096072964
0.19380838 -0.068517536 -0.21083063 0.09098092 0.08295032 0.15018481 -0.15731125 -0.0128698815
-0.4275638 0.30802017 0.36564243 -0.21879213 -0.020878132 -0.13228135 0.13272649 -0.1189483
0.020091472 0.02314147 -0.06100494 -0.046843622 0.29569674 0.0005140983 -0.17616823 0.031028843
-0.30103022 0.39292273 -0.02948854 0.2943291 0.07325094 0.23827262 -0.47557223 0.27267882
0.20364574 -0.16208467 -0.5204095 -0.025414111 0.2664237 -0.0316716 -0.32922938 -0.4334656
0.12029195 -0.013223731 -0.2132136 -0.3786267 -0.28930348 0.2730216 0.017370027 0.03949143
0.118319355 0.3404291 0.27192962 -0.049221013 -0.15471917 0.1530591 -0.2177731 0.11966327
-0.09275102 0.21131478 -0.0847984 0.07131962 -0.33517775 0.1137553 0.02811146 0.0049173045
-0.09895847 0.04491011 0.38423568 -0.01039667 0.14605823 -0.005492522 0.058556575 0.3357969
0.19188574 0.18293773 -0.039828327 0.065950125 0.052352596 -0.5369927 -0.065827765 -0.56477815
0.2844849 -0.3197227 0.13807237 -0.033166096 0.025244372 -0.07974218 0.16924135 0.044612274
-0.7807189 -0.3915014 0.20662962 -0.19900389 -0.13287212 0.0043060966 -0.06759803 -0.08470658
-0.019206462 -0.25591713 -0.00996844 -0.106664084 -0.095887765 0.09406408 0.10345249 -0.062787265
0.06514177 0.18416655 -0.09086874 -0.13473424 0.10070889 0.0077448827 -0.093865335 0.10873512

output_layer.weight f4 [4, 256]
00000000: eeb2 0b3f 6437 8d3e b245 16bf bc47 163d
00000010: f4d0 0f3f 297d 9a3d 0f27 edbe e3fb 8dbe
00000020: d7aa 8e3e ee56 ad3d e446 56bf 2d30 183f
00000030: a6ae 4bbf 707a 8d3e 7883 013f 4828 72bf
00000040: 641a 553f cbb0 e9bc 1f4a 29be a8f5 39bf
00000050: b86c 5c3f c58a 083e 0202 7dbe d2e4 873e
00000060: f591 ab3f d430 41bf 01a1 3c3f 9d2c 2bbf
00000070: a143 d63e 8ba9 a03e 2bd6 a5bd 61cc f3be
00000080: d72c 55bf e20c 913f 7d8d 263d 683a a2be
00000090: f33e b7be 9e2c 133e d6f2 cc3f 680c 0ebf
000000a0: 7447 993e 26a3 1bbf bc57 b8be 808f 17bf
000000b0: 5918 a13e 3a60 6abd 2890 563c 8a59 693e
000000c0: 34d6 8d3c 20c5 ac3e d734 2fbf 624e 9d3e
000000d0: fc29 423f 8d5b fdbe 3b52 0d3f 78dd 9cbe
000000e0: f30d 9a3e be70 2dbf ff3d 2d3e 3cb8 08bf
000000f0: f1e2 b9bd 3def dfbe cab5 fdbe 0be4 483e
00000100: 99ea 0e3f bbbe 19bf 4cc9 203f 659b 593c
00000110: d6cf 2abf 0def acbe 3d09 6e3f 6f9d 12bf
00000120: fee9 04be c766 973f d73e 0abf 1860 893f
00000130: 1cf5 a5bd e9db 53be 3e3b 71be 9c3d 953f
00000140: 6a6c 36bf 485b 1ebf 0748 0fbf 0e09 7cbd
00000150: 8231 c3bd b8ea f33e bab2 b23e 6323 3d3f
00000160: 6656 003e fa34 663f 7a56 c7be b1b6 dabe
00000170: 5475 763f b54a 803e 2a2f 1fbf b762 53bd
00000180: 5ea2 183f a88f c1bc 6acb 313f 72bf a7be
00000190: a5c0 18bf 935f a53e a98d ffbe 68d3 8dbe
000001a0: 54db 193e a43d 2cbf a831 a63e 06f5 4c3f
000001b0: d8aa 123d fbce 9a3f e4df 01bf 99e7 b6be
000001c0: 05c6 233e 3ade c43d b55c 633f eb0c 6d3f
000001d0: 5b27 a53c 8f53 89bf f3cc 343e 434b 743f
000001e0: 6d5b 553c 2f2d 9ebd f519 0cbd 62bf 13bf
000001f0: f817 e3bd d1ab ac3e 924e 183f 69fb 093f
00000200: 6db6 553f f8d0 a9be ec35 3abf b9e1 4d3e
00000210: 2149 473f d5ed e6bd 7655 d83e c7ea 21be
00000220: 0e19 ab3e 9930 95be a6b2 3cbd 9191 203f
00000230: c850 e4be aaed f9be 316c c5be eaa2 2fbf
00000240: f591 1fbf 02d8 8ebd a421 9ebd 60ec fb3e
00000250: ca63 a5be 2e57 1c3f 67f3 763f 2a81 da3e
00000260: 5ff9 72bf 7026 f5bc 4e87 3cbf 0da5 bd3e
00000270: 3bdc 533e 84c3 93be 11fb 45be 4620 eb3e
00000280: 32be 35bf 8e3b 7a3e 52d3 c13e 6e81 cabd
00000290: 4cd4 cc3e e06f 01bf 7b08 553f 28ab 923f
000002a0: 1bf5 28bf 8a7d d13e 03ba a6be 6629 1dbf
000002b0: 75ba 2e3f 7c91 913e a77b 7d3f a347 213c
000002c0: 435b 0a3f 760f f83d 4b9a 193f a631 bbbe
000002d0: 3b58 c03e 884a 6ebe 0bb1 623e 73c2 49bf
000002e0: 113f fabe 8c4f cdbe cf9c d6be f336 d53f
000002f0: f824 c23e 59e6 0dbf 453b 26bf 060d fdbe
00000300: e744 383f ed55 d6be 8fa1 2a3f 55ed df3e
00000310: 8b69 d7be 07a1 76bf ca6a 9a3f 85b7 ec3e
00000320: 86c5 cbbe 1d4e 33bf 2d14 633e 5b23 35be
00000330: 580c 49bf 5141 59be 0d0c 783f 39d3 a1be
00000340: 7fe6 ad3e 5063 b03d a3ad 06bf 12a4 b03e
00000350: 84cc 17be e5b6 2f3f 2d27 dbbe 28a0 8d3d
00000360: f112 c5be d45a 13be 003d 10bf 2391 ff3d
00000370: 4319 1bbf 0499 053f 2643 eebe ab10 33be
00000380: f7e8 45be 7063 83bf 9246 333e 5047 603f
00000390: 1448 9b3d bce8 53bf f883 79be f7e1 913e
000003a0: f591 823f 34f0 7c3f c4ad 413f f122 c2be
000003b0: 0bc5 26be 8df7 b3bc 28d3 82bf 5f08 50be
000003c0: 2801 ea3f f149 70be 2a7a ffbe a8d2 76be
000003d0: 52c4 00bf 6bde 183e 744f 45bf d905 1b3f
000003e0: 7187 f7be d1ae c9be 3323 60bf 1e2c dcbe
000003f0: f2e5 0f3d ee09 3cbd 4920 4bbf deba 1cbf
0.545699 0.27581322 -0.58700097 0.036689505 0.5617821 0.07543404 -0.46318862 -0.27731237
0.27864715 0.08463846 -0.8370192 0.5944851 -0.7956337 0.27632475 0.5059123 -0.94592714
0.83243394 -0.028526684 -0.16532181 -0.72640467 0.8610339 0.13334186 -0.24707797 0.26541764
1.3403918 -0.7546513 0.7368317 -0.6686495 0.41848472 0.3137935 -0.0809749 -0.47616866
-0.83271545 1.1332057 0.040662277 -0.31685185 -0.35790214 0.14372489 1.6011608 -0.5548768
0.29937327 -0.6079582 -0.36004436 -0.5920334 0.31463888 -0.057220675 0.013095893 0.22788063
0.017314054 0.33744144 -0.6844 0.30723864 0.75845313 -0.4948391 0.552036 -0.30637717
0.30088767 -0.67750156 0.16918181 -0.5340612 -0.09076489 -0.43737212 -0.49552757 0.19618241
0.5582672 -0.60056657 0.62807155 0.013281678 -0.6672338 -0.3377613 0.92982846 -0.57271475
-0.12979886 1.182824 -0.54002136 1.073245 -0.081033915 -0.20689358 -0.23557755 1.1659427
-0.71259177 -0.61858034 -0.5596928 -0.061532073 -0.09530927 0.47640014 0.34901983 0.7388212
0.12532958 0.89924586 -0.38933164 -0.42717507 0.9627278 0.25056997 -0.6218134 -0.051607814
0.5962275 -0.023628071 0.6945101 -0.3276325 -0.5966895 0.3229948 -0.49912766 -0.27700353
0.15025073 -0.67281556 0.3245976 0.80061376 0.03580746 1.2094415 -0.50732255 -0.3572357
0.15993507 0.09612699 0.88813335 0.92597836 0.020160368 -1.0728625 0.17656307 0.9542734
0.013022286 -0.07723462 -0.034204442 -0.577139 -0.11088556 0.33724836 0.5949489 0.53899246
0.83481485 -0.33167243 -0.7273853 0.20105638 0.7784596 -0.112758316 0.42252702 -0.15812217
0.33417553 -0.2913864 -0.04606881 0.62722117 -0.4459288 -0.48814136 -0.38559106 -0.6860796
-0.6233209 -0.06974794 -0.0772126 0.49203777 -0.32302696 0.61070526 0.9646515 0.4267667
-0.9491176 -0.029925555 -0.7364396 0.37039986 0.2068948 -0.28860104 -0.19334055 0.4592306
-0.7099334 0.24436781 0.37856537 -0.09887968 0.4000572 -0.5056133 0.83216065 1.1458483
-0.65999 0.4091609 -0.3256379 -0.61391294 0.6825326 0.28431308 0.99016804 0.00984374
0.54045504 0.12112324 0.6000106 -0.36561316 0.37567315 -0.23270619 0.22137849 -0.7881233
-0.4887624 -0.40099752 -0.4191651 1.6657394 0.3791883 -0.5542961 -0.6493419 -0.49424
0.71980137 -0.4186243 0.6665277 0.43735757 -0.4207271 -0.9633946 1.206384 0.46233764
-0.39799136 -0.70041066 0.22175665 -0.17689268 -0.7853446 -0.21216322 0.9689339 -0.31606463
0.33964917 0.08612692 -0.526087 0.34500176 -0.1482411 0.6863845 -0.42803326 0.06915313
-0.38491014 -0.14390117 -0.5634308 0.124788545 -0.6058542 0.5218661 -0.46535605 -0.17486827
-0.1932715 -1.0264721 0.17507389 0.87608814 0.07582107 -0.82777 -0.24366748 0.2849271
1.0200793 0.9880402 0.7565577 -0.37917283 -0.16286103 -0.021968627 -1.022069 -0.20315693
1.8281603 -0.23465706 -0.4989789 -0.24103796 -0.5029956 0.14928596 -0.7707436 0.605558
-0.4834552 -0.39391187 -0.8755371 -0.4300241 0.035131402 -0.045907907 -0.7934614 -0.61222637

output_layer.bias f4 [4]
00000000: 9bf1 2bbd b8c6 3e3d d8ed 2d3d 5739 fcbd
-0.04197846 0.04657623 0.042463154 -0.12315624
