checkpoint_actor.pth (torch, 622647 bytes, 8 tensors)

input_layer.weight f4 [100, 33]
0.023973025 -0.30545107 0.03781089 0.014479064 0.275766 0.3912883 -0.03495159 -0.102169484
0.15096857 -0.037931934 0.031295016 -0.019777304 -0.0066914735 0.15793248 0.17168912 0.07125641
0.749118 0.6468509 -0.014013193 -0.3173467 -0.00120845 0.031971622 -0.008425397 0.12183795
-0.044735335 -0.0044808537 -0.27053648 -0.14227358 0.29342696 -0.0777496 0.206134 0.072243035
2.5295627 -0.06853265 0.24220468 0.023277728 0.3267912 -0.056570534 -0.020473382 -0.0564147
-0.119612455 0.049962893 -0.025777364 -0.0001893902 0.012249618 -0.07419006 0.14196105 0.04299576
-0.22692622 0.7463826 0.52938575 0.2727208 -0.85922915 0.031224228 0.057814084 0.0109716
-0.10378586 0.01437464 -0.057905033 0.00037338416 0.04894936 0.053302944 0.017948294 -0.17710455
0.020008683 0.12975375 -0.0031303293 -0.047401853 0.025052892 -0.16896506 -0.22128618 0.14811428
0.2313584 -0.03428977 -0.007810856 0.037780527 -0.013591952 -0.010625915 0.12652676 0.08708317
0.04163287 0.16131768 0.10216895 -0.16007024 -0.34511054 -1.1655846 -0.02559027 0.03683801
0.014986234 -0.026262613 0.025803668 0.08851416 -0.1323101 -0.053688187 0.45248383 0.057346165
0.013796065 -0.07480418 -2.3738804 0.006277134 0.043344345 -0.005662755 0.56848425 0.11722598
-0.117679216 -0.46528432 0.043244917 -0.02656345 0.1565169 0.0067497585 -0.022622045 0.02759007
0.046081927 -0.060768325 0.0047071213 -0.047850993 0.33649936 -0.3059305 -0.07789856 0.0255823
0.028125085 -0.0062401397 -0.013292736 -0.0040881066 -0.0014646242 0.016128406 -0.17959648 -0.06529416
-0.07267574 0.22241087 -0.07748586 5.275871 0.22163026 -0.039843634 -0.0023288205 0.79137695
0.5189888 -0.034587275 0.14647076 0.06918934 -0.066150896 0.104038954 -0.036060344 -0.052684404
0.07822816 -0.14229216 0.06732588 -0.082763866 -0.17353447 -0.5227414 -0.33665568 0.31361905
-0.043965764 -0.009333846 -0.0022970007 -0.01086297 -0.0735697 0.01263545 0.17007019 0.21852364
0.1610763 -0.010837781 -0.23035589 -0.090526484 1.8737601 -0.20053348 0.0061840676 -0.25455883
-0.33458483 0.027200757 -1.5511688 0.5279099 0.05414339 0.09915482 -0.029818082 -0.04935831
0.011460428 -0.021191126 0.09892686 0.033285726 0.08677373 -0.7856851 -0.41047144 0.17405365
-0.34812742 0.082738005 0.04425063 -0.061710246 0.05548711 -0.023572292 0.038152054 0.17579825
0.1230563 0.07333491 0.06834519 -0.10422222 -0.026833296 -1.9579853 -0.10461481 -0.1174231
0.1026754 -0.65454084 -0.22069028 0.4332108 0.31244934 0.010144136 -0.25545913 0.07018281
0.04841629 0.010355878 -0.073569365 0.17858534 0.06662884 -0.13744561 -0.7627789 0.3937175
-1.3404452 -0.120056316 -0.05417149 -0.005335751 0.033498783 -0.015907677 -0.055708442 -0.116858974
0.0671611 0.009271218 -0.1111355 -0.008807123 -0.017809864 -0.07683613 -0.29831758 -0.25910738
-0.08481204 -0.018487098 -0.16420063 0.1654561 -0.24850202 -0.13918042 -0.021359017 -0.049928524
0.047303785 -0.037508197 -0.008266881 0.033094954 0.15527648 -0.061357513 0.020079348 -0.47478673
-0.25924793 0.88536775 -0.21485054 0.011460306 -0.046407443 0.034416433 -0.025812205 -0.0009686988
00000000: 1463 c43c 1564 9cbe 97df 1a3d 9939 6d3c
00000010: 3331 8d3e f156 c83e 6629 0fbd 3c3e d1bd
00000020: 8197 1a3e 845e 1bbd 342f 003d 0304 a2bc
00000030: 2644 dbbb 0db9 213e 46cf 2f3e e1ee 913d
00000040: 32c6 3f3f 0598 253f 9797 65bc 447b a2be
00000050: da64 9eba adf4 023d ad0a 0abc 2d86 f93d
00000060: 663c 37bd 20d4 92bb c283 8abe 2ab0 11be
00000070: 0f3c 963e 2f3b 9fbd cb14 533e 28f4 933d
00000080: 5be4 2140 d95a 8cbd 8104 783e efb0 be3c
00000090: 2d51 a73e 81b6 67bd cbb7 a7bc 1a13 67bd
000000a0: 60f7 f4bd e4a5 4c3d 0d2b d3bc 0b97 46b9
000000b0: 9fb2 483c f5f0 97bd 3d5e 113e 521c 303d
000000c0: 595f 68be ee12 3f3f d385 073f 10a2 8b3e
000000d0: 71f6 5bbf f4c9 ff3c 76ce 6c3d 3ac2 333c
000000e0: ae8d d4bd 9c83 6b3c d42d 6dbd c6c2 c339
000000f0: 207f 483d 3054 5a3d 4d08 933c e55a 35be
00000100: 40e9 a33c 2bde 043e 3626 4dbb 7228 42bd
00000110: b93b cd3c 2d05 2dbe d898 62be 45ab 173e
00000120: 37e9 6c3e 6e73 0cbd 36f2 ffbb c1bf 1a3d
00000130: c7b0 5ebc 5118 2ebc 3b90 013e a958 b23d
00000140: 3a87 2a3d 7630 253e f43d d13d 74e9 23be
00000150: 54b2 b0be e031 95bf b0a2 d1bc 74e3 163d
00000160: d288 753c b124 d7bc 3762 d33c e946 b53d
00000170: 4d7c 07be 25e8 5bbd f6ab e73e d0e3 6a3d
00000180: e408 623c ef32 99bd a8ed 17c0 6bb0 cd3b
00000190: d789 313d a28e b9bb 2f88 113f 2d14 f03d
000001a0: cd01 f1bd bf39 eebe 9521 313d 989b d9bc
000001b0: f745 203e 142d dd3b de51 b9bc 9204 e23c
000001c0: 67c0 3c3d 35e8 78bd 323e 9a3b 67ff 43bd
000001d0: a549 ac3e eca2 9cbe 4889 9fbd f991 d13c
000001e0: 9466 e63c 167a ccbb c7c9 59bc 86f5 85bb
000001f0: a2f8 bfba b81f 843c 24e8 37be f2b8 85bd
00000200: 05d7 94bd adbf 633e e8b0 9ebd efd3 a840
00000210: 0bf3 623e 1433 23bd 209f 18bb ae97 4a3f
00000220: 73dc 043f 63ab 0dbd 6efc 153e 24b3 8d3d
00000230: 1f7a 87bd 6012 d53d 03b4 13bd 9acb 57bd
00000240: 1636 a03d 09b5 11be 27e2 893d 1a80 a9bd
00000250: 05b3 31be 61d2 05bf 225e acbe ad92 a03e
00000260: 7215 34bd fdec 18bc 4789 16bb 99fa 31bc
00000270: b6ab 96bd eb04 4f3c e126 2e3e a9c4 5f3e
00000280: 30f1 243e f390 31bc 6ae2 6bbe f365 b9bd
00000290: 5fd7 ef3f a658 4dbe b8a3 ca3b 8955 82be
000002a0: b44e abbe 1fd4 de3c b38c c6bf 1a25 073f
000002b0: 76c5 5d3d af11 cb3d 0d45 f4bc f02b 4abd
000002c0: 85c4 3b3c 0399 adbc 2a9a ca3d 9d56 083d
000002d0: 6db6 b13d a922 49bf 5029 d2be 1f3b 323e
000002e0: c23d b2be 8b72 a93d 2640 353d e2c3 7cbd
000002f0: 7446 633d ae1a c1bc 5445 1c3d 7504 343e
00000300: f104 fc3d 9d30 963d 90f8 8b3d 7672 d5bd
00000310: 80d1 dbbc 439f fabf 4a40 d6bd 867b f0bd
00000320: 7b47 d23d fd8f 27bf a2fc 61be cecd dd3e
00000330: 5cf9 9f3e 9733 263c 8acb 82be 01bc 8f3d
00000340: 2950 463d b3ab 293c 89ab 96bd 13df 363e
00000350: b474 883d 8bbe 0cbe 7a45 43bf 5795 c93e
00000360: b593 abbf 16e0 f5bd ede2 5dbd 86d7 aebb
00000370: 0536 093d d150 82bc 892e 64bd c253 efbd
00000380: c28b 893d 4fe6 173c 029b e3bd c04b 10bc
00000390: fee5 91bc 435c 9dbd 15bd 98be b9a9 84be
000003a0: efb1 adbd 4172 97bc 3624 28be 536d 293e
000003b0: 5077 7ebe 5085 0ebe 1bf9 aebc da81 4cbd
000003c0: 9dc1 413d 32a2 19bd d071 07bc 938e 073d
000003d0: cc00 1f3e 0452 7bbd 727d a43c 3f17 f3be
000003e0: 25bc 84be 76a7 623f c801 5cbe 02c4 3b3c
000003f0: bb15 3ebd 3ff8 0c3d 1e74 d3bc 47f0 7dba

input_layer.bias f4 [100]
0.0983663 -0.11726334 -0.033786774 0.13033944 -0.13663223 -0.021060972 -0.0067382357 0.18014938
-0.013805585 0.31639656 -0.25555834 -0.013976471 0.13987938 0.006141376 0.19452658 -0.053148113
0.19378884 0.16908659 0.15674427 -0.009126434 0.28980234 -0.15619032 0.26569688 0.27119958
0.41856012 0.29173824 0.20851171 0.07337738 -0.17957209 -0.25415012 0.42665172 0.21442474
0.34007227 -0.004860148 -0.057913978 -0.21968651 0.0049268226 -0.1894293 0.003773761 -0.22724259
0.30861047 -0.07892885 -0.2146758 0.05548895 -0.3092671 -0.007507992 -0.17614068 0.0322634
0.08088623 0.21005304 0.19893852 0.31286058 0.22383198 -0.13353087 0.20347956 -0.068438746
-0.052661203 -0.053632304 -0.09556662 0.2790771 0.11417614 -0.16878706 -0.33261585 0.14855477
0.15027128 -0.11527742 0.41432053 0.08634454 0.09337089 0.086764015 0.24214472 0.16112837
0.2605867 -0.20728333 0.03722662 0.19846825 0.22399028 0.29697156 0.005034312 -0.03118178
-0.09812944 0.13706975 0.07944193 0.18765293 0.059789795 0.13117968 0.18170923 0.08510179
0.24559866 0.06590735 -0.11486235 0.3271588 0.32649392 0.0009394026 0.019146372 0.08370321
0.02928783 0.028475093 -0.11225311 0.07273265
00000000: 4574 c93d c327 f0bd 0064 0abd b477 053e
00000010: 52e9 0bbe 0f88 acbc 6bcc dcbb 1479 383e
00000020: d230 62bc bbfe a13e 8bd8 82be 91fd 64bc
00000030: 8a3c 0f3e 993d c93b fa31 473e d6b1 59bd
00000040: 9570 463e 0925 2d3e 9281 203e 0a87 15bc
00000050: f960 943e 5bf0 1fbe 6c09 883e acda 8a3e
00000060: 834d d63e b75e 953e 1884 553e e146 963d
00000070: bfe1 37be f71f 82be 1872 da3e 2992 5b3e
00000080: f41d ae3e e041 9fbb 3537 6dbd 80f5 60be
00000090: 2f71 a13b c1f9 41be 3451 773b 48b2 68be
000000a0: 3102 9e3e 73a5 a1bd f9d3 5bbe 6248 633d
000000b0: 4258 9ebe 9a05 f6bb 395e 34be a026 043d
000000c0: aea7 a53d 2518 573e 8ab6 4b3e 432f a03e
000000d0: 3634 653e 51bc 08be f25c 503e 9d29 8cbd
000000e0: 46b3 57bd 8cad 5bbd 6fb8 c3bd 32e3 8e3e
000000f0: 2ed5 e93d 84d6 2cbe a04c aabe be1e 183e
00000100: b7e0 193e 9116 ecbd d221 d43e 68d5 b03d
00000110: 3d39 bf3d 55b1 b13d c9f4 773e d6fe 243e
00000120: 9f6b 853e 1542 54be f17a 183d 433b 4b3e
00000130: b55d 653e a80c 983e dff6 a43b ef70 ffbc
00000140: 16f8 c8bd 035c 0c3e 73b2 a23d 1728 403e
00000150: 25e6 743d f753 063e fc11 3a3e d949 ae3d
00000160: 377e 7b3e 6ffa 863d f43c ebbd 5c81 a73e
00000170: 362a a73e 3e42 763a dad8 9c3c 976c ab3d
00000180: 08ed ef3c 9944 e93c f5e4 e5bd dbf4 943d

hidden_layers.0.weight f4 [500, 100]
0.13685557 -0.12748182 -0.34427142 0.041915737 -0.06555351 -0.288064 0.22861928 -0.050513923
0.15273596 -0.17619225 0.15544812 -0.006189975 0.20806384 0.09311828 -0.31520653 0.09249185
-0.1837713 -0.118703134 0.16790311 0.08111086 0.005774374 -0.48815787 0.1475349 0.093885556
0.028819885 0.12436678 -0.24425639 -0.19508307 -0.059518162 -0.12518997 0.006921186 -0.0016631514
-0.005153549 0.070961446 -0.093823954 -0.41331226 -0.23425901 -0.070540674 -0.42604056 -0.2911508
-0.3138617 -0.1772148 -0.23368976 0.118646555 -0.1558943 0.3515171 -0.21104938 -0.23703805
0.22833441 0.22118916 -0.12695387 -0.15813209 -0.05532931 -0.40282127 0.14823413 -0.004092231
-0.6115296 -0.012217959 -0.60980314 0.2725967 -0.40218908 0.43464378 -0.28371835 0.21580793
0.14994098 -0.17153835 0.15077728 -0.031045023 0.08657882 -0.045867093 -0.019264886 0.21664797
-0.06400175 -0.25254816 -0.03674375 0.13774484 -0.07838879 0.089353144 0.153121 -0.31024787
-0.01877829 -0.74032694 0.044259813 0.31497025 -0.16154389 0.22540297 -0.048243716 0.11227702
0.22463304 0.020463265 -0.014847378 -0.38812965 0.2758622 0.15215144 0.021855177 0.27527982
-0.1620964 -0.08206079 0.1168681 0.061587326 0.09077443 -0.0931825 0.22546473 -0.21384169
0.08029179 0.24474098 0.20416819 0.20010595 0.12839776 0.20889369 -0.040969804 -0.013172763
0.2007177 -0.06857203 -0.24777745 -0.07846891 -0.0712491 0.21558641 0.18942206 -0.3344215
0.051321708 0.05697705 -0.35466588 -0.45810598 -0.4606418 -0.44134998 0.33192208 0.09405763
-0.10823121 -0.15339835 0.1493432 0.29372242 -0.35855287 0.16985057 -0.07539407 -0.16194938
-0.096218295 0.05014926 0.116912864 0.043914683 0.21792652 0.24723181 0.05049254 -0.30725947
-0.14411071 0.15404478 -0.13706338 0.06184064 -0.14100194 -0.044643838 -0.072459176 0.1747459
0.10902549 0.14051643 -0.24211262 -0.15685222 -0.12839134 0.30466342 0.025980601 -0.26648003
0.080643535 0.090449594 -0.20279756 -0.2997812 0.08423157 -0.13441399 -0.01228349 -0.0041916813
-0.08921522 0.0896792 0.015197861 -0.2241448 -0.42016917 0.06158407 -0.093702644 0.21768506
0.11918471 0.2087822 0.16000395 0.18024799 -0.119685814 -0.028101347 -0.081610635 0.09697958
-0.26839644 -0.25005814 -0.011240381 -0.081667826 -0.20757411 -0.15836264 0.15889266 -0.009523753
0.0054742186 -0.09888149 -0.033681076 -0.20506556 0.09876339 0.22074695 0.052997615 -0.045305066
0.17936333 0.12696289 0.034800097 0.23828806 -0.10585842 0.28853068 0.07052804 -0.098786496
-0.097848475 -0.16239992 0.022134282 -0.10977656 0.03734098 0.006122552 0.10466779 -0.25315353
0.0736632 -0.20638184 -0.26428136 -0.043026768 -0.21138686 -0.29793683 -0.0122937495 0.226188
0.006042959 0.17960596 -0.15690006 0.17240658 0.097384565 0.08528741 -0.32814467 -0.019700637
0.19337836 0.12609811 -0.2311923 -0.045598507 -0.22035874 0.21829794 -0.09180928 -0.12951966
-0.089130394 -0.37894818 0.006517924 0.18864696 0.2811019 0.034389395 0.23387922 -0.122429006
0.20402686 -0.14628012 0.0195355 -0.28735095 0.03293668 -0.07459005 0.34423062 0.111109816
00000000: de23 0c3e 988a 02be 5844 b0be d6af 2b3d
00000010: eb40 86bd 207d 93be 2c1b 6a3e b0e7 4ebd
00000020: d166 1c3e be6b 34be cb2d 1f3e 46d5 cabb
00000030: b00e 553e ccb4 be3d c062 a1be 5e6c bd3d
00000040: 8b2e 3cbe a11a f3bd cbee 2b3e 731d a63d
00000050: f636 bd3b d4ef f9be 6413 173e 1247 c03d
00000060: ae17 ec3c 03b4 fe3d 591e 7abe dbc3 47be
00000070: 51c9 73bd cd31 00be 1ecb e23b 1afe d9ba
00000080: 1adf a8bb 3c54 913d c626 c0bd aa9d d3be
00000090: 98e1 6fbe a177 90bd fd21 dabe b811 95be
000000a0: 7bb2 a0be cc77 35be 5e4c 6fbe f7fc f23d
000000b0: c1a2 1fbe 0dfa b33e 541d 58be 1aba 72be
000000c0: 7fd0 693e 697f 623e 3200 02be 61ed 21be
000000d0: fda0 62bd 973e cebe b0ca 173e 1f18 86bb
000000e0: 348d 1cbf d62d 48bc 0f1c 1cbf cb91 8b3e
000000f0: baeb cdbe a189 de3e 8843 91be c1fc 5c3e
00000100: 218a 193e c0a7 2fbe 5c65 1a3e 2252 febc
00000110: 3d50 b13d 22df 3bbd 65d1 9dbc f7d8 5d3e
00000120: 5913 83bd fe4d 81be 9d80 16bd fc0c 0d3e
00000130: 4d8a a0bd c8fe b63d c0cb 1c3e cfd8 9ebe
00000140: eed4 99bc 1186 3dbf c749 353d c843 a13e
00000150: c36b 25be 09d0 663e 349b 45bd 7ff1 e53d
00000160: 3406 663e 94a2 a73c 6b42 73bc eeb8 c6be
00000170: cf3d 8d3e 96cd 1b3e a109 b33c 7af1 8c3e
00000180: 99fc 25be 7d0f a8bd 8b58 ef3d fe42 7c3d
00000190: f2e7 b93d 77d6 bebd 3ae0 663e 51f9 5abe
000001a0: 0670 a43d 619d 7a3e 7711 513e 93e8 4c3e
000001b0: b47a 033e 3ae8 553e f4cf 27bd 93d2 57bc
000001c0: f188 4d3e 7e6f 8cbd 5fb9 7dbe 4fb4 a0bd
000001d0: 0ceb 91bd afc2 5c3e dbf7 413e 4b39 abbe
000001e0: b636 523d c460 693d c496 b5be de8c eabe
000001f0: 3ed9 ebbe a0f8 e1be b1f1 a93e 49a1 c03d
00000200: 53a8 ddbd 7514 1dbe 6ced 183e c962 963e
00000210: 3e94 b7be 4fed 2d3e 3568 9abd 0fd6 25be
00000220: 190e c5bd 4f69 4d3d 0370 ef3d e2df 333d
00000230: 2128 5f3e 562a 7d3e 44d1 4e3d 1d51 9dbe
00000240: c291 13be eabd 1d3e 585a 0cbe 9c4c 7d3d
00000250: d062 10be 75dc 36bd 7a65 94bd 97f0 323e
00000260: c248 df3d 8ae3 0f3e 5fec 77be de9d 20be
00000270: 0579 03be d8fc 9b3e 45d5 d43c 1270 88be
00000280: 7028 a53d a33d b93d 2aaa 4fbe ec7c 99be
00000290: 9a81 ac3d d2a3 09be b140 49bc 5f5a 89bb
000002a0: 78b6 b6bd baa9 b73d 7300 793c 3786 65be
000002b0: 6a20 d7be 943f 7c3d 2ce7 bfbd d5e8 5e3e
000002c0: 1d17 f43d 00cb 553e 13d8 233e ee92 383e
000002d0: d61d f5bd cc34 e6bc 7a23 a7bd 3b9d c63d
000002e0: 426b 89be 9f07 80be 9329 38bc 7641 a7bd
000002f0: 4f8e 54be d129 22be c2b4 223e 8409 1cbc
00000300: 1361 b33b 6182 cabd 2bf5 09bd b5fc 51be
00000310: 7644 ca3d 7d0b 623e 0714 593d ce91 39bd
00000320: 05ab 373e 8f02 023e 8c8a 0e3d c901 743e
00000330: 4dcc d8bd 4bba 933e 0171 903d 9350 cabd
00000340: c864 c8bd 2a4c 26be f452 b53c 88d2 e0bd
00000350: dbf2 183d b09f c83b 115c d63d 579d 81be
00000360: bbdc 963d c355 53be e34f 87be d63c 30bd
00000370: cc75 58be 2d8b 98be b96b 49bc d49d 673e
00000380: 0404 c63b a0ea 373e 69aa 20be 5a8b 303e
00000390: 8f71 c73d 2aab ae3d 9402 a8be 3b63 a1bc
000003a0: fa04 463e dd1f 013e adbd 6cbe 80c5 3abd
000003b0: b9a5 61be 7f89 5f3e 8106 bcbd cda0 04be
000003c0: ff89 b6bd 7f05 c2be 4f94 d53b ab2c 413e
000003d0: 97ec 8f3e e5db 0c3d 097e 6f3e 0fbc fabd
000003e0: 6bec 503e 75ca 15be ea08 a03c aa1f 93be
000003f0: 9de8 063d abc2 98bd ff3e b03e 8b8d e33d

hidden_layers.0.bias f4 [500]
-0.062232334 -0.21721311 -0.024683595 0.1769106 0.104018986 -0.09928437 0.06162774 -0.006830586
-0.076060094 -0.05104852 -0.082683764 0.04161375 0.020558152 -0.014516782 0.08110671 0.0033653586
-0.032938242 -0.02538667 0.03998844 -0.06527792 -0.12252692 0.07540504 -0.1537125 0.116659276
-0.19615477 -0.03354928 0.020218063 -0.06150232 -0.0048064305 0.05799218 0.0499656 0.21032767
-0.11739581 -0.07448295 0.031984277 -0.12323003 0.04974688 -0.17994562 -0.039779432 -0.08324804
0.021747064 -0.035888087 0.0076389154 0.11037419 -0.113663256 -0.0105610695 -0.17799367 0.11704861
-0.2139887 -0.03714069 0.11788544 0.12491363 0.07039121 0.07769888 -0.1716325 0.057301402
0.020290563 -0.04593565 0.044191983 -0.11100078 0.17145419 -0.08665748 -0.06653914 0.06713048
0.056960363 -0.09854876 0.04782678 0.01669787 -0.009643364 0.057990674 -0.06441857 -0.047310196
0.026124006 -0.150277 -0.07948397 0.0065822755 -0.032753725 -0.2093369 -0.0648673 0.11524655
0.04437523 0.019773023 0.12518145 0.023558095 -0.025236476 -0.022533588 -0.0067980937 -0.06679968
-0.23949021 -0.0010653075 -0.019072631 0.018878954 -0.008748539 0.093909375 0.038816515 0.1366006
0.11420435 -0.13128684 -0.102360725 0.014582707 -0.2801271 0.10485648 -0.036474597 -0.07408826
-0.06833766 0.017797165 0.035873473 0.051119342 -0.06744677 0.08432622 0.032425143 -0.058795776
0.051054627 0.13354507 0.09964632 -0.058322065 -0.057376806 -0.09093106 0.12790617 0.052676007
-0.053981327 -0.039784566 0.062269617 0.12794635 0.027156174 0.1048777 0.06965566 -0.027550532
0.09479647 0.10617316 0.0047414205 0.036986165 0.07530557 0.1405414 0.14141865 -0.11971514
-0.06237543 -0.099713154 0.008489513 0.023157895 -0.1455445 -0.037665535 -0.017538792 -0.045735657
0.09702391 0.15460812 -0.1440879 0.09562404 -0.13771866 0.06744036 -0.07849182 -0.20256455
0.047437865 0.053675205 0.08846241 0.07880399 -0.1209132 -0.017451147 -0.055057686 -0.02185974
0.005701814 0.01481908 -0.071552664 -0.14660239 0.13799152 0.101122245 -0.07540105 0.06564752
0.12402582 -0.085630395 -0.023048256 -0.12927036 0.037797164 -0.056141265 -0.0143261785 -0.03055882
-0.21539317 0.073613636 -0.09847696 0.11466533 0.12991361 0.117666766 0.016547319 0.009435216
0.049197637 -0.062734954 0.066814125 -0.045277804 -0.13339713 -0.12704451 -0.051570937 0.08545066
0.06816795 -0.08950663 -0.020673525 -0.21143316 0.18008229 0.047408704 -0.03896484 -0.057651117
-0.06532315 -0.06549341 -0.02195121 0.03171436 -0.13082837 -0.018485332 -0.0461468 -0.139298
-0.113186635 -0.06421785 0.12519655 0.034060694 8.1808954e-05 -0.15223137 -0.1285607 -0.0025779984
0.034757134 0.097588144 -0.13682495 -0.060395103 -0.026175657 0.021645937 -0.09428083 0.11338817
-0.23367466 0.0042345123 -0.13165367 -0.07946603 -0.12221217 -0.08444359 -0.039518468 -0.14043663
-0.011926278 0.035013013 -0.052436907 -0.013213535 -0.09225786 0.13566913 -0.032417685 -0.35026687
0.039528772 0.07853769 0.081645146 -0.02040326 -0.07232804 0.05367852 -0.019492501 0.0548089
-0.03514871 0.02608995 -0.17828488 -0.01721603 0.06172893 0.058544688 0.0839542 0.1250721
00000000: 55e7 7ebd 1d6d 5ebe 4035 cabc 0d28 353e
00000010: e807 d53d 9b55 cbbd 5e6d 7c3d 1cd3 dfbb
00000020: 65c5 9bbd 4118 51bd 1b56 a9bd 2e73 2a3d
00000030: 9269 a83c ccd7 6dbc 461b a63d 598d 5c3b
00000040: 40ea 06bd b5f7 cfbc ebca 233d 6eb0 85bd
00000050: 65ef fabd f56d 9a3d cf66 1dbe 0feb ee3d
00000060: ccdc 48be f86a 09bd 5aa0 a53c dbe9 7bbd
00000070: 437f 9dbb 3589 6d3d bba8 4c3d 2360 573e
00000080: 376d f0bd 848a 98bd f201 033d 0760 fcbd
00000090: 62c3 4b3d aa43 38be c2ef 22bd f37d aabd
000000a0: e626 b23c 63ff 12bd de4f fa3b dd0b e23d
000000b0: 48c8 e8bd 5608 2dbc f943 36be 2eb7 ef3d
000000c0: db1f 5bbe d620 18bd ec6d f13d b8d2 ff3d
000000d0: 4429 903d 9720 9f3d 6ec0 2fbe e0b4 6a3d
000000e0: 6538 a63c 0527 3cbd a702 353d 6054 e3bd
000000f0: b091 2f3e 7a79 b1bd ac45 88bd b57b 893d
00000100: 454f 693d efd3 c9bd 03e6 433d f9c9 883c
00000110: 33ff 1dbc a187 6d3d e2ed 83bd 56c8 41bd
00000120: 0302 d63c 37e2 19be 7ec8 a2bd 21b0 d73b
00000130: c528 06bd 6a5c 56be 26d9 84bd 6206 ec3d
00000140: cdc2 353d 09fb a13c 912f 003e e8fc c03c
00000150: babc cebc 5c98 b8bc 8bc2 debb 45ce 88bd
00000160: ec3c 75be caa1 8bba 353e 9cbc 09a8 9a3c
00000170: 0856 0fbc 8f53 c03d 11fe 1e3d 07e1 0b3e
00000180: f8e3 e93d 0f70 06be 80a2 d1bd 4eec 6e3c
00000190: d26c 8fbe ffbe d63d 6366 15bd 96bb 97bd
000001a0: 9df4 8bbd 5ccb 913c 10f0 123d 8462 513d
000001b0: 8821 8abd 3ab3 ac3d 3ad0 043d d7d3 70bd
000001c0: a81e 513d 0ac0 083e 5f13 cc3d 1ee3 6ebd
000001d0: f103 6bbd 103a babd d6f9 023e ccc2 573d
000001e0: 861b 5dbd 24f5 22bd 6d0e 7f3d 5e04 033e
000001f0: a076 de3c 1fca d63d a0a7 8e3d a7b1 e1bc
00000200: a724 c23d 5071 d93d eb5d 9b3b ce7e 173d
00000210: cf39 9a3d 16ea 0f3e 0dd0 103e 362d f5bd
00000220: 617d 7fbd 6936 ccbd 9917 0b3c a0b5 bd3c
00000230: 9e09 15be 2d47 1abd 83ad 8fbc 5055 3bbd
00000240: 79b4 c63d 9751 1e3e c78b 13be 89d6 c33d
00000250: 1f06 0dbe 2c1e 8a3d 52c0 a0bd 156d 4fbe
00000260: 354e 423d 88da 5b3d c82b b53d fc63 a13d
00000270: 57a1 f7bd b5f5 8ebc 2b84 61bd 3313 b3bc
00000280: 48d6 ba3b bacb 723c 348a 92bd f01e 16be
00000290: a64d 0d3e 2e19 cf3d de6b 9abd 3572 863d
000002a0: 4001 fe3d fd5e afbd b2cf bcbc 735f 04be
000002b0: 33d1 1a3d 62f4 65bd 59b8 6abc 7e56 fabc
000002c0: 0790 5cbe bfc2 963d 4aae c9bd a8d5 ea3d
000002d0: 1308 053e 46fb f03d 3e8e 873c 2a96 1a3c
000002e0: 7683 493d 2f7b 80bd d8d5 883d 3875 39bd
000002f0: 4299 08be f517 02be 0c3c 53bd c100 af3d
00000300: a39b 8b3d 414f b7bd 865b a9bc ef81 58be
00000310: 7e67 383e a12f 423d 9999 1fbd 9423 6cbd
00000320: 25c8 85bd 6921 86bd 06d3 b3bc ebe6 013d
00000330: dff7 05be 8d6e 97bc 6d04 3dbd 23a4 0ebe
00000340: 65ce e7bd a684 83bd 8633 003e 3a83 0b3d
00000350: d990 ab38 8ae2 1bbe 6ba5 03be a3f3 28bb
00000360: 7f5d 0e3d 4bdc c73d d71b 0cbe db60 77bd
00000370: 556e d6bc d252 b13c 4f16 c1bd 0f38 e83d
00000380: 6948 6fbe aac1 8a3b 38d0 06be 16bf a2bd
00000390: 604a fabd c3f0 acbd 1ede 21bd 9fce 0fbe
000003a0: 6f66 43bc ce69 0f3d 15c8 56bd 957d 58bc
000003b0: b0f1 bcbd d9ec 0a3e 68c8 04bd 2e56 b3be
000003c0: ece8 213d 5ed8 a03d 9235 a73d bd24 a7bc
000003d0: b920 94bd 02de 5b3d bdae 9fbc 4c7f 603d
000003e0: 18f8 0fbd 97ba d53c 5090 36be a208 8dbc
000003f0: 79d7 7c3d 8ecc 6f3d 2ef0 ab3d e712 003e

hidden_layers.1.weight f4 [200, 500]
-0.06438931 0.1741988 -0.1224854 0.11016195 0.12604547 0.057863064 -0.0855729 -0.030055504
-0.03501505 0.16575666 -0.41985124 0.22156246 -0.41632664 0.31257346 0.23119526 -0.096915655
0.1554047 0.0997244 0.11915278 -0.3215001 0.15331095 -0.21172509 -0.28299078 -0.2131068
-0.02671125 -0.21371663 0.20187014 0.47144473 0.15612122 0.2476633 0.19994245 0.22580872
0.057380006 0.48934686 0.15003379 0.014589001 0.27221772 3.1377716e-05 -0.0051877648 -0.2700482
-0.13302688 0.004100554 -0.2732979 0.06392563 -0.22174543 -0.17409429 -0.68004996 -0.2628329
0.38441384 -0.3053511 -0.022827832 -0.32047445 0.15296063 -0.16433264 0.38034505 -0.20344687
0.09640317 -0.26823503 -0.102942936 -0.046295524 -0.3636657 -0.18673463 -0.24906906 -0.2698078
-0.34447142 0.43596515 -0.15471862 -0.02449802 -0.04227997 0.11949714 0.178568 -0.2795376
0.10140086 -0.011334339 -0.28249 -0.27033177 0.16868424 0.008742026 0.14697078 0.025139581
0.35544902 -0.057198577 0.23382358 0.26289484 -0.019301541 0.05226668 0.08709266 0.024151731
0.10602234 -0.42865497 0.0028850844 -0.27569363 0.17677936 0.051082205 0.35154077 0.119164705
-0.038275037 0.27655855 0.024571946 0.44539708 0.21686183 -0.13535164 0.008263305 -0.28486377
-0.13297465 -0.37166697 0.056830965 0.52747446 -0.015556816 0.0181302 -0.0308017 0.2855795
0.23083222 0.093042254 -0.009284777 0.009149503 -0.445796 0.61941093 -0.1644268 -0.33583272
0.025792414 -0.039363246 -0.21844518 0.25078663 -0.2158626 -0.15977639 0.14395118 -0.18850891
-0.2010396 -0.23676798 -0.20932437 -0.34175152 0.13032708 0.043636132 -0.19432303 -0.06885904
0.15632612 0.17361566 -0.29272702 -0.30695602 0.05301652 0.33486134 0.18945017 0.17058615
0.12797156 0.32887396 0.07971246 0.08450552 -0.09444159 0.16299576 0.1273225 -0.6061797
-0.21185805 -0.043238997 -0.003407656 -0.32590544 0.15087207 0.09302328 0.30627236 0.012947897
-0.055973772 -0.36503494 -0.20219143 -0.5601653 -0.59567434 -0.38989258 -0.08466589 -0.27144936
-1.2005159 0.3244133 0.1305331 0.195504 0.097020015 0.10541039 0.083228 0.27857497
0.048879765 0.097737424 -0.090403944 -0.005551008 -0.10180452 0.30644304 -0.030116491 0.3397251
-0.6667494 0.1892838 -0.16904786 0.053188145 0.014082773 -0.2878694 0.32333806 -0.1546236
0.033650417 -0.5663755 0.009577082 -0.30158573 -0.15383928 0.07011674 -0.28658032 -0.18425472
0.017305477 -0.106685184 0.21825436 0.793853 0.527283 -0.3135744 -0.27440575 0.03899714
0.19499959 0.31678522 0.21396169 0.033328038 -0.19181158 -0.06598932 -0.22330436 -0.029353088
0.012660802 0.1821007 0.10625561 -0.34245217 -0.06087562 -0.108666696 0.13677882 -0.28033918
0.27367064 -0.15800776 -0.49632156 -0.16957144 -0.09705017 -0.24756202 -0.052525915 0.15347022
-0.3179597 0.3755465 0.32839707 0.29512012 0.15997289 0.34232748 -0.45858392 -0.3947485
0.17990088 0.12908036 0.032792106 -0.51725686 -0.38595143 0.16189106 -0.8913287 -0.29540578
-0.09639413 -0.04212752 0.110983856 0.38357967 0.07441833 0.0800853 0.062092427 -0.21903281
00000000: 8bde 83bd 2c61 323e a0d9 fabd 979c e13d
00000010: 1012 013e d201 6d3d d840 afbd f636 f6bc
00000020: f16b 0fbd 1dbc 293e bef6 d6be 45e1 623e
00000030: c428 d5be a109 a03e 73be 6c3e b77b c6bd
00000040: 6922 1f3e 4e3c cc3d 5f06 f43d a99b a4be
00000050: 8cfd 1c3e 76ce 58be 2be4 90be ab38 5abe
00000060: 8dd1 dabc 88d8 5abe 0cb7 4e3e 3461 f13e
00000070: 3ede 1f3e 739b 7d3e b7bd 4c3e 673a 673e
00000080: 4c07 6b3d ac8b fa3e 75a2 193e b506 6f3c
00000090: 1f60 8b3e 919b 0338 20fe a9bb c243 8abe
000000a0: 3338 08be f15d 863b b4ed 8bbe 71eb 823d
000000b0: 3c11 63be c645 32be c117 2ebf 0992 86be
000000c0: e4d1 c43e fb56 9cbe 6f01 bbbc 3a15 a4be
000000d0: b6a1 1c3e d146 28be 96bc c23e 6054 50be
000000e0: 066f c53d 1a56 89be bfd3 d2bd 60a0 3dbd
000000f0: 6432 babe 5d37 3fbe f60b 7fbe 3f24 8abe
00000100: 8f5e b0be d336 df3e 8f6e 1ebe 12b0 c8bc
00000110: c32d 2dbd ebba f43d 88da 363e 8d1f 8fbe
00000120: 41ab cf3d aab3 39bc 87a2 90be ed68 8abe
00000130: 90bb 2c3e b73a 0f3c 827f 163e 86f1 cd3c
00000140: 6afd b53e 0e49 6abd 736f 6f3e 279a 863e
00000150: 441e 9ebc 9615 563d a35d b23d dad9 c53c
00000160: 3e22 d93d aa78 dbbe af13 3d3b b727 8dbe
00000170: a605 353e 933b 513d 27fd b33e a00c f43d
00000180: 49c6 1cbd 1599 8d3e 1b4b c93c 160b e43e
00000190: 0711 5e3e 9f99 0abe d062 073c aad9 91be
000001a0: 822a 08be 224b bebe 96c7 683d 9108 073f
000001b0: 04e2 7ebc c985 943c d953 fcbc 7a37 923e
000001c0: 485f 6c3e f08c be3d 2d1f 18bc cce7 153c
000001d0: 603f e4be b791 1e3f 805f 28be 44f2 abbe
000001e0: 9d4a d33c 5b3b 21bd 18b0 5fbe 1b67 803e
000001f0: 160b 5dbe 6c9c 23be f067 133e 7b08 41be
00000200: 53dd 4dbe 4e73 72be 2159 56be 0efa aebe
00000210: 7674 053e cdbb 323d 9efc 46be f805 8dbd
00000220: f413 203e 4ec8 313e 51e0 95be 5729 9dbe
00000230: da27 593d f272 ab3e 3aff 413e 23ae 2e3e
00000240: fa0a 033e 2b62 a83e 4940 a33d 3b11 ad3d
00000250: 986a c1bd 5ce8 263e d460 023e 982e 1bbf
00000260: 51f1 58be 601b 31bd fb52 5fbb 14dd a6be
00000270: 357e 1a3e fd82 be3d bbcf 9c3e 6b23 543c
00000280: c144 65bd dce5 babe 450b 4fbe fe66 0fbf
00000290: 1d7e 18bf 00a0 c7be 4f65 adbd 69fb 8abe
000002a0: 81aa 99bf 8019 a63e 78aa 053e 3332 483e
000002b0: 6eb2 c63d 67e1 d73d 7173 aa3d 61a1 8e3e
000002c0: 2636 483d 8f2a c83d b425 b9bd 3be5 b5bb
000002d0: e37e d0bd 1ae6 9c3e dcb6 f6bc 73f0 ad3e
000002e0: 17b0 2abf 9dd3 413e e21a 2dbe d0db 593d
000002f0: 6ebb 663c 9e63 93be 918c a53e a655 1ebe
00000300: 05d5 093d fcfd 10bf 31e9 1c3c 7269 9abe
00000310: 0b88 1dbe 5e99 8f3d a8ba 92be 45ad 3cbe
00000320: 37c4 8d3c c37d dabd 127e 5f3e f339 4b3f
00000330: 05fc 063f d38c a0be e97e 8cbe 77bb 1f3d
00000340: f9ad 473e ac31 a23e c618 5b3e fb82 083d
00000350: 416a 44be 6925 87bd e6a9 64be e375 f0bc
00000360: 416f 4f3c 9b78 3a3e 8b9c d93d e455 afbe
00000370: b758 79bd a58c debd bf0f 0c3e 9e88 8fbe
00000380: 8f1e 8c3e c9cc 21be dc1d febe 23a4 2dbe
00000390: 3dc2 c6bd e680 7dbe 6a25 57bd 4c27 1d3e
000003a0: 9dcb a2be a147 c03e a923 a83e fc19 973e
000003b0: efcf 233e 8c45 af3e 83cb eabe 7a1c cabe
000003c0: f037 383e a42d 043e 0451 063d f26a 04bf
000003d0: 6d9b c5be c5c6 253e 1e2e 64bf 6d3f 97be
000003e0: 496a c5bd e88d 2cbd 814b e33d 8e64 c43e
000003f0: a368 983d c303 a43d a154 7e3d 234a 60be

hidden_layers.1.bias f4 [200]
-0.007189401 0.035128515 0.0023034704 0.08638723 -0.35145772 0.12275954 0.03386322 -0.29647207
-0.060982566 -0.006424359 -0.021267172 0.004858971 -0.2342121 -0.11623575 -0.14892605 -0.21895988
0.039031785 0.046508517 -0.1089489 0.059639126 0.1678717 -0.023581252 -0.1750115 0.0009795176
0.086014844 0.019402036 0.00091786985 -0.07743959 0.13305938 0.021952342 0.1013488 0.033373076
0.10993446 -0.018465346 0.03390634 -0.0051308493 -0.09333783 -0.0054366426 -0.11455693 0.044943042
0.08109941 -0.11973799 -0.08618551 -0.09919954 -0.20737936 -0.01614585 -0.23103493 0.065564185
-0.2205534 -0.029426206 -0.09554058 0.23289792 -0.05475664 0.027413066 -0.14403647 0.021964844
0.081646614 0.10686685 0.10860929 -0.2537847 -0.031628996 -0.09042737 0.11219286 -0.075798385
-0.019352393 0.08760428 -0.04062368 -0.07190172 0.010892729 0.08221726 0.023543613 -0.3290671
-0.06842622 -0.073991984 0.008738933 0.07547461 0.0155473985 0.23784178 -0.040924497 0.06557174
-0.1898018 -0.18402357 -0.048868015 0.105101064 -0.010861757 -0.13723189 -0.15091455 0.022731755
-0.14884989 -0.08200515 -0.011731267 0.039504707 -0.03880008 0.08869475 -0.16080342 -0.100364335
-0.10404263 -0.0568391 0.041323308 -0.01620274 0.09728012 0.118524 0.06472137 0.07394622
-0.14118925 -0.071422234 -0.042681914 0.09219913 0.051444903 -0.21419849 0.041612875 0.10308943
0.11547221 -0.098997496 -0.18125118 -0.07978785 -0.19505228 -0.2135084 0.07148149 0.06975631
-0.054082166 0.069227256 -0.5268864 0.06234726 -0.031760555 -0.105811015 -0.1416339 0.02694711
-0.0546344 -0.16170585 0.020736597 -0.029135315 -0.15944996 -0.1300206 -0.013739951 0.10169385
-0.03539653 -0.06492261 0.090119936 -0.016539754 -0.21644092 -0.023385791 0.0835919 -0.10780179
-0.18600827 -0.06585582 0.00044889207 -0.28108352 -0.041930553 0.03923015 0.057013758 0.03218213
-0.057615746 -0.12593377 -0.081044525 0.009578597 0.11387489 0.09172186 0.004787762 0.054647923
0.012015808 -0.12650016 0.04579846 0.036416717 -0.0713101 0.1097111 0.059722576 -0.28573656
-0.054348476 -0.15202932 -0.22671328 0.033870827 -0.14000508 -0.050750043 -0.056367576 -0.20253785
-0.06657628 0.03113381 -0.08439307 -0.118169874 0.064541414 -0.03199443 -0.20932838 -0.01958173
0.04309721 0.0047154548 0.06230659 -0.18418615 0.014013523 -0.24937241 0.044724114 0.019976867
-0.10382187 0.07233081 -0.023490084 -0.03440894 -0.009853451 -0.19410032 0.014999332 -0.12649007
00000000: 1195 ebbb ebe2 0f3d d2f5 163b caeb b03d
00000010: 44f2 b3be 5b69 fb3d 29b4 0a3d 30cb 97be
00000020: dbc8 79bd 6e83 d2bb 7e38 aebc 0138 9f3b
00000030: 4cd5 6fbe 020d eebd 1280 18be 0537 60be
00000040: cbdf 1f3d b77f 3e3d 9a20 dfbd 2848 743d
00000050: 8fe6 2b3e 782d c1bc 3736 33be 2863 803a
00000060: 8d28 b03d 05f1 9e3c 349d 703a a698 9ebd
00000070: b840 083e 66d5 b33c f68f cf3d 35b2 083d
00000080: 5125 e13d a344 97bc 60e1 0a3d af20 a8bb
00000090: e727 bfbd dd25 b2bb d39c eabd 3216 383d
000000a0: 7317 a63d 3139 f5bd 0782 b0bd 2129 cbbd
000000b0: 415b 54be 4d44 84bc 6c94 6cbe 8446 863d
000000c0: c0d8 61be 3a0f f1bc c8aa c3bd cb7c 6e3e
000000d0: 8048 60bd 5e91 e03c 4c7e 13be 9eef b33c
000000e0: 5736 a73d 02dd da3d 8c6e de3d 11f0 81be
000000f0: 688d 01bd fc31 b9bd 5fc5 e53d 2f3c 9bbd
00000100: e988 9ebc df69 b33d 0465 26bd 3541 93bd
00000110: 6b77 323c 8661 a83d 89de c03c 7c7b a8be
00000120: 0c23 8cbd 1c89 97bd be2d 0f3c 6f92 9a3d
00000130: 84ba 7e3c cc8c 733e 72a0 27bd 7a4a 863d
00000140: 675b 42be ad70 3cbe d429 48bd 3a3f d73d
00000150: 83f5 31bc 8486 0cbe 5889 1abe f237 ba3c
00000160: 1b6c 18be 51f2 a7bd 8034 40bc b0cf 213d
00000170: d5ec 1ebd 98a5 b53d a7a9 24be d18b cdbd
00000180: 4d14 d5bd 1ed0 68bd a142 293d 9cbb 84bc
00000190: cd3a c73d b6bc f23d a38c 843d 1e71 973d
000001a0: ea93 10be d245 92bd 3bd3 2ebd e6d2 bc3d
000001b0: e4b7 523d d956 5bbe 4372 2a3d 8d20 d33d
000001c0: b27c ec3d 33bf cabd e999 39be d067 a3bd
000001d0: c9bb 47be f2a1 5abe e364 923d 65dc 8e3d
000001e0: 4385 5dbd 05c7 8d3d 07e2 06bf d75f 7f3d
000001f0: 5b17 02bd 72b3 d8bd 7a08 11be 30c0 dc3c
00000200: 52c8 5fbd 3896 25be ccdf a93c 2fad eebc
00000210: da46 23be 1f24 05be 881d 61bc dd44 d03d
00000220: f4fb 10bd 25f6 84bd cd90 b83d 617e 87bc
00000230: b0a2 5dbe 8f93 bfbc 3b32 ab3d 2fc7 dcbd
00000240: f478 3ebe 6bdf 86bd 4659 eb39 2eea 8fbe
00000250: 5fbf 2bbd cbaf 203d 4287 693d 69d1 033d
00000260: 7dfe 6bbd c8f4 00be acfa a5bd 8cef 1c3c
00000270: 3d37 e93d acd8 bb3d a9e2 9c3b 80d6 5f3d
00000280: f4dd 443c 4289 01be 2a97 3b3d b229 153d
00000290: 080b 92bd 37b0 e03d a99f 743d 104c 92be
000002a0: 829c 5ebd 93ad 1bbe 8727 68be 23bc 0a3d
000002b0: 7e5d 0fbe 47df 4fbd b0e1 66bd 1566 4fbe
000002c0: 2559 88bd 550c ff3c 46d6 acbd 0c03 f2bd
000002d0: 4a2e 843d 970c 03bd 2e5a 56be dd69 a0bc
000002e0: b386 303d 1a84 9a3b 3235 7f3d 4b9b 3cbe
000002f0: fa98 653c 7b5b 7fbe a230 373d 87a6 a33c
00000300: 90a0 d4bd 2d22 943d 476e c0bc 63f0 0cbd
00000310: 5e70 21bc 3cc2 46be c2bf 753c 9d86 01be

output_layer.weight f4 [4, 200]
1.024926 -1.0728592 0.3558224 1.5699815 0.39911842 0.024078818 -1.3422168 -1.7099038
1.4890624 -0.9063378 -1.3743545 -0.12272288 2.0692499 1.2166686 1.2052499 -0.7806095
-1.1792115 1.7270613 0.429464 0.9512099 1.453582 -0.076634526 -0.01902831 -0.8621015
0.6667684 1.2161831 -1.6810272 -0.78485495 -0.60803646 -1.7269493 0.6584867 1.0800442
-0.49807853 -1.0489101 0.431799 -1.0051695 -0.20260815 1.0313256 -0.49680895 -0.035394106
1.3456554 -0.8090937 0.625338 -1.0436718 1.014615 0.95409054 -0.39078698 0.42626342
-0.15742306 -0.040300794 2.086388 -0.86604106 -0.55487347 -0.47580492 0.7271152 0.03586058
1.2635537 -0.2281199 1.1674947 0.56522834 -0.31415787 -0.84804237 -1.1250864 -0.82946974
-1.0331538 0.015160807 0.08498039 -0.57605624 0.7599988 0.14402987 -0.32561308 1.8102546
-0.25274602 0.2507796 0.5642574 -0.1016158 0.71911985 1.0212189 1.7704412 1.335381
-1.4478371 0.15236591 0.3547004 -1.1017575 -1.3752738 1.3161179 -1.299411 1.5330869
-1.0758636 0.80035245 0.7466142 1.3962396 0.6064905 1.0052975 0.7972285 0.8417763
-0.01964822 -1.4387724 1.8591253 -0.898759 0.58572024 0.045395844 -0.40870902 0.9256568
-0.83489126 0.009609273 -0.066338286 -0.79121655 -0.34941888 -1.491541 0.96887785 -0.16938557
0.95801914 -0.24821894 0.14889178 0.09747365 0.5625836 -1.0114079 -0.01123094 -0.034699094
-1.5793719 -0.0795106 -2.0146456 -0.7182552 0.7467644 1.1200773 -0.7512047 0.62717307
-0.49439642 -0.4189209 -1.240987 1.6738251 -0.36260137 2.0853293 -0.82076347 0.27220342
-0.16880825 1.501601 1.5730958 0.8066998 -1.0777912 0.1718446 -0.79726434 -0.35950258
2.1245213 0.2605198 -0.5488051 -0.9773872 1.5572294 -0.9200542 0.28167135 1.8978518
-0.53765047 -1.7037178 -1.0037317 0.4294976 -0.091918804 1.1938887 -1.3199891 0.76168054
1.6510752 -0.67400885 1.738843 1.871913 -0.4955051 1.5685178 -0.060609907 1.2998782
-0.92200965 -0.37462616 2.2698112 -1.4085269 -0.6329107 -0.8481773 -0.6173832 1.4316537
-0.5263054 -1.1588197 0.17020832 -0.3051938 1.383409 -1.1370556 2.0958555 0.0042647403
-1.2984368 0.41031742 0.9610845 0.83214265 1.0077219 -0.8673625 0.35603234 0.5669223
-0.22204879 0.06877975 -0.5841732 -0.32341096 0.2626651 1.5132444 -1.131491 -1.0463395
1.2742137 -0.5414702 0.50205714 0.78011006 1.3724309 0.8709898 0.56276655 -0.74248064
-0.24986415 -0.15373474 0.3348948 1.8087684 1.0368552 -1.4595637 -0.38561976 -1.8270085
-0.64960337 -0.8150396 2.0667005 1.4604716 0.5747651 0.39677614 -1.3618968 -0.68987375
0.6675878 1.4393651 -1.0561854 1.1172099 0.691227 0.51088774 1.0606512 -0.76811725
0.88880384 -1.0594429 1.2717873 -1.1573042 -1.4291677 -0.57264036 -1.3169912 -1.0089508
0.30124784 -0.2861089 0.8285927 -0.48466623 -0.027932353 0.34566954 -0.9531009 1.2463163
-1.263645 -1.22782 0.17654414 -1.172072 -0.81581575 0.4045805 -1.1945355 -0.81828237
00000000: c630 833f 7353 89bf 5b2e b63e 27f5 c83f
00000010: 4059 cc3e f140 c53c c3cd abbf 21de dabf
00000020: 9999 be3f c105 68bf d9ea afbf 2256 fbbd
00000030: 976e 0440 ccbb 9b3f a145 9a3f 06d6 47bf
00000040: 67f0 96bf 5810 dd3f b5e2 db3e 7e82 733f
00000050: fa0e ba3f 90f2 9cbd 42e1 9bbc afb2 5cbf
00000060: 55b1 2a3f e3ab 9b3f e62b d7bf 41ec 48bf
00000070: 47a8 1bbf ad0c ddbf 9692 283f e33e 8a3f
00000080: 2604 ffbe b042 86bf c214 dd3e 65a9 80bf
00000090: 8378 4fbe 7a02 843f be5d febe 69f9 10bd
000000a0: 703e ac3f c420 4fbf 2716 203f 0a97 85bf
000000b0: e8de 813f 473f 743f 3b15 c8be 333f da3e
000000c0: 8333 21be 7212 25bd 6287 0540 deb4 5dbf
000000d0: 300c 0ebf b49c f3be 3924 3a3f 8be2 123d
000000e0: 21bc a13f 4398 69be 7770 953f ceb2 103f
000000f0: 4dd9 a0be 4e19 59bf d502 90bf 2158 54bf
00000100: 623e 84bf 0965 783c 330a ae3d 6c78 13bf
00000110: 488f 423f 917c 133e c2b6 a6be 6cb6 e73f
00000120: ed67 81be 2f66 803e 2c73 103f f21b d0bd
00000130: 3d18 383f 4db7 823f d19d e23f c4ed aa3f
00000140: ba52 b9bf cf05 1c3e 4a9b b53e 6406 8dbf
00000150: f908 b0bf 8d76 a83f 1a53 a6bf 313c c43f
00000160: e6b5 89bf e6e3 4c3f 1c22 3f3f fbb7 b23f
00000170: f642 1b3f 97ad 803f 2b17 4c3f a77e 573f
00000180: 4ef5 a0bc b229 b8bf d1f7 ed3f 1215 66bf
00000190: c3f1 153f fef0 393d 4f42 d1be d8f7 6c3f
000001a0: 6fbb 55bf 3670 1d3c 5edc 87bd 2b8d 4abf
000001b0: 08e7 b2be d1ea bebf 6108 783f 6973 2dbe
000001c0: be40 753f 1b2d 7ebe 1677 183e 44a0 c73d
000001d0: 7b05 103f d075 81bf fa01 38bc a320 0ebd
000001e0: dc28 cabf 74d6 a2bd f4ef 00c0 93df 37bf
000001f0: f42b 3f3f b15e 8f3f f44e 40bf 6a8e 203f
00000200: 8721 fdbe cd7c d6be a9d8 9ebf e73f d63f
00000210: e3a6 b9be 0976 0540 8e1d 52bf 3f5e 8b3e
00000220: 12dc 2cbe 7634 c03f 345b c93f e183 4e3f
00000230: 10f5 89bf 08f8 2f3e 8419 4cbf b910 b8be
00000240: 28f8 0740 da62 853e 7e7e 0cbf 0c36 7abf
00000250: 4b53 c73f ac88 6bbf 3a37 903e cfec f23f
00000260: 76a3 09bf 6d13 dabf 487a 80bf 1ce7 db3e
00000270: ed3f bcbd 58d1 983f 67f5 a8bf 7ffd 423f
00000280: 6f56 d33f d88b 2cbf 6892 de3f d89a ef3f
00000290: d8b2 fdbe 31c5 c83f 1842 78bd 6962 a63f
000002a0: d308 6cbf 00cf bfbe 9644 1140 9c4a b4bf
000002b0: 7006 22bf 2622 59bf d30c 1ebf 6e40 b73f
000002c0: f3bb 06bf 3454 94bf 174b 2e3e 5d42 9cbe
000002d0: 8c13 b13f 0a8b 91bf 7f22 0640 3cbf 8b3b
000002e0: 2d33 a6bf 2015 d23e a209 763f 4d07 553f
000002f0: 08fd 803f 780b 5ebf df49 b63e d221 113f
00000300: c260 63be 66dc 8c3d 608c 15bf 1f96 a5be
00000310: 0a7c 863e feb1 c13f b2d4 90bf 74ee 85bf
00000320: 6f19 a33f cb9d 0abf d186 003f 4bb5 473f
00000330: d1ab af3f 30f9 5e3f 7811 103f 3613 3ebf
00000340: 63dc 7fbe a46c 1dbe 5577 ab3e b985 e73f
00000350: acb7 843f fcd2 babf f46f c5be 6adb e9bf
00000360: 684c 26bf 6fa6 50bf d244 0440 bcf0 ba3f
00000370: ce23 133f 3e26 cb3e a252 aebf 919b 30bf
00000380: 09e7 2a3f 1e3d b83f 1531 87bf bc00 8f3f
00000390: 41f4 303f 8ac9 023f 6bc3 873f 55a3 44bf
000003a0: a688 633f d39b 87bf edc9 a23f 8b22 94bf
000003b0: f8ee b6bf 8f98 12bf 2b93 a8bf 4d25 81bf
000003c0: 283d 9a3e de7c 92be a71e 543f 2c26 f8be
000003d0: 64d2 e4bc 99fb b03e 6cfe 73bf 4b87 9f3f
000003e0: 1fbf a1bf 3529 9dbf fdc7 343e 7506 96bf
000003f0: 4dd9 50bf 2d25 cf3e 8ae6 98bf f47a 51bf

output_layer.bias f4 [4]
-0.06949923 -0.12736982 0.11460511 0.1072697
00000000: 9d55 8ebd 3c6d 02be 15b6 ea3d 37b0 db3d
