checkpoint_actor.pth (torch, 96940 bytes, 18 tensors)

bn1.weight f4 [33]
1.0564145 0.8437459 1.1019658 0.23082943 0.49759284 0.43314904 0.46112958 0.604147
0.40299943 0.6029337 0.64933664 0.57985306 0.6944206 1.1886561 0.9371147 1.1873418
0.33189648 0.29996872 0.289239 0.35406765 0.64617085 0.5751005 0.5034652 0.9337828
0.8472787 0.96422255 1.2778478 1.0 1.2503202 1.0 1.0 1.0
1.2398832
00000000: 9738 873f bbff 573f 370d 8d3f 8d5e 6c3e
00000010: 7dc4 fe3e b6c5 dd3e 2d19 ec3e 61a9 1a3f
00000020: f155 ce3e dd59 1a3f ed3a 263f 4071 143f
00000030: 8cc5 313f e225 983f c0e6 6f3f d1fa 973f
00000040: 56ee a93e 8095 993e 2217 943e 5b48 b53e
00000050: 746b 253f c939 133f 18e3 003f 640c 6f3f
00000060: 42e7 583f 4ad7 763f 8490 a33f 0000 803f
00000070: 7e0a a03f 0000 803f 0000 803f 0000 803f
00000080: 7eb4 9e3f

bn1.bias f4 [33]
-0.008619595 -0.14385255 -0.004451023 0.17409287 -0.10726127 -0.10726888 -0.09494759 0.011933948
-0.029813975 0.053758617 -0.037134245 0.036983803 0.100417085 0.01566709 -0.061483193 0.07599657
-0.17124805 -0.050769858 0.09668065 0.0925834 0.19261938 -0.013795741 -0.07764851 0.009843815
-0.061575674 0.020783594 0.01595544 -0.31676805 0.01112519 -0.29306763 -0.31889164 -0.16089185
-0.018873697
00000000: 3439 0dbc 154e 13be e3d9 91bb 6745 323e
00000010: ccab dbbd c9af dbbd e273 c2bd 9b86 433c
00000020: 703c f4bc ff31 5c3d 141a 18bd 547c 173d
00000030: 79a7 cd3d 4558 803c cdd5 7bbd 17a4 9b3d
00000040: a65b 2fbe 0ef4 4fbd 8100 c63d 5e9c bd3d
00000050: 043e 453e 8807 62bc 2f06 9fbd f447 213c
00000060: c636 7cbd 5b42 aa3c fcb4 823c 6c2f a2be
00000070: 6e46 363c f60c 96be c445 a3be d5c0 24be
00000080: 039d 9abc

bn1.running_mean f4 [33]
-0.13600002 -2.6928463 0.14833185 0.89209193 -0.018171964 -0.001861552 0.032116532 0.010752495
0.0035764289 -0.011772169 -0.032217823 -0.0016776713 -0.041974105 -0.3879566 -2.8760371 0.21165773
-0.011546296 0.040193655 -0.009240568 0.07923819 -0.06155777 0.052708186 -0.04640345 -0.026849516
0.18411677 -0.029815288 -0.050642278 -0.99999976 0.12856002 0.0 0.99999976 0.0
-0.014250585
00000000: 9743 0bbe 9857 2cc0 4ee4 173e 2360 643f
00000010: 5fdd 94bc 52ff f3ba a08c 033d 3c2b 303c
00000020: 8562 6a3b 0ee0 40bc d6f6 03bd 4fe5 dbba
00000030: 0aed 2bbd 3fa2 c6be fe10 38c0 cebc 583e
00000040: ad2c 3dbc 1aa2 243d c065 17bc a247 a23d
00000050: 0024 7cbd 8ae4 573d 8b11 3ebd 84f3 dbbc
00000060: 1b89 3c3e 313f f4bc 476e 4fbd fcff 7fbf
00000070: 3da5 033e 0000 0000 fcff 7f3f 0000 0000
00000080: 497b 69bc

bn1.running_var f4 [33]
3.698496 0.34707314 4.7277036 0.03639072 0.06055868 0.005261346 0.10084323 0.25381598
0.059190232 0.11333817 2.2868638 0.9195531 2.4736223 17.613613 1.1601113 23.671358
0.099390276 0.31221056 0.093176425 0.48561502 2.7055738 0.8251228 0.61138076 7.250208
4.044889 8.676691 31.243664 6e-45 32.822212 6e-45 6e-45 6e-45
0.28412977
00000000: 29b4 6c40 92b3 b13e 5949 9740 700e 153d
00000010: 610c 783d 5f67 ac3b e586 ce3d 2bf4 813e
00000020: 7571 723d d81d e83d fa5b 1240 d567 6b3f
00000030: d44f 1e40 aee8 8c41 877e 943f f15e bd41
00000040: 218d cb3d 10da 9f3e 48d3 be3d 88a2 f83e
00000050: 1f28 2d40 3f3b 533f 7383 1c3f b401 e840
00000060: bb6f 8140 bad3 0a41 06f3 f941 0400 0000
00000070: f249 0342 0400 0000 0400 0000 0400 0000
00000080: 7579 913e

fc1.weight f4 [128, 33]
-0.03926376 0.014648391 0.021708686 -0.008639281 -0.009930772 -0.006083875 -0.007247738 -0.04152815
0.037696227 -0.01679842 -0.005269978 -0.00014359929 0.028976787 0.13165414 -0.0098208105 0.031800434
0.040170956 -0.02129119 -0.011404911 0.008621223 0.011308957 -0.014361481 0.0056223837 0.04514348
-0.010510924 -0.034926772 -0.13691972 0.034457576 -0.10516842 0.081233546 0.0487394 0.094264835
0.22227125 -0.08979516 -0.030641796 0.03550463 -0.00511681 -0.0005470042 -0.013786273 -0.031142302
-0.03471988 0.024027046 0.01720162 0.03784018 -0.06267286 -0.089406356 0.08223273 0.025182603
-0.12602718 -0.046127755 0.011329129 0.023828562 -0.009781701 0.0061664768 0.013906193 -0.040050924
-0.015604602 0.027708754 -0.019016797 -0.052707154 0.049781356 -0.08985424 -0.037551593 0.020189464
0.04589995 -0.22897348 -0.0006924417 -0.110613786 0.054326497 0.057069894 -0.062201586 -0.000767854
-0.11226708 0.036855996 -0.029661316 -0.058243018 -0.0004015283 0.004473201 0.024989957 0.01260439
0.13890211 -0.117483445 0.017236987 -0.024671648 0.016366918 -0.010285746 -0.0129047185 -0.0051800613
-0.0096506495 0.05004627 0.006105685 -0.03044922 0.11987222 -0.016024627 0.11025575 -0.02068193
0.03639547 -0.021231163 -0.035313606 0.057936106 0.04590366 0.13722701 -0.009003828 0.024793614
-0.018005382 0.023130378 -0.010799662 -0.021316392 0.04892195 -0.04027409 0.05677137 0.015845545
-0.09768757 -0.020278383 -0.14422776 -0.008588592 0.009074042 -0.008367925 0.006751642 0.051984873
0.028336527 0.039776433 -0.065120295 0.00268962 -0.051912002 0.052968755 -0.12566163 -0.038066298
-0.042133443 -0.17728718 -0.13503048 0.066029295 -0.0360298 0.0008163879 -0.029532567 -0.0114659285
-0.053951036 -0.05068498 -0.024776414 -0.010397079 -0.023964176 -0.08806414 -0.022623098 0.032279626
-0.046890352 0.065782055 -0.045121852 -0.15004715 0.06582507 -0.02186392 0.04424449 -0.0017309303
0.042071972 0.01706404 -0.0015671874 0.10911985 -0.00017465105 0.021646407 -0.07362351 -0.038534597
0.117376275 -0.12339858 -0.124463536 0.023500869 0.20200972 0.017447319 0.0055176015 0.09714634
-0.008443261 0.08161307 -0.059915915 -0.058228787 -0.030099163 0.034290485 0.05536698 -0.013337734
-0.023868823 0.0067328373 -0.015702907 0.0508202 -0.1951067 0.007982708 -0.027771957 0.022095723
-0.028602662 -0.036834784 0.017663721 -0.02737955 -0.10049596 0.017944949 -0.028567035 -0.12144573
-0.022936828 0.16584495 -0.09882284 0.027905732 -0.021926638 0.066725194 0.050795004 -0.081194475
-0.026248215 -0.0006706206 -0.055679392 0.033457056 -0.004487974 -0.029928869 -0.020626958 -0.008410423
0.043844994 -0.004076582 -0.007038775 0.075661644 0.106060915 0.032043528 0.02896652 -0.021387354
0.016059065 -0.0035502282 -0.09560883 0.02581318 -0.025896596 0.013501516 0.11298421 0.12009539
-0.08386396 -0.02945177 -0.024354964 -0.02877408 -0.06350632 -0.047321934 -0.23041914 0.1394364
0.035744563 0.072801255 -0.008984625 0.031584714 0.0271485 0.022281833 -0.00062283647 0.1344327
0.008757441 0.04091304 0.051336832 0.009168399 0.022738066 -0.10791342 -0.09282608 -0.030707732
0.0077007357 -0.036692955 -0.024729073 -0.016425166 0.07771393 0.06525966 -0.11006991 -0.026185473
00000000: 09d3 20bd ceff 6f3c 6ad6 b13c c58b 0dbc
00000010: adb4 22bc 3e5b c7bb 6f7e edbb 6c19 2abd
00000020: 5c67 1a3d d79c 89bc c8af acbb 2493 16b9
00000030: ba60 ed3c 58d0 063e 77e7 20bc 2c41 023d
00000040: 4d8a 243d dd6a aebc aadb 3abc 0840 0d3c
00000050: 3449 393c 6b4c 6bbc f93b b83b 5fe8 383d
00000060: 0336 2cbc 600f 0fbd af34 0cbe 6323 0d3d
00000070: 8a62 d7bd c65d a63d f7a2 473d ec0d c13d
00000080: 139b 633e 86e6 b7bd 8104 fbbc 4e6d 113d
00000090: eaaa a7bb d564 0fba d2df 61bc 241e ffbc
000000a0: 6f36 0ebd 5ed4 c43c 69ea 8c3c 4efe 1a3d
000000b0: a15a 80bd ae1a b7bd a269 a83d bf4b ce3c
000000c0: 450d 01be 75f0 3cbd d09d 393c 1e34 c33c
000000d0: 6d43 20bc 2810 ca3b cdd6 633c 700c 24bd
000000e0: 72aa 7fbc 78fd e23c 1dc9 9bbc 75e3 57bd
000000f0: 89e7 4b3d 8005 b8bd b3cf 19bd 6064 a53c
00000100: 9601 3c3d 0678 6abe fa84 35ba 7b89 e2bd
00000110: 7685 5e3d 1fc2 693d 17c7 7ebd cf49 49ba
00000120: 48ec e5bd 50f6 163d 4afc f2bc 3b90 6ebd
00000130: 3784 d2b9 ee93 923b bdb7 cc3c a582 4e3c
00000140: 5b3c 0e3e 299b f0bd 9534 8d3c 321c cabc
00000150: ea13 863c 8c85 28bc 506e 53bc 81bd a9bb
00000160: c21d 1ebc 51fd 4c3d 3312 c83b a570 f9bc
00000170: 917f f53d 1446 83bc c4cd e13d 276d a9bc
00000180: 6b13 153d faec adbc 00a5 10bd 694e 6d3d
00000190: 7a05 3c3d 3d85 0c3e cb84 13bc fa1b cb3c
000001a0: 0680 93bc eb7b bd3c 11f1 30bc b79f aebc
000001b0: 6262 483d 72f6 24bd 1989 683d 84ce 813c
000001c0: 6c10 c8bd da1e a6bc 71b0 13be 2ab7 0cbc
000001d0: 4aab 143c 9f19 09bc e13c dd3b 17ee 543d
000001e0: 0122 e83c 9dec 223d ca5d 85bd 5644 303b
000001f0: aea1 54bd c4f5 583d 71ad 00be 68eb 1bbd
00000200: 1e94 2cbd c58a 35be 6e45 0abe 5e3a 873d
00000210: fc93 13bd dd02 563a 48ee f1bc 97db 3bbc
00000220: c3fb 5cbd 0e9b 4fbd e8f7 cabc 8358 2abc
00000230: 8550 c4bc f95a b4bd 1354 b9bc a437 043d
00000240: 1910 40bd beb8 863d b1d1 38bd f6a5 19be
00000250: 4bcf 863d f71b b3bc b639 353d 62e0 e2ba
00000260: a953 2c3d e3c9 8b3c 156a cdba 3a7a df3d
00000270: 8922 37b9 ce53 b13c ecc7 96bd 74d6 1dbd
00000280: f962 f03d 65b8 fcbd bde6 febd e584 c03c
00000290: a3db 4e3e aeed 8e3c ffcc b43b a9f4 c63d
000002a0: 9a55 0abc c124 a73d 646a 75bd 4f81 6ebd
000002b0: 8592 f6bc 2e74 0c3d 7dc8 623d 8386 5abc
000002c0: 8d88 c3bc 229f dc3b 62a3 80bc d828 503d
000002d0: 0dca 47be e7c9 023c 0482 e3bc 1702 b53c
000002e0: 2150 eabc 12e0 16bd 82b3 903c 144b e0bc
000002f0: d3d0 cdbd 4901 933c 6a05 eabc 8ab8 f8bd
00000300: 04e6 bbbc 42d3 293e a163 cabd 909a e43c
00000310: 7e9f b3bc 38a7 883d 6c0e 503d 4a49 a6bd
00000320: 7f06 d7bc 96cc 2fba 1310 64bd 440a 093d
00000330: db0f 93bb 632d f5bc def9 a8bc dfcb 09bc
00000340: cf96 333d d994 85bb 86a5 e6bb 7ef4 9a3d
00000350: 7736 d93d 1340 033d 324b ed3c 8834 afbc
00000360: 4d8e 833c f2aa 68bb 90ce c3bd 2976 d33c
00000370: 1925 d4bc 7635 5d3c 4464 e73d 92f4 f53d
00000380: dec0 abbd d744 f1bc 1084 c7bc 9fb7 ebbc
00000390: 9a0f 82bd a5d4 41bd fff2 6bbe 6ac8 0e3e
000003a0: e468 123d d318 953d 4034 13bc f95e 013d
000003b0: 8866 de3c 6488 b63c d945 23ba baa8 093e
000003c0: 5f7b 0f3c 6f94 273d 9246 523d 0d37 163c
000003d0: 2e45 ba3c b601 ddbd 9a1b bebd c88e fbbc
000003e0: 7456 fc3b 5a4b 16bd a094 cabc 128e 86bc
000003f0: 7b28 9f3d dba6 853d 556c e1bd eb82 d6bc

fc1.bias f4 [128]
-0.0011258216 0.13985474 0.18693665 0.25380358 -0.049568444 0.057770725 -0.10551802 0.026364895
-0.003774188 0.06692018 -0.24250476 -0.025803577 0.025610335 0.016650075 0.12101969 -0.27411962
0.04370053 -0.00783787 0.030642133 0.03976864 0.0067545376 0.12713052 -0.08221654 -0.011681683
0.13290504 0.08323353 0.14708285 -0.10672903 -0.155068 -0.08194119 -0.096957564 0.04332025
0.10737563 -0.102770634 -0.08522993 -0.07283433 -0.14322487 -0.045488276 0.27094194 0.09577457
-0.015923869 0.23024166 -0.12102927 0.0877641 -0.08440632 0.058618415 -0.044789627 0.21273884
0.050944667 0.16711903 -0.13888808 -0.04310747 -0.14224547 -0.15446508 0.24436094 0.058283787
-0.13586058 0.12666206 -0.08655047 0.07109911 0.039627388 -0.0071843076 0.10103446 -0.057241872
-0.1054562 0.028723678 0.17122813 0.006411191 0.057063386 0.07790888 0.08981691 0.09282952
-0.16482328 0.029577821 0.12057923 0.089211516 0.20311886 -0.16844977 -0.029079733 -0.03983202
0.046328567 -0.054523204 0.1164137 -0.056240316 0.13354869 -0.021791939 0.04702326 0.16029164
-0.11538387 0.033645127 0.053739995 -0.053485513 0.029389763 0.09679749 -0.091931194 0.07271717
0.05335456 0.08436705 0.09663371 0.13781157 -0.0074651055 0.22008896 0.08358407 -0.2627576
0.08893944 -0.10269953 0.24510176 0.040175848 0.026964221 0.02245192 0.06856962 0.17196582
-0.10923918 0.07178081 0.07276064 -0.07805989 0.068566725 0.01393514 0.058551013 -0.16997144
-0.1402682 -0.19037889 0.1474584 0.010593434 0.06365917 0.05820565 0.2567243 0.1336749
00000000: 4e90 93ba 1536 0f3e 526c 3f3e 8bf2 813e
00000010: 4808 4bbd ffa0 6c3d d519 d8bd 31fb d73c
00000020: 5e58 77bb 730d 893d 2b53 78be 0662 d3bc
00000030: c4cc d13c bd65 883c 2cd9 f73d 6859 8cbe
00000040: 54ff 323d 696a 00bc 3605 fb3c 71e4 223d
00000050: 2b55 dd3b 812e 023e 2561 a8bd 8864 3fbc
00000060: 4218 083e 5776 aa3d e39c 163e c094 dabd
00000070: 25ca 1ebe c8d0 a7bd b091 c6bd 9370 313d
00000080: c1e7 db3d 6979 d2bd 088d aebd 2a2a 95bd
00000090: 8aa9 12be ea51 3abd e7b8 8a3e 7525 c43d
000000a0: c672 82bc 78c4 6b3e 32de f7bd aabd b33d
000000b0: 38dd acbd dd19 703d 5475 37bd 36d8 593e
000000c0: 5bab 503d 4021 2b3e ad38 0ebe 7591 30bd
000000d0: cca8 11be 182c 1ebe c139 7a3e fbba 6e3d
000000e0: 091f 0bbe b3b3 013e 5f41 b1bd 699c 913d
000000f0: 5450 223d 576a ebbb 28eb ce3d 7476 6abd
00000100: 6cf9 d7bd eb4d eb3c 6d56 2f3e f814 d23b
00000110: 4cbb 693d b18e 9f3d eef1 b73d 671d be3d
00000120: 6fc7 28be 304d f23c 3ef2 f63d 87b4 b63d
00000130: 64fe 4f3e 197e 2cbe 9f38 eebc e626 23bd
00000140: 06c3 3d3d b953 5fbd 4e6a ee3d 3f5c 66bd
00000150: fdc0 083e 0285 b2bc 769b 403d 7e23 243e
00000160: 614e ecbd 79cf 093d 781e 5c3d a013 5bbd
00000170: cdc2 f03c c33d c63d 6c46 bcbd bdec 943d
00000180: 508a 5a3d a2c8 ac3d e5e7 c53d 7a1e 0d3e
00000190: d89d f4bb 005f 613e 202e ab3d 2a88 86be
000001a0: e225 b63d 2254 d2bd f5fb 7a3e 6e8f 243d
000001b0: 12e4 dc3c 17ed b73c 3b6e 8c3d cf17 303e
000001c0: cbb8 dfbd d101 933d 8803 953d dddd 9fbd
000001d0: b66c 8c3d 3750 643c 30d3 6f3d fe0c 2ebe
000001e0: 78a2 0fbe aff2 42be 56ff 163e 1590 2d3c
000001f0: bd5f 823d 0c69 6e3d 5e71 833e 13e2 083e

bn2.weight f4 [128]
0.9635604 0.87153715 0.9656978 0.93498796 1.003306 0.95776385 0.9594509 0.8333822
0.9029182 0.92185634 0.8108013 1.0022632 0.983699 1.0157487 0.98851126 0.7655627
0.90109086 0.9462026 0.8885612 1.0221308 1.011002 0.8974719 0.95664394 1.0034424
0.97517097 0.8601775 1.0711254 0.98599064 0.9800986 0.92276925 0.946126 0.97927344
0.9010559 0.99322903 0.993477 0.93656355 1.0659536 1.091335 0.8697182 0.92122245
1.0486901 0.9429959 0.986436 0.97100276 0.9313097 0.97464603 0.9652489 0.87288505
0.8702862 0.9990675 1.0251429 0.98902714 0.96381485 0.95110196 0.9560834 1.2156587
1.0746678 0.90404284 0.9898227 0.88578117 1.0579442 1.0055653 1.0191436 0.9365295
1.0269842 0.9708332 0.8654005 1.0587342 0.95638573 0.93357503 0.8542894 1.0352165
0.94550836 0.74440205 0.95179564 0.98836863 0.937969 0.8506513 0.9069644 1.0236902
0.9521549 1.0298322 0.89501476 0.9370553 0.8989134 0.8711106 0.9097272 0.9482895
1.0056018 0.98027885 0.9233195 0.9450181 0.93422705 0.92472273 1.0335283 1.0567795
0.91854537 1.0366236 0.9485201 0.83715457 0.9283805 0.9338412 0.9693244 0.9749913
0.96153337 0.91750115 0.8866235 0.9646818 0.87658715 1.05272 1.0004141 0.8429661
1.0078295 0.9154849 0.9335156 0.95141304 0.9827844 0.9617639 0.93559587 1.0082583
0.90964115 1.022182 1.0199082 0.9185611 0.8867603 0.95069915 0.9556223 1.0078248
00000000: e5ab 763f 0f1d 5f3f f937 773f 5f5b 6f3f
00000010: 556c 803f 0330 753f 939e 753f 8958 553f
00000020: a625 673f c7fe 6b3f ad90 4f3f 294a 803f
00000030: b3d3 7b3f 0e04 823f 130f 7d3f ebfb 433f
00000040: e4ad 663f 553a 723f bf78 633f 2fd5 823f
00000050: 8368 813f b8c0 653f 9ee6 743f cd70 803f
00000060: cea4 793f 9834 5c3f a31a 893f e269 7c3f
00000070: bee7 7a3f 9b3a 6c3f 5035 723f aab1 7a3f
00000080: 99ab 663f 4244 7e3f 8254 7e3f a1c2 6f3f
00000090: 2b71 883f deb0 8b3f daa5 5e3f 3cd5 6b3f
000000a0: 7a3b 863f 2e68 713f 1287 7c3f a393 783f
000000b0: 506a 6e3f 6782 793f 8d1a 773f 6575 5f3f
000000c0: 14cb 5e3f e3c2 7f3f e237 833f e230 7d3f
000000d0: 92bc 763f 6b7b 733f e2c1 743f b49a 9b3f
000000e0: b78e 893f 5a6f 673f 0565 7d3f 8ec2 623f
000000f0: b76a 873f 5db6 803f 4c73 823f 66c0 6f3f
00000100: 3874 833f 8688 783f e38a 5d3f 9a84 873f
00000110: b2d5 743f c6fe 6e3f b6b2 5a3f f981 843f
00000120: d60c 723f 2291 3e3f e1a8 733f ba05 7d3f
00000130: bd1e 703f 49c4 593f d22e 683f 4808 833f
00000140: 6cc0 733f 8bd1 833f b01f 653f dbe2 6f3f
00000150: 301f 663f 1b01 5f3f e2e3 683f 1ac3 723f
00000160: 8fb7 803f 8ef3 7a3f ab5e 6c3f b5ec 713f
00000170: 8129 6f3f a1ba 6c3f a84a 843f 8d44 873f
00000180: ca25 6b3f 15b0 843f 37d2 723f c34f 563f
00000190: 58aa 6d3f 3810 6f3f a525 783f 0899 793f
000001a0: 0d27 763f 5be1 6a3f c2f9 623f 63f5 763f
000001b0: 0468 603f 87bf 863f 920d 803f a0cc 573f
000001c0: 8f00 813f 385d 6a3f e1fa 6e3f ce8f 733f
000001d0: c297 7b3f 2936 763f 3683 6f3f 9c0e 813f
000001e0: 3ede 683f dcd6 823f 5a8c 823f d226 6b3f
000001f0: b902 633f 0561 733f aaa3 743f 6700 813f

bn2.bias f4 [128]
-0.0685229 0.54103065 -0.12174335 0.71758455 0.4252027 -0.04884255 0.03005496 0.3624895
-0.35061648 -0.13239795 -0.49319664 -0.56988156 0.24899471 0.064077675 0.66501164 -0.6870035
0.2866397 0.31873143 0.45266715 -0.43373263 0.1723533 -0.46147203 0.103416994 0.07676994
0.39883038 0.1514055 0.23994653 0.15239155 0.06082353 0.37299308 0.38188758 0.38005278
0.24298066 0.19834468 0.22564757 0.18182582 0.023517262 0.6928152 0.2533515 -0.10590317
0.60879225 0.4240801 0.09706469 -0.19358622 0.06682799 0.37409848 0.0441305 -0.20881768
-0.13297404 0.007036239 0.32968488 0.2870597 0.11584028 -0.22070217 0.59192705 0.066837154
-0.58396393 -0.1959959 0.22317475 0.4174222 -0.24642265 -0.32442084 0.27786517 0.030339845
-0.031102605 -0.3108159 0.27885714 0.05879938 -0.25776383 -0.19620053 -0.30828273 -0.06857506
-0.09268216 -0.687408 0.002768606 -0.24753298 -0.21920751 -0.6399853 -0.07879067 0.042563107
-0.031385276 -0.23227021 -0.35879505 0.47037634 0.3837258 0.21640985 0.6076615 0.4067047
-0.15286814 -0.124669634 0.061698973 -0.36306846 0.5596642 -0.2185819 -0.00025479833 0.20197976
-0.24475025 0.30300015 0.29887134 0.5718408 0.17337863 0.06274485 0.27587914 0.29413414
-0.07547431 -0.5457244 0.13026549 0.21095406 0.2602594 0.31555054 0.47298235 0.7043395
0.17878799 0.43407983 0.012832057 0.66747767 0.38064572 0.392967 -0.2334688 0.4399677
0.17150368 0.2823735 0.0734233 0.5880049 -0.28513408 0.0426382 0.38783094 0.59836775
00000000: bc55 8cbd fc80 0a3f 9454 f9bd 9fb3 373f
00000010: 2bb4 d93e 200f 48bd d235 f63c 3998 b93e
00000020: 0184 b3be 5493 07be 4584 fcbe c2e3 11bf
00000030: 78f8 7e3e 283b 833d 343e 2a3f 76df 2fbf
00000040: 70c2 923e c430 a33e fdc3 e73e 3412 debe
00000050: 627d 303e 1046 ecbe 4acc d33d 8f39 9d3d
00000060: 7f33 cc3e 0b0a 1b3e 8bb4 753e 880c 1c3e
00000070: 1822 793d f3f8 be3e c586 c33e 4796 c23e
00000080: eccf 783e de1a 4b3e 2810 673e 8c30 3a3e
00000090: 46a7 c03c 565c 313f 4ab7 813e c3e3 d8bd
000000a0: cfd9 1b3f 0721 d93e dac9 c63d 773b 46be
000000b0: 1ddd 883d d689 bf3e 2fc2 343d 4dd4 55be
000000c0: 592a 08be 4090 e63b 75cc a83e 7df9 923e
000000d0: ab3d ed3d c0ff 61be 8888 173f ebe1 883d
000000e0: a97e 15bf 26b3 48be ec87 643e 5db8 d53e
000000f0: 3856 7cbe 7d1a a6be 5844 8e3e 448b f83c
00000100: e4ca febc 4323 9fbe 5dc6 8e3e 9ed7 703d
00000110: 9ff9 83be cbe8 48be 3cd7 9dbe 1571 8cbd
00000120: 25d0 bdbd f8f9 2fbf 8071 353b 4979 7dbe
00000130: ef77 60be 14d6 23bf 015d a1bd a756 2e3d
00000140: d98d 00bd 3ed8 6dbe fcb3 b7be 2bd5 f03e
00000150: b577 c43e 8b9a 5d3e b48f 1b3f 993b d03e
00000160: 7789 1cbe cb52 ffbd 10b8 7c3d 1ce4 b9be
00000170: 2746 0f3f efd3 5fbe 7496 85b9 c8d3 4e3e
00000180: cf9f 7abe d622 9b3e aa05 993e 2964 123f
00000190: 2b8a 313e 5f80 803d 0840 8d3e c098 963e
000001a0: 4692 9abd 98b4 0bbf 5164 053e 5704 583e
000001b0: b840 853e d78f a13e be2a f23e 984f 343f
000001c0: 3314 373e b63f de3e 8c3d 523c d1df 2a3f
000001d0: ffe3 c23e f832 c93e 7212 6fbe 7243 e13e
000001e0: a99e 2f3e 4293 903e f55e 963d 7d87 163f
000001f0: 18fd 91be 65a5 2e3d c791 c63e a12e 193f

bn2.running_mean f4 [128]
0.0920876 0.22496918 0.2349825 0.37339562 0.13332877 0.12089106 0.10302313 0.14850721
0.08180211 0.15071152 0.02515376 0.19475348 0.21780398 0.096614845 0.30473277 6e-45
0.29604283 0.04682938 0.107320726 0.11611203 0.14758036 0.2511729 0.046564624 0.010808015
0.32792014 0.18240644 0.2954439 0.0752094 0.029502936 0.15817054 0.094894126 0.19184646
0.23580374 0.042477697 0.036159202 0.036040302 0.066051275 0.1531438 0.49028915 0.21392862
0.109286435 0.4705878 0.11575156 0.22787492 0.077024855 0.20676962 0.061512284 0.32455033
0.21398948 0.16997688 0.06930972 0.043443836 0.09868942 0.09239203 0.41159526 0.22736236
0.06243567 0.2650899 0.11025418 0.2009022 0.08434597 0.10897593 0.19721714 0.09902258
0.118543625 0.09222098 0.25896692 0.16023602 0.17515261 0.2327367 0.24283984 0.22203366
0.052423194 0.11780464 0.2953076 0.2489431 0.4647757 0.099392116 0.17218634 0.07616541
0.15184645 0.079109594 0.2238031 0.10606367 0.15807769 0.22249351 0.22193997 0.19442406
0.1453194 0.16358018 0.21191166 0.014403907 0.15761517 0.2219335 0.047322474 0.07167902
0.21699181 0.12636004 0.24721318 0.37861982 0.06550169 0.34007108 0.103405766 0.02149695
0.16468981 0.13409948 0.42728165 0.08676843 0.28906348 0.10871578 0.13423164 0.31356293
0.07037265 0.15837373 0.19102669 0.15081541 0.15352564 0.09416772 0.17038837 0.031789057
0.08984429 0.02324964 0.21400407 0.29428247 0.13265288 0.2603876 0.4305163 0.2864496
00000000: 6c98 bc3d 525e 663e 419f 703e b62d bf3e
00000010: 5687 083e bb95 f73d cafd d23d 4612 183e
00000020: dd87 a73d 1f54 1a3e 420f ce3c 756d 473e
00000030: 0208 5f3e 01de c53d ef05 9c3e 0400 0000
00000040: ed92 973e 2ad0 3f3d f8ca db3d 25cc ed3d
00000050: 4e1f 173e bc99 803e 8cba 3e3d 1a14 313c
00000060: 26e5 a73e c1c8 3a3e 6c44 973e 6307 9a3d
00000070: 24b0 f13c 75f7 213e da57 c23d 6673 443e
00000080: 8976 713e 18fd 2d3d ac1b 143d ff9e 133d
00000090: e445 873d bad1 1c3e 2e07 fb3e 1b10 5b3e
000000a0: 91d1 df3d e2f0 f03e 270f ed3d 0b58 693e
000000b0: 35bf 9d3d 6abb 533e 4ef4 7b3d 762b a63e
000000c0: 0f20 5b3e 6b0e 2e3e 41f2 8d3d 2af2 313d
000000d0: ae1d ca3d 0838 bd3d 9dbc d23e aed1 683e
000000e0: 8cbc 7f3d ddb9 873e f2cc e13d 4eb9 4d3e
000000f0: 94bd ac3d c62e df3d 4af3 493e 5acc ca3d
00000100: 00c7 f23d 5ade bc3d 5097 843e e914 243e
00000110: 355b 333e 8852 6e3e 02ab 783e cb5c 633e
00000120: b4b9 563d 8f43 f13d 8f32 973e f1ea 7e3e
00000130: 15f7 ed3e 188e cb3d 9e51 303e 9cfc 9b3d
00000140: a37d 1b3e 3604 a23d a42c 653e e937 d93d
00000150: 1edf 213e 57d5 633e 3b44 633e 1a17 473e
00000160: 9cce 143e 9081 273e 5fff 583e 5dfe 6b3c
00000170: df65 213e 8942 633e 36d5 413d 73cc 923d
00000180: 1a33 5e3e 8764 013e 7425 7d3e 75da c13e
00000190: c025 863d cc1d ae3e 67c6 d33d 5f1a b03c
000001a0: 72a4 283e 6051 093e a9c4 da3e a6b3 b13d
000001b0: 2100 943e 61a6 de3d 0574 093e 528b a03e
000001c0: 891f 903d b92c 223e 809c 433e 5b6f 1a3e
000001d0: d335 1d3e 01db c03d 4a7a 2e3e 3e35 023d
000001e0: 4800 b83d 0776 be3c e223 5b3e 31ac 963e
000001f0: 28d6 073e 8651 853e a26c dc3e 86a9 923e

bn2.running_var f4 [128]
0.01994843 0.069255844 0.028175497 0.021492984 0.02960068 0.015514368 0.031050855 0.02921575
0.025097592 0.042691804 0.0054623922 0.047756635 0.030798532 0.02086927 0.05286214 6e-45
0.08153464 0.009379291 0.017449023 0.02236682 0.03863101 0.050992183 0.009483015 0.0007744281
0.053019054 0.0619835 0.003345635 0.01245559 0.003659037 0.046149027 0.031766947 0.05556267
0.081631675 0.009889402 0.009104525 0.0058418005 0.024438055 0.018756572 0.062604874 0.05875498
0.015035887 0.07700484 0.02912345 0.033831872 0.02779313 0.052791517 0.0069672824 0.040057573
0.06852341 0.024161864 0.020132627 0.007895945 0.034856237 0.020875907 0.043847647 0.0018922819
0.012538346 0.05347 0.03240306 0.028880378 0.01356067 0.023853118 0.025349513 0.025620338
0.025684146 0.014672526 0.06881399 0.041726984 0.027214648 0.07467973 0.057508275 0.055662215
0.012127242 0.03251707 0.084878534 0.049363453 0.04115271 0.032483447 0.036979344 0.01297342
0.03120827 0.013502273 0.045815915 0.028300017 0.024976768 0.05703989 0.06590213 0.027766787
0.049096934 0.031075386 0.06060556 0.0018239454 0.038421404 0.054145657 0.00607411 0.009040311
0.065551236 0.016036455 0.06755561 0.11839444 0.012702596 0.08916954 0.014603985 0.004321896
0.028561817 0.036911767 0.043731865 0.01422482 0.073060066 0.015160102 0.037980437 0.08570168
0.019700395 0.048860162 0.025182405 0.03560006 0.020196814 0.024854735 0.038078815 0.0049120453
0.028532637 0.003912398 0.012443049 0.08627846 0.020021394 0.06973731 0.031444676 0.010428773
00000000: e46a a33c 02d6 8d3d 4dd0 e63c 0e12 b03c
00000010: 207d f23c fa2f 7e3c 5d5e fe3c de55 ef3c
00000020: 7799 cd3c 9add 2e3d defd b23b 769c 433d
00000030: 344d fc3c 08f6 aa3c f985 583d 0400 0000
00000040: a2fb a63d 99ab 193c 41f1 8e3c 9f3a b73c
00000050: 8d3b 1e3d 2edd 503d a65e 1b3c fd02 4b3a
00000060: 822a 593d 69e2 7d3d 7142 5b3b 8812 4c3c
00000070: 74cc 6f3b c306 3d3d 0f1e 023d af95 633d
00000080: 822e a73d 2907 223c 252b 153c 936c bf3b
00000090: 5132 c83c 62a7 993c fc36 803d 10a9 703d
000000a0: 1559 763c b7b4 9d3d 4d94 ee3c 4a93 0a3d
000000b0: 6bae e33c eb3b 583d cd4d e43b 6913 243d
000000c0: 0056 8c3d 1aef c53c 2eed a43c fe5d 013c
000000d0: 6ac5 0e3d f303 ab3c 9799 333d 7206 f83a
000000e0: a36d 4d3c 5c03 5b3d 12b9 043d 8b96 ec3c
000000f0: 932d 5e3c 9d67 c33c c8a9 cf3c bee1 d13c
00000100: 8f67 d23c 0965 703c 59ee 8c3d eae9 2a3d
00000110: 41f1 de3c b0f1 983d cc8d 6b3d 10fe 633d
00000120: 57b1 463c 9f30 053d ccd4 ad3d 5531 4a3d
00000130: be8f 283d 5d0d 053d a777 173d 788e 543c
00000140: 7ca8 ff3c a338 5d3c 78a9 3b3d 70d5 e73c
00000150: 149c cc3c a9a2 693d b2f7 863d 2c77 e33c
00000160: de19 493d cf91 fe3c 893d 783d 7411 ef3a
00000170: c35f 1d3d d6c7 5d3d 5409 c73b d01d 143c
00000180: ba3f 863d e25e 833c 985a 8a3d c978 f23d
00000190: 8d1e 503c 859e b63d 8d45 6f3c b19e 8d3b
000001a0: 79fa e93c cb30 173d 2f20 333d 380f 693c
000001b0: 84a0 953d 1462 783c 6091 1b3d 5d84 af3d
000001c0: b962 a13c 9821 483d 554b ce3c 5ed1 113d
000001d0: ca73 a53c 289c cb3c 88f8 1b3d 39f5 a03b
000001e0: 47bd e93c 9333 803b eedd 4b3c c3b2 b03d
000001f0: e803 a43c 6fd2 8e3d 22cc 003d 72dd 2a3c

fc2.weight f4 [128, 128]
0.024937415 -0.0031581689 -0.031343583 -0.0043803677 -0.16702059 0.03785746 -0.054371733 -0.014753631
0.050840165 0.0037186278 0.07329728 0.11494392 0.017229272 0.034170724 -0.036651447 0.15735207
-0.05707105 -0.036045905 -0.13732955 0.13364111 -0.031188028 -0.029479297 0.05607432 0.058622926
0.0024300122 0.06088324 0.0145384995 0.032435164 0.01842172 0.015395811 -0.097292796 -0.11842066
0.02143015 -0.07067379 0.05093037 0.031664386 -0.00028052283 -0.07261073 0.014927164 0.061881974
-0.09550789 0.028228609 0.09205797 0.022927113 -0.0024849304 -0.09254159 0.00039664042 0.084380016
-0.10626858 0.10125634 0.027387269 -0.012879762 0.060000353 -0.025937915 -0.022330573 -0.06119974
0.008996277 -0.016674565 -0.05943934 -0.044105634 0.054895405 0.025735315 -0.09471875 -0.015766583
0.10269862 0.07552023 0.018776663 0.097008504 -0.083016224 0.062913924 0.019752463 0.030537484
-0.113230504 0.09528435 0.034213904 0.0070706145 -0.039669633 0.13586153 0.046216585 0.034366716
-0.023392694 0.08398866 -0.039770976 -0.055993646 -0.053584825 0.031719245 -0.034772597 -0.15691403
0.061644834 0.020867418 0.038261015 0.039561085 -0.035993353 0.097315304 0.024329184 0.013761943
0.040907532 -0.058500297 -0.066579536 0.0042780847 -0.02159874 -0.058468267 -0.043440647 -0.12538348
0.07051303 0.070228666 0.031830028 -0.016888177 0.04013055 -0.06452694 -0.062223632 -0.07385969
-0.039981212 -0.0809938 0.005620666 -0.122491896 -0.08381894 -0.06568162 0.06483675 -0.051525373
-0.10328795 -0.07649411 -0.024338873 -0.1318915 0.03897934 0.084349334 -0.035659146 -0.18084514
-0.04466098 0.022395197 -0.021300783 -0.10238882 -0.13493326 0.08141604 0.048082627 0.07892369
0.044551503 0.06470981 -0.08696307 -0.016745389 0.08086357 -0.0505968 -0.050099127 -0.05547107
0.11817507 0.08936874 0.044657525 -0.040759716 0.018099273 -0.08332081 -0.02762772 -0.0026594556
0.10053083 0.015778512 -0.12089958 -0.059844878 -0.05435338 -0.090105124 0.109549396 0.074870974
-0.061701495 0.024728198 0.15632625 -0.004280364 0.05663601 0.047476124 0.040771704 0.017638989
-0.13670689 0.1012366 0.015488282 0.014833749 0.053455584 0.001975449 0.06494102 0.063391216
0.027370768 -0.007905874 0.027730249 0.028561236 -0.1340387 -0.04371529 0.068670854 -0.04397359
-0.055176824 0.00993167 0.02502719 -0.04993227 -0.07659504 -0.03609503 0.059549905 -0.11002884
-0.060597964 0.0060308306 -0.05102395 0.027945885 0.034918584 -0.052755192 0.026735935 -0.061839353
0.01276296 -0.10557914 0.08452506 -0.124084465 0.12989354 0.011721388 -0.0050839623 0.0889552
-0.07307585 0.07975461 0.057621885 0.029083934 -0.053344905 -0.014965866 -0.0004116535 -0.0035685143
0.17516196 -0.09602446 0.098567344 -0.0050271926 -0.037016496 -0.09457472 0.002004777 0.107009284
-0.0192541 0.008687129 0.03683746 -0.06842424 -0.13155976 0.04632699 -0.029194271 0.10426653
-0.08337751 0.02402474 0.03829192 -0.051865034 0.10527669 -0.0038569209 -0.012070076 -0.06349397
0.07597945 0.005284252 -0.006353314 -0.09929682 -0.01913649 0.09823856 0.16374972 -0.058610167
-0.10204681 -0.17294043 -0.026253982 -0.077131875 -0.093203954 -0.002081399 -0.03762449 0.016207175
00000000: 8d49 cc3c 48f9 4ebb 2162 00bd 3089 8fbb
00000010: 7207 2bbe 6d10 1b3d e5b4 5ebd 37b9 71bc
00000020: c73d 503d 39b4 733b e21c 963d b867 eb3d
00000030: 6724 8d3c 9af6 0b3d d41f 16bd e720 213e
00000040: 55c3 69bd dfa4 13bd 1ea0 0cbe 37d9 083e
00000050: 097e ffbc 917e f1bc 30ae 653d 981e 703d
00000060: d740 1f3b b460 793d e332 6e3c bcda 043d
00000070: 26e9 963c b63e 7c3c 7241 c7bd 8886 f2bd
00000080: 488e af3c 6cbd 90bd 5d9c 503d 84b2 013d
00000090: 2313 93b9 efb4 94bd 1091 743c f477 7d3d
000000a0: a499 c3bd af3f e73c e488 bc3d a4d1 bb3c
000000b0: 37da 22bb 7286 bdbd 2df4 cf39 6ecf ac3d
000000c0: 57a3 d9bd 7c5f cf3d 445b e03c a305 53bc
000000d0: eec2 753d c07b d4bc 9bee b6bc 94ac 7abd
000000e0: 1f65 133c 1999 88bc aa76 73bd 1ca8 34bd
000000f0: 01da 603d ded2 d23c e7fb c1bd ec28 81bc
00000100: a753 d23d 5aaa 9a3d 84d1 993c 65ac c63d
00000110: 6904 aabd 04d9 803d ebcf a13c bf29 fa3c
00000120: 65e5 e7bd 7124 c33d e123 0c3d 9db0 e73b
00000130: a07c 22bd 491f 0b3e 9a4d 3d3d 1dc4 0c3d
00000140: 09a2 bfbc 3f02 ac3d e4e6 22bd 9859 65bd
00000150: c37b 5bbd 0aec 013d b66d 0ebd 12ae 20be
00000160: 4b7f 7c3d 26f2 aa3c 95b7 1c3d ce0a 223d
00000170: c46d 13bd 3f4d c73d ff4d c73c c679 613c
00000180: a88e 273d 029e 6fbd da5a 88bd 2d2f 8c3b
00000190: d7ef b0bc 6c7c 6fbd d2ee 31bd 8764 00be
000001a0: 2369 903d 0cd4 8f3d 3460 023d 1359 8abc
000001b0: ee5f 243d b326 84bd 35de 7ebd c043 97bd
000001c0: 57c3 23bd 14e0 a5bd 902d b83b 08dd fabd
000001d0: 44a9 abbd 1684 86bd 21c9 843d 450c 53bd
000001e0: a288 d3bd f2a8 9cbd 5162 c7bc 910e 07be
000001f0: cda8 1f3d 58bf ac3d 530f 12bd 782f 39be
00000200: 6fee 36bd 2276 b73c fb7e aebc 3bb1 d1bd
00000210: f22b 0abe 74bd a63d 4af2 443d bea2 a13d
00000220: a37b 363d 9486 843d b219 b2bd a02d 89bc
00000230: cd9b a53d 973e 4fbd be34 4dbd a235 63bd
00000240: c505 f23d f506 b73d cfea 363d a9f3 26bd
00000250: ed44 943c 1aa4 aabd 8753 e2bc 434a 2ebb
00000260: 1ce3 cd3d f041 813c 339a f7bd e71f 75bd
00000270: a6a1 5ebd 0989 b8bd 6f5b e03d f455 993d
00000280: b5ba 7cbd ca92 ca3c fd13 203e 4c42 8cbb
00000290: 29fb 673d 5376 423d 3b00 273d a47f 903c
000002a0: e4fc 0bbe 2255 cf3d 90c2 7d3c 4109 733c
000002b0: 3ef4 5a3d 8976 013b ccff 843d 41d3 813d
000002c0: a938 e03c a487 01bc 8c2a e33c 41f9 e93c
000002d0: 7141 09be ce0e 33bd 4ea3 8c3d a71d 34bd
000002e0: 1801 62bd 71b8 223c d205 cd3c c885 4cbd
000002f0: dcdd 9cbd 62d8 13bd 9aea 733d cd56 e1bd
00000300: 9235 78bd 469e c53b 7dfe 50bd c5ee e43c
00000310: ca06 0f3d d415 58bd 5205 db3c 434b 7dbd
00000320: bc1b 513c e039 d8bd 7a1b ad3d ff1f febd
00000330: d002 053e 110b 403c 5e97 a6bb 252e b63d
00000340: cba8 95bd 6356 a33d ed04 6c3d 6e41 ee3c
00000350: 3080 5abd 6433 75bc 33d3 d7b9 bcdd 69bb
00000360: a85d 333e 79a8 c4bd addd c93d 26bb a4bb
00000370: 9c9e 17bd 64b0 c1bd 9462 033b af27 db3d
00000380: c6ba 9dbc 7654 0e3c e0e2 163d 0222 8cbd
00000390: 9ab7 06be 5fc1 3d3d d328 efbc b189 d53d
000003a0: d4c1 aabd 88cf c43c fdd7 1c3d 6e70 54bd
000003b0: 4e9b d73d 65c4 7cbb 91c1 45bc 2009 82bd
000003c0: 1d9b 9b3d 8527 ad3b 762f d0bb 225c cbbd
000003d0: 21c4 9cbc 4c31 c93d 02ae 273e 3711 70bd
000003e0: ebfd d0bd 4c17 31be 9712 d7bc 51f7 9dbd
000003f0: b7e1 bebd 1568 08bb 231c 1abd e9c4 843c

fc2.bias f4 [128]
-0.18824664 0.047656756 0.14304134 -0.097772285 0.14733358 -0.32838774 -0.025694262 -0.16237725
0.12825103 -0.108655035 -0.011933868 -0.041999895 -0.10051008 -0.15288968 -0.11495831 -0.03394767
-0.064922065 -0.17603548 -0.124579795 0.04981263 -0.2225089 -0.2429749 -0.024496956 -0.2189457
-0.07528066 -0.01923306 -0.09906585 -0.16404106 -0.17783163 -0.016906003 0.0056745103 -0.21343923
-0.07363347 0.047671307 -0.08310834 -0.033314165 -0.13055775 -0.041235484 -0.13027893 0.039320763
-0.12151459 -0.08339783 -0.027237428 -0.029394971 -0.069057174 -0.19143914 0.13503933 -0.04649759
-0.023763122 -0.08962041 0.028675523 -0.07645512 -0.31309953 -0.016667662 -0.1266737 -0.13043821
0.055036925 0.01538159 -0.22089113 -0.3115135 0.011745941 0.048836704 -0.22354531 -0.024742926
0.08916274 -0.09164813 -0.119906895 -0.10462315 -0.09887895 0.06523539 -0.0052081966 0.060498033
-0.20040685 -0.06270497 -0.061071243 -0.15771496 0.035519842 -0.0103574265 -0.18283366 -0.016045652
-0.1810752 0.04908012 -0.087666504 0.2148072 0.048187334 0.13412137 0.053286318 -0.29404166
-0.099014714 -0.27382478 -0.2169526 0.03985553 0.004732817 0.13516659 -0.29560372 -0.13688451
-0.08093778 -0.042724147 -0.06684129 -0.03587155 0.14196187 -0.16404642 0.018257359 0.06770843
-0.039105363 -0.03473201 0.18773271 -0.14221105 -0.02341956 -0.13840708 -0.14215724 -0.051667027
-0.12910235 -0.10133081 -0.07048069 -0.039594676 -0.269921 -0.13640177 -0.1350218 -0.066551745
0.14874223 -0.0816424 -0.25506854 -0.11577615 0.05238259 -0.010074496 -0.19340543 -0.25134334
00000000: bac3 40be bb33 433d 6e79 123e d63c c8bd
00000010: 9dde 163e 7022 a8be c67c d2bc 3946 26be
00000020: 3d54 033e 8886 debd 4586 43bc 1508 2cbd
00000030: 3bd8 cdbd 1d8f 1cbe 436f ebbd b60c 0bbd
00000040: dcf5 84bd a542 34be b123 ffbd 5408 4c3d
00000050: 60d9 63be 6ace 78be d7ad c8bc 4d33 60be
00000060: bf2c 9abd a68e 9dbc 09e3 cabd 61fa 27be
00000070: 7f19 36be 757e 8abc 3ef1 b93b d08f 5abe
00000080: 25cd 96bd fd42 433d b534 aabd 6f74 08bd
00000090: eeb0 05be 8ae6 28bd d767 05be cf0e 213d
000000a0: a4dc f8bd 7bcc aabd 0721 dfbc b9cd f0bc
000000b0: d96d 8dbd 9f08 44be c047 0a3e 4274 3ebd
000000c0: e1aa c2bc e88a b7bd eee8 ea3c 8194 9cbd
000000d0: 954e a0be 9f8a 88bc c0b6 01be 9891 05be
000000e0: 666e 613d 1103 7c3c 4931 62be b37e 9fbe
000000f0: 0c72 403c ff08 483d 10e9 64be adb1 cabc
00000100: f49a b63d 04b2 bbbd bf91 f5bd a944 d6bd
00000110: 0c81 cabd 229a 853d 85a9 aabb c9cc 773d
00000120: 7437 4dbe 776b 80bd d725 7abd 0880 21be
00000130: 417d 113d 32b2 29bc bf38 3bbe 2c72 83bc
00000140: c76b 39be 3c08 493d 7f8a b3bd 6bf6 5b3e
00000150: 1560 453d 1d57 093e c142 5a3d a18c 96be
00000160: 3ac8 cabd c332 8cbe d328 5ebe 8d3f 233d
00000170: bf15 9b3b 1c69 0a3e 5f59 97be 742b 0cbe
00000180: b5c2 a5bd 84ff 2ebd 16e4 88bd 0cee 12bd
00000190: 745e 113e c9fb 27be 7590 953c b8aa 8a3d
000001a0: f22c 20bd 2743 0ebd 013d 403e c69f 11be
000001b0: 61da bfbc 96ba 0dbe ab91 11be cea0 53bd
000001c0: 6833 04be 8786 cfbd 2e58 90bd 072e 22bd
000001d0: 1633 8abe e8ac 0bbe 2843 0abe 484c 88bd
000001e0: e24f 183e 2134 a7bd 5898 82be 0c1c edbd
000001f0: 208f 563d 800f 25bc 130c 46be 13b0 80be

bn3.weight f4 [128]
1.2669734 1.1869663 1.2353309 1.1861699 1.4899468 1.472639 1.1866709 1.2688531
1.2094167 1.3360578 1.1774304 1.3676672 1.265958 1.4728174 1.2739083 1.2108353
1.23771 1.1827567 1.3270285 1.2803807 1.3350154 1.2507963 1.2345513 1.5304749
1.1789281 1.2016603 1.175786 1.2912956 1.2711874 1.235685 1.1982782 1.2689797
1.3147265 1.1902057 1.4157982 1.3770242 1.2547581 1.2159762 1.4605404 1.3055834
1.2039201 1.2690841 1.4073626 1.5191138 1.1600212 1.1968936 1.4163115 1.2487751
1.2188497 1.2505255 1.565417 1.2747794 1.2551349 1.2285409 1.234391 1.2342558
1.3702652 1.4748651 1.4310123 1.5487953 1.3017823 1.3091385 1.2614287 1.3016526
1.1759554 1.2873393 1.1647636 1.3768482 1.1842003 1.2057965 1.2010365 1.2777816
1.2720814 1.4956311 1.3187579 1.3038265 1.2422688 1.2980144 1.5003368 1.2337378
1.2357506 1.2093756 1.2948021 1.3240203 1.393743 1.2912896 1.2458168 1.1646398
1.2799548 1.3198335 1.3265316 1.2774099 1.223423 1.2706326 1.3078507 1.228816
1.2353754 1.2588913 1.1693034 1.1416581 1.2035354 1.5196799 1.2964779 1.1734315
1.3018155 1.2003294 1.1950074 1.6077946 1.294779 1.4144533 1.5016332 1.2215734
1.2453797 1.4095085 1.2483199 1.505106 1.4079807 1.2451015 1.4229656 1.2391824
1.1395569 1.2423244 1.0484166 1.4855644 1.1839899 1.2589587 1.3747013 1.1358384
00000000: 2f2c a23f 83ee 973f 531f 9e3f 6ad4 973f
00000010: 94b6 be3f 6f7f bc3f d5e4 973f c769 a23f
00000020: 2bce 9a3f f103 ab3f 0ab6 963f b80f af3f
00000030: e90a a23f 4885 bc3f 6d0f a33f a7fc 9a3f
00000040: 486d 9e3f 9264 973f 12dc a93f 84e3 a33f
00000050: c9e1 aa3f 181a a03f c705 9e3f 9ae6 c33f
00000060: 1ee7 963f 01d0 993f 2880 963f 2d49 a53f
00000070: 45b6 a23f ed2a 9e3f 2e61 993f ed6d a23f
00000080: f548 a83f a958 983f e038 b53f 5442 b03f
00000090: ea9b a03f 1ca5 9b3f fdf2 ba3f 5b1d a73f
000000a0: 0e1a 9a3f 5971 a23f 7524 b43f 5272 c23f
000000b0: 937b 943f cf33 993f b249 b53f ddd7 9f3f
000000c0: 4403 9c3f 3811 a03f 965f c83f f92b a33f
000000d0: 43a8 a03f d440 9d3f 8600 9e3f 18fc 9d3f
000000e0: da64 af3f 61c8 bc3f 692b b73f ed3e c63f
000000f0: cda0 a63f da91 a73f 7f76 a13f 8d9c a63f
00000100: b585 963f 89c7 a43f f916 953f 903c b03f
00000110: e093 973f 8a57 9a3f 90bb 993f 598e a33f
00000120: 90d3 a23f d770 bf3f 0fcd a83f c9e3 a63f
00000130: aa02 9f3f 5625 a63f 090b c03f 1feb 9d3f
00000140: 132d 9e3f d2cc 9a3f 13bc a53f 7f79 a93f
00000150: 2c66 b23f fa48 a53f ed76 9f3f eb12 953f
00000160: 8fd5 a33f 4ef0 a83f cacb a93f 2b82 a33f
00000170: 2099 9c3f 17a4 a23f a767 a73f d849 9d3f
00000180: c820 9e3f 5a23 a13f bcab 953f da21 923f
00000190: 730d 9a3f df84 c23f fdf2 a53f 0133 963f
000001a0: e4a1 a63f 65a4 993f 01f6 983f 37cc cd3f
000001b0: 51bb a53f ce0c b53f 8435 c03f 845c 9c3f
000001c0: 9a68 9f3f c66a b43f f2c8 9f3f 50a7 c03f
000001d0: b638 b43f 7c5f 9f3f bd23 b63f 879d 9e3f
000001e0: 00dd 913f 7c04 9f3f 8432 863f f926 be3f
000001f0: fb8c 973f 8f25 a13f 36f6 af3f 2763 913f

bn3.bias f4 [128]
-0.06288587 -0.022271987 0.13313846 0.051511593 0.054056723 -0.05684433 0.013027453 -0.095500045
-0.048283502 0.13906947 0.002283232 0.06102767 0.085943066 0.06387358 -0.019410985 0.043350935
-0.05702335 0.08659418 0.027884258 0.07972877 -0.035095833 0.044931274 0.0056754067 -0.03368193
0.018440176 0.030259432 -0.063196585 0.012688171 -0.12521458 0.145756 0.03950972 0.078580946
-0.091076486 0.06978851 -0.012499314 0.00078777905 0.041935824 0.02405733 0.059874892 -0.023562554
-0.16637434 -0.058825698 -0.04067897 -0.07026984 -0.00018886656 0.06529716 0.0869708 0.064355366
-0.11299784 -0.04446431 0.016549945 0.0073538977 0.06972972 0.005908657 0.016150782 0.1357101
-0.043215346 0.054756276 0.018407676 0.050904043 0.058420144 0.060369547 -0.078571156 -0.085392
-0.018800449 -0.034004595 -0.055914994 -0.03534707 0.12084996 0.048983227 -0.00021277656 0.10982321
0.034608822 0.03725031 0.05703492 -0.02284446 0.08356266 -0.016352136 -0.09914862 -0.086258225
0.07609457 0.020147465 0.0012362156 -0.011872747 -0.15174693 0.017789502 -0.0785015 -0.01736358
-0.04261265 -0.014543692 0.03907427 -0.046658784 0.044148643 0.062744424 -0.022325916 -0.06989193
0.045044553 -0.026324276 0.0649509 -0.0035325694 0.029602144 -0.015291479 0.00080802396 0.037945222
-0.054020498 -0.012794917 -0.016045146 0.014456985 0.09203257 0.03809553 -0.06953516 0.08629898
0.096065015 0.016786724 -0.058345404 -0.016680313 0.035319168 -0.001622816 0.015753496 0.10529521
0.019371822 -0.042258535 0.05896798 -0.012009343 0.089913055 -0.07996587 -0.013206586 0.05921123
00000000: 4fca 80bd be73 b6bc 7355 083e d2fd 523d
00000010: 956a 5d3d 9ad5 68bd 1971 553c 8795 c3bd
00000020: ecc4 45bd 3a68 0e3e 47a2 153b 26f8 793d
00000030: eb02 b03d 27d0 823d c903 9fbc c090 313d
00000040: 5191 69bd 4a58 b13d 876d e43c d648 a33d
00000050: a6c0 0fbd db09 383d c3f8 b93b 10f6 09bd
00000060: da0f 973c a1e2 f73c 366d 81bd 0ce2 4f3c
00000070: 4038 00be 1041 153e f2d4 213d 0cef a03d
00000080: 4f86 babd 47ed 8e3d ecc9 4cbc f582 4e3a
00000090: e6c4 2b3d e113 c53c 603f 753d 4206 c1bc
000000a0: 095e 2abe 37f3 70bd fe9e 26bd a2e9 8fbd
000000b0: 7b0a 46b9 84ba 853d bf1d b23d bfcc 833d
000000c0: 696b e7bd 3520 36bd c093 873c f7f8 f03b
000000d0: 75ce 8e3d 689d c13b a54e 843c 97f7 0a3e
000000e0: 9302 31bd 1e48 603d b2cb 963c c280 503d
000000f0: f649 6f3d 0f46 773d eae9 a0bd 00e2 aebd
00000100: 6603 9abc 6748 0bbd 1f07 65bd 17c8 10bd
00000110: 2f80 f73d a3a2 483d c61c 5fb9 feea e03d
00000120: fbc1 0d3d c893 183d 739d 693d 4e24 bbbc
00000130: e622 ab3d eaf4 85bc 6f0e cbbd 27a8 b0bd
00000140: 78d7 9b3d 4c0c a53c 8308 a23a e985 42bc
00000150: 8c63 1bbe 4abb 913c 65c5 a0bd 113e 8ebc
00000160: 9a8a 2ebd aa48 6ebc 570c 203d 481d 3fbd
00000170: 35d5 343d 2680 803d d7e4 b6bc 8023 8fbd
00000180: a380 383d 02a6 d7bc fa04 853d ae82 67bb
00000190: 3280 f23c 1d89 7abc 92d1 533a 736c 1b3d
000001a0: 9944 5dbd c6a1 51bc 1c71 83bc fddc 6c3c
000001b0: 927b bc3d 0f0a 1c3d 7368 8ebd 85bd b03d
000001c0: bcbd c43d 5084 893c 97fb 6ebd 27a5 88bc
000001d0: d5aa 103d abb4 d4ba 7a0d 813c 04a5 d73d
000001e0: a8b1 9e3c 4917 2dbd 6988 713d d6c2 44bc
000001f0: 5624 b83d 25c5 a3bd 7060 58bc 7a87 723d

bn3.running_mean f4 [128]
4.2276384e-05 0.7975901 0.7461777 0.18553796 0.73498696 0.00018271786 0.25376946 0.5118167
1.031817 0.42111325 0.5207206 0.044214364 0.10987842 0.4032952 0.040553123 0.28913265
0.19398434 0.4237441 0.05519433 0.6533254 0.0028292027 0.10124794 0.6700788 0.0006057194
0.21432763 0.1218062 0.0304902 0.0822003 0.21046743 0.32262164 0.007895354 0.47420028
0.41448176 0.25993726 0.24706778 0.100605406 0.1306427 0.44454288 0.06082761 0.47016189
0.23580328 0.6942134 0.08205586 0.7007433 0.27579492 0.13360354 0.45495942 0.2600403
0.49742246 0.02991379 0.10843922 0.4005719 0.0026258419 0.7296088 0.116675094 0.35376424
0.5255863 0.4637865 0.09342811 2.3794115e-05 0.20112531 0.81256104 0.0041396753 6e-45
0.9940146 0.55600476 0.22637668 0.02260449 0.52041596 0.71813715 0.19995666 0.7334283
1.8281067e-06 0.0011625299 0.16616912 6e-45 0.8724399 0.7892444 0.08767938 0.667097
3.116487e-05 0.21303056 0.24517861 1.0051817 0.67851067 1.0343499 0.2707035 0.00045146287
0.42180893 0.00090865284 2.047518e-07 0.8815121 0.52526957 0.37215298 0.038723882 0.24381423
0.23507884 0.24451737 0.74896973 0.3289449 0.5969214 0.10337462 0.5820378 0.4037244
0.5593307 0.16562858 0.86125183 0.20905283 0.5988127 0.15033567 0.10933981 0.47815576
0.50281453 0.18182844 0.3763273 0.13099882 6e-45 0.02557303 0.17682046 0.5593724
1.0502603 0.00037628773 2.2310815e-11 0.02836087 0.28591198 0.706803 0.030729933 2.5435198e-16
00000000: ec51 3138 dd2e 4c3f 8005 3f3f aafd 3d3e
00000010: 1b28 3c3f f497 3f39 12ee 813e 6b06 033f
00000020: 9412 843f 289c d73e f24d 053f 1f1a 353d
00000030: f007 e13d b57c ce3e 081b 263d 3209 943e
00000040: d5a3 463e fdf4 d83e 7313 623d 5540 273f
00000050: 256a 393b 145b cf3d 498a 2b3f 24c9 1e3a
00000060: b478 5b3e 8775 f93d 95c6 f93c a258 a83d
00000070: c684 573e aa2e a53e 845b 013c 61ca f23e
00000080: f436 d43e 7f16 853e 56ff 7c3e 350a ce3d
00000090: 33c7 053e 209b e33e 5f26 793d 0fb9 f03e
000000a0: 6a76 713e f8b7 313f e70c a83d ea63 333f
000000b0: fe34 8d3e 5ecf 083e 71f0 e83e 0124 853e
000000c0: 28ae fe3e c40d f53c 6215 de3d c317 cd3e
000000d0: 5116 2c3b a4c7 3a3f 5af3 ee3d 9620 b53e
000000e0: d38c 063f 6d75 ed3e 3d57 bf3d 7999 c737
000000f0: cbf3 4d3e 0004 503f 1da6 873b 0400 0000
00000100: be77 7e3f 5456 0e3f 4acf 673e 0d2d b93c
00000110: fb39 053f d6d7 373f 70c1 4c3e f5c1 3b3f
00000120: 455d f535 0860 983a 3d28 2a3e 0400 0000
00000130: 3958 5f3f ec0b 4a3f 3f91 b33d dec6 2a3f
00000140: 06b7 0238 af24 5a3e 1a10 7b3e cba9 803f
00000150: e0b2 2d3f 9465 843f a699 8a3e 52b2 ec39
00000160: 57f7 d73e a932 6e3a bfd9 5b34 c7aa 613f
00000170: 1178 063f d68a be3e ef9c 1e3d 70aa 793e
00000180: 82b8 703e c362 7a3e 7bbc 3f3f 776b a83e
00000190: d7cf 183f 13b6 d33d 6e00 153f f7b4 ce3e
000001a0: 4c30 0f3f 8a9a 293e 007b 5c3f f211 563e
000001b0: ca4b 193f 98f1 193e 8ded df3d d5d0 f43e
000001c0: 74b8 003f 3c31 3a3e f9ad c03e 8e24 063e
000001d0: 0400 0000 887e d13c 6c10 353e 0833 0f3f
000001e0: ee6e 863f 7c48 c539 7d3f c42d 0e55 e83c
000001f0: 0e63 923e 0bf1 343f 57bd fb3c ba9f 9225

bn3.running_var f4 [128]
2.42073e-05 0.9465715 0.7898726 0.12868908 0.85964924 8.15668e-05 0.18494421 0.5325824
0.72225446 0.4175411 0.90370196 0.03001167 0.052181914 0.30981168 0.023690613 0.3122198
0.15029116 0.79685163 0.03462998 0.9997134 0.00086026674 0.070266105 0.7168003 0.00016646658
0.22679411 0.092458695 0.019016158 0.051943973 0.19841346 0.3551092 0.0030021688 0.6238243
0.5548354 0.22760314 0.2547487 0.069270805 0.1387642 0.39423656 0.045618713 0.5578418
0.29949647 1.206575 0.05499907 0.52869135 0.33604956 0.122088075 0.5285791 0.2277443
0.57009465 0.022837842 0.05791995 0.40129423 0.0016934366 0.84474164 0.101998545 0.445188
0.6147955 0.43489245 0.06662788 1.8571185e-06 0.08315659 0.99955755 0.0027389675 6e-45
1.5158969 0.70746464 0.23521022 0.0076087774 0.5566846 0.8297252 0.22252008 0.79799074
2.2728959e-07 0.00027381393 0.1365362 6e-45 1.1637652 0.9888763 0.068737835 0.45780048
3.2124399e-06 0.17959131 0.20982963 0.93291 0.40899634 0.83125746 0.2729664 0.0004426715
0.72595596 0.0006564674 1.2854516e-08 1.2561334 0.48999014 0.21904056 0.041235074 0.22525042
0.24408236 0.18912919 0.78972024 0.46995535 0.5029116 0.060873196 0.5694093 0.4422261
0.5484807 0.15503441 0.785144 0.17388202 0.74574155 0.118811175 0.094844535 0.86803514
0.5016499 0.19310331 0.6584538 0.14446826 6e-45 0.0127790915 0.152826 0.65728563
1.0244524 0.00015678955 1.6229028e-12 0.01536051 0.23171468 1.035426 0.017466037 1.4291648e-17
00000000: c810 cb37 8352 723f 1735 4a3f 12c7 033e
00000010: f911 5c3f d80e ab38 0462 3d3e 5257 083f
00000020: abe5 383f f2c7 d53e 0359 673f 09db f53c
00000030: b4bc 553d a39f 9e3e d112 c23c 46db 9f3e
00000040: ede5 193e 78fe 4b3f 2ad8 0d3d 38ed 7f3f
00000050: 8683 613a ade7 8f3d 3980 373f 888d 2e39
00000060: b73c 683e fc5a bd3d c6c7 9b3c 34c3 543d
00000070: e62c 4b3e e0d0 b53e 09c0 443b f3b2 1f3f
00000080: b109 0e3f cc10 693e 6c6e 823e dadd 8d3d
00000090: 3418 0e3e 60d9 c93e b0da 3a3d b8ce 0e3f
000000a0: 9a57 993e 0d71 9a3f b446 613d 5158 073f
000000b0: b00e ac3e 5009 fa3d f650 073f cd35 693e
000000c0: b9f1 113f 6d16 bb3c 783d 6d3d 7076 cd3e
000000d0: 4ef6 dd3a fd40 583f 9de4 d03d aeef e33e
000000e0: 3d63 1d3f 39aa de3e 3374 883d 1b42 f935
000000f0: 014e aa3d 01e3 7f3f 4080 333b 0400 0000
00000100: e908 c23f 671c 353f f3da 703e 0d53 f93b
00000110: e282 0e3f df68 543f 4edc 633e 1f49 4c3f
00000120: e30c 7434 af8e 8f39 25d0 0b3e 0400 0000
00000130: 42f6 943f ff26 7d3f 6cc6 8c3d d364 ea3e
00000140: 4c95 5736 c9e6 373e 94dd 563e 31d3 6e3f
00000150: f867 d13e 4acd 543f 41c2 8b3e 5d16 e839
00000160: 40d8 393f c816 2c3a c2d6 5c32 fbc8 a03f
00000170: fddf fa3e 2b4c 603e 1ce6 283d 0ca8 663e
00000180: baf0 793e 15ab 413e 1b2b 4a3f fd9d f03e
00000190: d1be 003f 2c56 793d cfc4 113f 766b e23e
000001a0: 3b69 0c3f 57c1 1e3e 32ff 483f 210e 323e
000001b0: ebe8 3e3f 4653 f33d da3d c23d 8d37 5e3f
000001c0: 216c 003f e0bc 453e 6e90 283f 7def 133e
000001d0: 0400 0000 655f 513c 6b7e 1c3e df43 283f
000001e0: 4221 833f e067 2439 3c67 e42b a6aa 7b3c
000001f0: 9d46 6d3e d788 843f ef14 8f3c 33d1 8323
