checkpoint_critic.pth (torch, 472613 bytes, 5 tensors)

pre_layer.weight f4 [400, 33]
000000 a2 b7 12 3f 3a 88 e5 3d 4f d2 ce bd 99 48 66 bf
       0.5731145 0.11207624 -0.10098707 -0.89954525
000010 a5 ad 00 c0 90 67 21 40 36 d4 20 bf 24 f5 91 3e
       -2.0105984 2.521946 -0.6282381 0.2850734
000020 a1 0c e3 be 05 da 6e bf a3 5a 19 3e a0 60 a0 bd
       -0.44345573 -0.9330142 0.14975981 -0.0783093
000030 f2 7f 26 be 45 42 89 3e e8 40 34 be 5a e4 ef 3e
       -0.16259745 0.26808372 -0.17602885 0.46853906
000040 06 c0 1c 3e 3e 9a a8 bf 87 c1 66 bf 2c e8 b7 3f
       0.15307626 -1.3172071 -0.9013905 1.4367728
000050 da 28 43 3e 01 f7 e6 3d 44 ce ea 3d 24 10 7e be
       0.19058552 0.11277581 0.11465123 -0.24810845
000060 fc ae 28 be 9e a8 da bd 89 de b1 3e 96 45 12 40
       -0.16473001 -0.106766924 0.34740093 2.2854972
000070 d2 72 c6 bd 02 15 12 3d 63 6d 10 c0 70 91 84 3c
       -0.09689869 0.035664566 -2.2566764 0.016182631
000080 23 b8 38 40 46 c2 99 bd 38 51 2b 3d c2 5d a4 bd
       2.8862388 -0.07507758 0.041825503 -0.080256954
000090 5e 83 69 bd 0e a8 b2 bd f2 9f 6a 3e 91 ec c9 3b
       -0.057010047 -0.0872346 0.22912577 0.006162234
0000a0 ff db 4e 3c 14 3c 44 3e 55 43 24 3d 4f 76 5f bc
       0.012625693 0.19163543 0.040103275 -0.013639047
0000b0 b6 52 aa bb 07 89 1f bc 1d 49 43 3d 15 cf c2 bb
       -0.005197848 -0.00973726 0.047677148 -0.0059450963
0000c0 23 d4 26 3d 4f b0 bf 3c ae 42 c9 3d a1 fe 17 be
       0.040729653 0.0233995 0.09827171 -0.14843227
0000d0 9d d0 08 bd 7c bb 19 3c f7 3e e1 3c 5e b7 a7 bc
       -0.033402074 0.009383079 0.027495844 -0.020473178
0000e0 57 38 11 bc 70 69 12 bc a2 10 70 3a 5e 48 53 be
       -0.00886353 -0.008936271 0.0009157752 -0.20633075
0000f0 da 6b 9c 3e d3 8c 3c 3e 40 03 0a bc 47 30 8f be
       0.30551034 0.18413095 -0.008423626 -0.2796652
000100 fa ad f6 3c c7 c6 74 41 ce 4a c3 be 18 03 35 bd
       0.030112255 15.29853 -0.3814301 -0.044192404
000110 58 0d 1c 3d f0 0c 41 c0 3f df 80 bf d8 cc 36 3e
       0.038098663 -3.0164146 -1.0068129 0.17851579
000120 c2 8a dc bf 5b d8 d0 be ad ac 8c 3f 4b 92 f8 3e
       -1.7229846 -0.40790066 1.0990196 0.48549113
000130 5f 60 14 bc bd 1e 1a 3d c2 57 d6 bd 5f b1 e9 bd
       -0.00905618 0.03762697 -0.10465957 -0.11410784
000140 73 9a be bd 4d bf ec be 99 9e 8e bf 15 58 06 3e
       -0.093068026 -0.462397 -1.114215 0.13119538
000150 09 28 a0 3e 02 7f e3 bf 1c 05 06 3d 9e 63 39 bd
       0.31280544 -1.7773135 0.032719716 -0.045261018
000160 92 fe 4e 3e bb ed be 3e 2b f3 a8 bb 85 92 8b 3d
       0.20214298 0.3729075 -0.005155941 0.06815056
000170 dd e7 a6 be 20 dc 9c 3f b2 28 58 be 43 ee aa 3c
       -0.32598773 1.2254677 -0.21109274 0.020865565
000180 06 32 a1 bf 27 16 02 bd 89 f1 c3 bf 79 06 11 3f
       -1.2593391 -0.031759407 -1.5308086 0.566505
000190 e2 c1 b3 3c c1 0d b4 be 07 65 45 3f d5 70 fb 3f
       0.021943036 -0.35166743 0.7710728 1.9643809
0001a0 5d 79 28 c0 17 10 6f bf 86 12 77 be 64 ad 7b 3f
       -2.6324074 -0.93383926 -0.2412816 0.9831145
0001b0 c8 02 1f bf 3e e5 2b 3e fb 26 32 be 7d 29 86 be
       -0.6211362 0.16786668 -0.17397682 -0.26203528
0001c0 37 62 d7 be 30 24 e5 3c aa 2a 84 bd da 25 0d bf
       -0.4206712 0.027971357 -0.0645345 -0.5513588
0001d0 db 04 42 bd b8 d7 e2 3f 4d da 6e 3d 8f 86 8a be
       -0.04736791 1.7722082 0.058313657 -0.27055785
0001e0 44 4d 15 be 44 08 ce be 79 9f 68 3e 32 80 f3 3d
       -0.14580256 -0.4024068 0.22717084 0.11889686
0001f0 09 4d 37 be f1 cd 12 bf ef 33 ed 3f eb db 15 3f
       -0.1790048 -0.5734549 1.8531474 0.58538693
000200 a0 7c ba 3c e0 b0 ec bf 62 74 14 bd f7 d7 48 40
       0.022764504 -1.8491478 -0.036243804 3.1381814
000210 77 e7 54 be 99 73 18 be aa d5 58 be f2 eb ed bd
       -0.20791422 -0.14887847 -0.21175256 -0.116172686
000220 31 78 ad 3f 70 2c 24 40 42 fb 87 bd 06 ba 76 3e
       1.3552305 2.5652122 -0.066397205 0.240944
000230 4b 3b 5e 3e bb a9 01 be 8a 13 0d bd 6c 51 27 3e
       0.21702306 -0.12662403 -0.034442462 0.16339654
000240 e3 c2 90 be 03 c2 c1 bd 85 b1 ec b9 db bf 67 3e
       -0.28273687 -0.09460833 -0.0004514569 0.22631781
000250 59 ae 25 3e d4 a1 94 3f d8 6c c7 bf 9f 22 14 be
       0.1617979 1.1611886 -1.5580091 -0.14466332
000260 57 92 19 3e aa 83 60 3e 22 87 f4 3d 25 ab bc bd
       0.1499723 0.21925226 0.11939837 -0.09212331
000270 38 d3 b1 3d 74 8f 13 3e 3b bc e4 3d 97 f7 55 3f
       0.08682865 0.14410192 0.111687146 0.8358092
000280 8a e1 dc be bd ba ce 3c 23 b9 5c bf d0 74 3f bd
       -0.43140823 0.025235528 -0.86219996 -0.04674226
000290 df ea 0e c1 80 ad 46 bd 21 3a 6c bd 22 ec 36 3d
       -8.932342 -0.048505306 -0.057672624 0.044658788
0002a0 cb 2a 60 be 64 14 1f 40 65 86 5c 40 a7 f0 4e be
       -0.21891324 2.4856195 3.4457028 -0.20208989
0002b0 98 5a a6 3b e5 3e 94 3d 1c f3 23 be 23 c0 e5 bd
       0.0050767176 0.07238559 -0.16010708 -0.11218288
0002c0 3d 0d 64 3e c5 1e 29 be 05 a2 98 be 3b e4 73 bd
       0.22270675 -0.16515644 -0.2981111 -0.05954383
0002d0 45 a2 de 3d 6d db 24 3f 24 1e 32 bf 27 a5 b9 bf
       0.10870794 0.6439732 -0.6957724 -1.4503525
0002e0 4d d2 cd 3e 05 d2 0a 3e 27 84 66 bb c7 64 2e be
       0.4019951 0.13556679 -0.0035173984 -0.17030631
0002f0 75 4b 4d be b8 13 dc 3c d0 e8 00 be ad 18 2f bf
       -0.20048316 0.026864871 -0.12588811 -0.6839703
000300 bc 6e ee 3f 37 7a 97 be 8d 75 8b bc b9 2d f0 bf
       1.8627543 -0.2958543 -0.017023826 -1.8763953
000310 0d ef b3 3c b3 74 5f 40 75 06 82 be 68 07 c8 3e
       0.021964574 3.4914978 -0.2539555 0.3906815
000320 8f 46 1e 3f 23 56 aa 3f bf a2 b9 3f 5d 2b 63 3f
       0.61826414 1.3307537 1.4502791 0.8873804
000330 0b 75 70 3f 7c 6f 17 3d f9 31 e8 3e 8c ba 1e be
       0.93928593 0.036971554 0.45350626 -0.1550085
000340 34 12 3e 3e 2e 29 be 3d e0 6c 57 3e 29 78 71 3e
       0.18561631 0.09285198 0.21037626 0.23580994
000350 2f 7c 61 3e 93 88 eb 3e 9e 1b a7 3d 22 3a d3 bd
       0.22020029 0.46002635 0.081595644 -0.10313822
000360 d4 ba 61 bf 1e 17 a6 3e 04 04 0e 3e 44 09 33 3e
       -0.881757 0.32439512 0.1386872 0.17484003
000370 46 83 12 3d 6d ee 45 3e 0a 28 45 3d 66 15 80 be
       0.035769723 0.19329233 0.048133887 -0.25016326
000380 d4 02 7d be c9 54 05 40 ee 8a fc bc dd b8 98 bc
       -0.2470811 2.0832999 -0.030827966 -0.018642837
000390 d4 db 07 c0 a7 b7 76 bc ff 12 7b 40 65 84 86 be
       -2.1227922 -0.015058435 3.9230344 -0.26272884
0003a0 b0 07 d9 be fb 2c 68 be 7c 15 82 3f 15 5a 51 c0
       -0.42388678 -0.22673409 1.0162807 -3.2711232
0003b0 a9 44 16 c0 80 7a b2 bf 53 f7 53 3c 67 fe c6 bd
       -2.3479407 -1.3943634 0.012937385 -0.09716492
0003c0 51 5c 0d bf 59 c0 0b 3f 4b 65 52 be 05 2f f8 3d
       -0.5521899 0.54590374 -0.20546453 0.12118343
0003d0 00 8f 8b 3e 56 30 32 3e 5b fb f7 3e 35 fc 22 3e
       0.27257538 0.17401251 0.48433957 0.15916522
0003e0 9d b8 0d c0 82 01 62 3f 91 5a d4 3e 6c 37 c4 bc
       -2.214393 0.8828355 0.41475347 -0.023952208
0003f0 50 46 5a 3d a7 b6 a5 3e 12 5d 9a 3e ff 5a 7a 3e
       0.05328971 0.32365915 0.30149132 0.24448775

pre_layer.bias f4 [400]
000000 ab da 15 c0 5a 54 b8 be 57 9f 86 bf 53 ec e6 bf
       -2.3414714 -0.36001855 -1.0517377 -1.804087
000010 0e c5 80 bf b3 c8 00 c0 a6 af 10 c0 79 ba 17 c0
       -1.0060136 -2.0122497 -2.2607207 -2.3707564
000020 c5 15 d1 bf f5 bf cd bf 33 1b b5 bf 7a 02 f5 bf
       -1.6334769 -1.6074206 -1.4148926 -1.9141381
000030 7e 01 e5 bf ac b7 c2 bf f8 a0 d6 bf 10 84 dc bf
       -1.789108 -1.5212302 -1.6767874 -1.7227802
000040 66 c7 0d c0 96 8e 08 c0 4e d3 07 c0 60 70 b2 bf
       -2.2152953 -2.1337028 -2.122272 -1.3940544
000050 ad a0 ce bf 73 b5 d2 bf 21 9b 05 c0 36 18 31 c0
       -1.6142784 -1.6461624 -2.0875933 -2.7671027
000060 0f e4 f9 bf 36 d1 d7 bf 23 51 e7 bf b5 a3 fa bf
       -1.9522723 -1.6860721 -1.8071636 -1.958121
000070 93 19 06 c0 95 61 80 bf 0b d6 c9 bf c0 48 77 bf
       -2.095311 -1.002978 -1.5768446 -0.9659538
000080 12 ae d5 bf 54 94 1f c0 95 e2 d1 bf 1e 11 19 c0
       -1.6693747 -2.4934282 -1.6397272 -2.3916698
000090 d7 a6 b1 bf 04 f0 ce bf 25 99 f1 bf 47 64 00 c0
       -1.387904 -1.6166997 -1.8874861 -2.0061204
0000a0 f2 88 6e 3f d3 55 de bf 5b 4b 07 c0 cd 51 00 c0
       0.9317771 -1.7369941 -2.1139743 -2.0049927
0000b0 b8 71 f9 bf cb 7f 13 40 58 47 a7 bf 15 53 eb bf
       -1.9487829 2.3046749 -1.3068647 -1.838473
0000c0 22 58 b7 bf aa 35 11 c0 f0 b9 15 c0 e3 41 85 bf
       -1.4323771 -2.2689004 -2.3394737 -1.0410732
0000d0 cb f8 03 c0 89 48 01 c0 5c 95 2d c0 74 9c 08 3f
       -2.06206 -2.0200522 -2.7122412 0.5336373
0000e0 ab 64 29 c0 44 b9 1a c0 9d fe fc bf e7 d9 7f bf
       -2.6467693 -2.4175577 -1.9765202 -0.9994187
0000f0 90 06 b2 bf 2d ca 06 c0 4e 46 d8 bf c7 66 ed bf
       -1.3908253 -2.1060898 -1.6896455 -1.854699
000100 9c c7 da bf d1 91 dd bf 8e 6e 28 c0 f1 ae d4 bf
       -1.7092166 -1.7310125 -2.6317477 -1.6615888
000110 73 da 72 bf 0d 9e 19 c0 18 ee b7 bf 51 30 e9 bf
       -0.9486458 -2.4002717 -1.4369535 -1.821787
000120 b2 6c cb bf 79 67 a9 bf d0 77 08 c0 eb e5 f4 bf
       -1.5892546 -1.3234702 -2.1323128 -1.9132665
000130 56 a0 b9 bf 6d e6 1f c0 1d 2a e9 bf 88 d3 ca bf
       -1.4502056 -2.498439 -1.8215977 -1.5845804
000140 de 83 93 bf c1 58 e5 bf c6 a4 f6 bf c0 0b 09 c0
       -1.1524618 -1.791771 -1.9269035 -2.1413422
000150 00 cd f3 bf 95 cd db bf ca 82 37 c0 a9 54 06 c0
       -1.9046936 -1.7172114 -2.8673577 -2.0989172
000160 8a fa 53 bf 6e 5c fd bf 6f f3 c4 bf f1 a0 f4 bf
       -0.8280417 -1.9793832 -1.538679 -1.9111615
000170 03 30 eb bf 2e d1 c8 bf df 14 b1 bf 80 10 03 c0
       -1.8374027 -1.5688837 -1.3834494 -2.047882
000180 04 df 7b bf 2a 8e 7a bf 03 9b 04 c0 ca a9 b8 bf
       -0.9838717 -0.97873175 -2.0719612 -1.4426816
000190 6f 19 b9 bf ae b9 b3 bf a8 2c 18 c0 95 bf ae bf
       -1.4460887 -1.404104 -2.3777256 -1.3652216
0001a0 8b bc 15 c0 68 11 0c c0 ac b7 87 bf e1 05 ae bf
       -2.3396327 -2.1885624 -1.0602927 -1.3595544
0001b0 6e 2b a3 bf d3 c1 e7 bf 3c 33 e0 bf 64 0f d4 bf
       -1.2747629 -1.8106025 -1.7515635 -1.6567197
0001c0 60 57 02 c0 bb ce c1 bf 54 27 0c c0 dd b4 a9 bf
       -2.036583 -1.5141214 -2.1899004 -1.325832
0001d0 2f 4a e9 bf 9a 26 07 c0 ec bd e9 bf bb 20 13 c0
       -1.8225764 -2.111731 -1.8261085 -2.2988727
0001e0 e3 a0 63 bf 79 c5 d1 bf 05 41 cb bf 65 e2 f9 bf
       -0.8891737 -1.6388389 -1.5879217 -1.9522215
0001f0 43 ab d8 bf 36 cb c3 bf 4c 52 a6 bf 69 16 f5 bf
       -1.6927265 -1.529639 -1.2993865 -1.9147464
000200 21 7f d1 bf 78 68 13 c0 38 e5 c7 bf 6f 6c af bf
       -1.6366922 -2.3032513 -1.5616827 -1.3704966
000210 b0 94 9f bf 3b c0 be bf 0b 3c fb bf b8 ec 97 3e
       -1.2467251 -1.4902414 -1.9627699 0.2967279
000220 a6 6d c2 bf 6a 21 f5 bf cf fc bf bf ad 92 f2 bf
       -1.5189712 -1.9150822 -1.4999026 -1.8951012
000230 a6 fe dc bf e6 eb d6 bf 59 a0 bb bf 4f 05 d7 bf
       -1.7265213 -1.679074 -1.4658309 -1.6798495
000240 37 ed eb bf 57 13 ac bf 8d 65 e6 bf e5 4a e7 bf
       -1.8431767 -1.3443402 -1.7999741 -1.8069731
000250 ba 3c df bf e7 c6 05 c0 96 88 db bf 90 24 c4 bf
       -1.7440407 -2.090265 -1.7151058 -1.5323658
000260 12 6b bd bf 51 ae e6 bf 02 f0 d9 bf 7f 21 13 c0
       -1.47983 -1.8021947 -1.702637 -2.2989194
000270 cc 27 84 bf 42 d0 0e c0 05 91 e5 bf 59 c2 07 c0
       -1.0324645 -2.231461 -1.7934881 -2.121237
000280 52 be dd bf d1 a6 22 c0 c8 78 9e bf 43 c1 fd be
       -1.7323706 -2.5414317 -1.238061 -0.4956151
000290 02 f2 f8 bf 9a a6 a1 bf dd 51 97 bf 4e 52 e6 bf
       -1.9448855 -1.2628968 -1.1821858 -1.7993867
0002a0 ce 30 7c bf 2d 25 00 c0 af 50 93 bf 47 3e 82 bf
       -0.9851197 -2.002269 -1.1508998 -1.0175256
0002b0 4e b2 09 c0 d6 2e ff bf 77 4d 18 c0 7d 52 b1 bf
       -2.1515079 -1.9936168 -2.379728 -1.3853298
0002c0 09 68 fc bf 88 cb c0 bf aa f8 00 c0 5c 36 08 c0
       -1.9719249 -1.5062113 -2.0151772 -2.1283178
0002d0 db 03 d7 bf 76 76 06 c0 e2 9e 09 c0 e6 24 23 c0
       -1.6798052 -2.1009803 -2.1503224 -2.549127
0002e0 27 3b 9f bf 79 0a ce bf 1e 88 1c c0 4c 12 c3 bf
       -1.2439927 -1.6096946 -2.445808 -1.5239959
0002f0 11 e1 97 bf 1a 2b c1 bf ce 16 10 c0 89 84 de bf
       -1.186556 -1.5091279 -2.251392 -1.7384197
000300 bf 3a 02 c0 e3 1a 9c bf ea 92 26 c0 a7 52 ab bf
       -2.0348356 -1.2195705 -2.602717 -1.3384598
000310 c3 36 3c c0 ac 3c 10 c0 74 2a 5c bf c2 49 10 c0
       -2.9408424 -2.253703 -0.8600228 -2.2545018
000320 a9 12 31 c0 27 3b cd bf 9a f0 cf bf 1f 7b 82 bf
       -2.766764 -1.6033677 -1.6245301 -1.0193824
000330 12 67 03 c0 e4 b9 f1 bf 40 35 f3 bf 8a 78 f6 bf
       -2.053166 -1.8884854 -1.9000626 -1.9255536
000340 33 e7 a7 bf e1 69 c8 bf c1 00 fe bf 3c be cc bf
       -1.3117431 -1.5657312 -1.984398 -1.5995555
000350 72 72 0e c0 b3 7a d8 bf be 74 b1 bf 8b 23 21 c0
       -2.2257352 -1.6912445 -1.3863752 -2.5177944
000360 19 81 e2 bf 62 3c 1d 3e 9a 97 ec bf 22 df 0a c0
       -1.7695647 0.15355065 -1.8483765 -2.169869
000370 cb 2e e0 bf ef cb 24 c0 42 4a dd bf 7a 80 c7 bf
       -1.751428 -2.574947 -1.7288287 -1.5586083
000380 19 15 8e bf ff f0 18 c0 dc df fb bf 24 90 d8 bf
       -1.1100188 -2.3897092 -1.9677691 -1.6918988
000390 a7 bd 09 c0 fb cb 8c bf ec df 1b c0 9a 70 d9 bf
       -2.1522005 -1.099975 -2.435542 -1.6987488
0003a0 1d c9 b2 bf a4 85 1e c0 be 1c fd bf 85 61 14 c0
       -1.3967625 -2.4769068 -1.9774396 -2.3184521
0003b0 e1 a9 01 c0 35 a4 ff bf 40 5b 92 bf 12 91 c9 bf
       -2.0259936 -1.9971987 -1.1434097 -1.5747397
0003c0 f9 aa 8b bf 2e 25 c8 bf 9a dc c3 bf 14 00 d1 bf
       -1.0911552 -1.5636346 -1.5301697 -1.6328149
0003d0 6a 43 03 c0 c9 42 cb bf bb c2 b7 bf c9 67 d5 bf
       -2.0509896 -1.5879756 -1.4356302 -1.6672298
0003e0 97 58 c7 bf 88 2a 20 c0 1b 1d c5 bf 8d 6a bc bf
       -1.557391 -2.502596 -1.5399507 -1.4720017
0003f0 f9 12 0f c0 a4 a9 aa bf 3a 9e aa bf 91 1d d1 bf
       -2.235533 -1.333302 -1.3329537 -1.6337148

input_layer.weight f4 [256, 404]
000000 bf 3f b5 3b 72 72 ee bd 9d 9d 08 bd 34 73 63 bd
       0.005531281 -0.116429225 -0.033353437 -0.055529788
000010 28 fc cb bc 01 d9 03 be 84 20 fb bc 65 94 3f bd
       -0.02490051 -0.12875749 -0.030655153 -0.04677238
000020 44 cb 10 be 57 51 df bc 0f 5d c5 bd 47 6e 3c bb
       -0.1414004 -0.027260466 -0.0963689 -0.0028752254
000030 36 34 37 bd 78 40 4a bd 47 af bf 3d 22 0b 2c 3d
       -0.044727527 -0.04937789 0.093596034 0.042002805
000040 d5 e6 f0 bd 52 b4 22 3d ce 41 0c 3c 52 3b be bd
       -0.11762778 0.039722748 0.008560611 -0.09288658
000050 e6 6a df bd c6 d4 1d 3e 19 91 3f bd 2f cb fb bd
       -0.10909061 0.15413198 -0.046769235 -0.122946136
000060 5b af 44 3c a9 57 11 bc 05 1d b5 3b 81 2e 9c bd
       0.012004699 -0.0088709975 0.005527141 -0.076260574
000070 ba 91 bb bd 4c b8 3c bd 9d 59 fe bc cf 00 10 be
       -0.091586545 -0.046074197 -0.03104859 -0.14062808
000080 9a 5f cb bd 36 a5 43 3d 65 b1 0a bd 39 21 34 bd
       -0.09930344 0.04776498 -0.033860583 -0.043976996
000090 d6 ba e0 bd b6 43 c0 bc c4 3a 26 3d 58 8a 5e be
       -0.10973136 -0.023469787 0.040583387 -0.21732461
0000a0 d2 4d f7 bd 31 ae 96 3c f6 0a ad bb 5c 0f 2d bd
       -0.1207539 0.018393608 -0.0052808477 -0.042250976
0000b0 6d 53 28 bd fa 10 99 bd 04 8b 73 bc b9 a8 b8 bd
       -0.041095186 -0.07473941 -0.014864687 -0.09016556
0000c0 84 7a 38 3c 22 04 3c bd 83 8e cc bc ac 21 73 3d
       0.011259679 -0.04590238 -0.024970299 0.059358284
0000d0 ee d7 d3 3d a8 b4 a2 bd cb 57 be 3d 8a 3a 33 be
       0.1034392 -0.07944614 0.09294089 -0.175028
0000e0 27 d5 62 ba ff 07 25 be 3e e3 4d bc 1f 32 dc bd
       -0.0008652978 -0.16116332 -0.012566386 -0.10751747
0000f0 df 05 5c be 06 ea e9 bd 52 0e bd bd 4e 80 67 bd
       -0.21486615 -0.114215896 -0.09231247 -0.056518845
000100 58 00 06 be 80 49 f1 bd d5 6e 77 bd 3e b7 7e bd
       -0.13086069 -0.11781597 -0.060408432 -0.062186472
000110 5f f4 6c bd 8a 34 69 bd 83 e8 6e bd 2e 3f c6 bc
       -0.057850238 -0.05693487 -0.05832721 -0.024200048
000120 49 d9 30 be 8b 51 d4 3b bc b8 bd 3d d5 c6 c8 bd
       -0.17270388 0.0064794472 0.09263751 -0.09803549
000130 ae d7 aa bd 09 70 b3 bd c1 24 33 bd c6 73 b6 bd
       -0.08341919 -0.087616034 -0.043736223 -0.08908801
000140 6d d3 d1 3c 36 ad 90 be 36 fd 12 3c c3 a1 42 be
       0.025613511 -0.2825715 0.008971503 -0.1900702
000150 09 b5 e0 3c fa a0 d9 bc 2a 8b af bd 67 5d 30 bc
       0.027430074 -0.026566017 -0.08571465 -0.010764456
000160 fa 95 0b be 55 45 97 bc 2d 9d 43 bd 9d 89 09 3d
       -0.1363143 -0.018465677 -0.047757316 0.033578504
000170 5f c4 0c be 7e 90 70 bd 37 7b ee bc 73 fd f1 bd
       -0.13746785 -0.05873155 -0.029111488 -0.1181592
000180 d2 04 a8 bc 18 24 af 3c a1 00 0e be 7a a8 39 bb
       -0.020510111 0.021379516 -0.13867427 -0.002832918
000190 30 5d a0 3d 93 1f 83 3c bd 52 20 3d 29 ea 51 bd
       0.07830274 0.016006267 0.039141405 -0.051248703
0001a0 74 98 09 be f5 57 b7 3c 2b a9 92 bd 67 f1 9e bd
       -0.13437063 0.022380808 -0.071611725 -0.077608876
0001b0 97 d1 02 bd 45 23 cc bc 26 8c ad bd 48 97 83 be
       -0.03193816 -0.024919162 -0.08473997 -0.25701356
0001c0 52 80 3f bd 48 8a 2b bd da 84 96 bd 67 f7 cf bc
       -0.046753235 -0.041879922 -0.07349558 -0.025386525
0001d0 73 ef 38 3d 7f 47 c9 bd 20 f0 20 be b7 47 c4 bc
       0.04515023 -0.0982809 -0.157166 -0.023959978
0001e0 0d c8 09 be be 92 41 bd a3 4b aa 3a 38 15 21 be
       -0.1345522 -0.047259085 0.0012992512 -0.1573075
0001f0 2b 71 f5 3b e1 55 35 be 48 df 4b be a8 77 28 bd
       0.0074902973 -0.17708541 -0.19909394 -0.041129738
000200 02 f7 bb 3c ec fd 82 bd a3 b7 63 bd ea 78 86 be
       0.022944931 -0.06396088 -0.05559505 -0.26264125
000210 6e 8b 0a bd 10 8f f8 bc 19 a9 04 3a b9 2a b8 bd
       -0.033824377 -0.030341655 0.0005060598 -0.08992524
000220 9f 1a f1 bd 8e e3 37 be 89 ef 93 bd cb 43 38 bd
       -0.11772656 -0.17957899 -0.07223422 -0.044986527
000230 70 ba c3 3d 94 0e f4 bd 1d bb 31 bd a0 91 20 be
       0.095570445 -0.11916843 -0.043391336 -0.15680552
000240 3b 2e 7f be a4 99 f8 bc c5 fe 88 bd c9 7c 89 be
       -0.2491998 -0.030346699 -0.066892184 -0.26853016
000250 97 68 35 be 6b 16 9e 3c cc fb 69 be fc 75 94 bd
       -0.17715679 0.0192978 -0.22849959 -0.07249066
000260 71 f0 d5 bc b0 42 90 bd 8e b1 80 be 76 b7 00 3d
       -0.026115628 -0.0704397 -0.25135463 0.031424962
000270 ba b1 96 bd 49 c3 ac bc 07 0b 80 bd 1f 98 f5 bc
       -0.073581174 -0.021089213 -0.06252103 -0.029979764
000280 41 b2 9f bd e1 45 cc 3d e3 62 97 3a 0c 4c 2e bd
       -0.07797671 0.09974266 0.0011549856 -0.042552993
000290 89 b2 b5 bd 85 e0 2f bc 66 2a 62 bd a7 ac 85 bc
       -0.088719435 -0.010734682 -0.055216216 -0.016317679
0002a0 33 5c a5 be 57 13 44 bd d6 35 25 3c 0d 9c 15 be
       -0.32296905 -0.047870006 0.010083636 -0.1461031
0002b0 81 ed 8b 3c eb 1b 92 3a fe b8 86 3d a2 49 a6 bd
       0.017081024 0.0011147236 0.06578253 -0.08119513
0002c0 e6 41 4a bd 7c b3 36 bd de 47 28 bd 5c 2d 54 3b
       -0.049379252 -0.044604763 -0.041084163 0.003237567
0002d0 5c 28 ee bb 2f 6d a6 bd 82 fb d8 bd d5 84 9f 3d
       -0.007267995 -0.08126294 -0.10594846 0.077890076
0002e0 21 8b e7 bc 96 e2 6a 3d 27 d5 ac bd 5a 42 07 bd
       -0.028264584 0.057344995 -0.08439093 -0.033022262
0002f0 80 fb 17 be 53 b4 a4 bb e0 96 a2 bd d6 88 f9 bd
       -0.14842033 -0.005026379 -0.07938933 -0.121843025
000300 97 39 b9 bb 47 ed 86 bc df e4 1e bc b9 34 4b be
       -0.005652617 -0.016470565 -0.009698122 -0.19844331
000310 77 00 40 3d 9d 5b 19 bd 14 8e 5b bd 26 de e8 bc
       0.046875443 -0.037440885 -0.053602293 -0.028426241
000320 95 30 0b bd dc 16 62 be af 43 82 bd 6f 54 4e bd
       -0.03398188 -0.22079033 -0.06360566 -0.05037349
000330 91 ac a5 bd 41 b4 c3 bc 23 76 ca bd 5a 7c 35 bd
       -0.08089555 -0.023889663 -0.09885814 -0.044308044
000340 e5 2b 5f bd c0 12 0f 3b f8 25 bb 3c 54 87 37 bd
       -0.05448522 0.0021831244 0.022845253 -0.044806793
000350 91 0d 15 bd 85 01 2a be 67 0d 0f be 9c 7a d8 bc
       -0.03638989 -0.16602142 -0.13969956 -0.026425652
000360 a8 24 36 bd a6 19 e6 3c 9e a4 85 bd b7 38 77 be
       -0.044468552 0.028088402 -0.06525539 -0.24142729
000370 79 27 98 3c 4d 81 f3 3b a4 a2 22 bd 5c 95 90 bc
       0.01857351 0.0074311853 -0.039705887 -0.017649345
000380 2d 2f 5f bd 85 03 ea 3c 88 ee 8c bd 75 20 93 bd
       -0.05448835 0.028566131 -0.06881434 -0.07183925
000390 61 b9 82 bd 1f 66 19 be 3f f8 4a 3d e8 76 06 bc
       -0.063830145 -0.14980362 0.049553152 -0.00820706
0003a0 56 85 23 bc 29 7b b0 bc 0f 18 48 be 3f 68 d5 bb
       -0.00998052 -0.021543102 -0.19540428 -0.0065126712
0003b0 11 84 93 bc ec ff b3 bd c4 ca d7 bd 70 56 83 be
       -0.01800731 -0.087890476 -0.10536721 -0.25651884
0003c0 e9 32 2c be 8c f2 16 be 15 c5 3b be 0d 72 5f bd
       -0.16816296 -0.14740962 -0.183369 -0.054552127
0003d0 c1 50 9e 3b c2 7c e7 bd 5c 3a 48 bd 5b 11 09 be
       0.004831404 -0.113030925 -0.04888378 -0.13385527
0003e0 a0 4f e7 bc 87 0f 1c 3d 9e 3e 09 3c 17 fd 64 3c
       -0.02823621 0.038100746 0.0083767455 0.013976357
0003f0 f9 ee 19 3c f2 82 a9 3d ac 61 81 be c4 5e 49 3d
       0.009395354 0.08276929 -0.2526983 0.04916264

input_layer.bias f4 [256]
000000 b9 63 cb bc 4c 0b 17 c0 5c 7a 25 40 62 59 ce 3e
       -0.024827825 -2.3600645 2.5855932 0.4030257
000010 9e 61 34 bf 45 50 93 bd 0c fe d4 bf 56 42 8f be
       -0.7046145 -0.071930446 -1.6640029 -0.27980298
000020 36 19 cf bc fc 8e 33 bf 68 a7 a4 bd d3 14 d3 bd
       -0.025280576 -0.7014005 -0.08039743 -0.10306706
000030 64 56 fc 3e ca 90 36 3f 97 94 02 3e 74 9b 52 bd
       0.4928466 0.7131468 0.12751995 -0.051417783
000040 65 75 a9 be 8b 86 89 bd a8 b4 d7 3f 21 6e 1e be
       -0.33097377 -0.06715115 1.6852007 -0.15471698
000050 3d e8 7a 3f 8d 8c 2e 3f 03 5a 51 3f c6 60 03 40
       0.9801062 0.68183213 0.8177797 2.0527816
000060 da 24 be 3f 85 ea c0 be 7c a2 e1 bc db d2 9c 3f
       1.4854996 -0.37678924 -0.027543299 1.2251848
000070 cf 45 80 bf 3f 6f 04 3e 08 3c 5a 3e e2 74 9e bc
       -1.0021304 0.12933062 0.21311963 -0.019342843
000080 2e e7 9c bf 78 34 57 3f 4a 9d 82 be 1b 9d 0e be
       -1.225805 0.84064436 -0.25510627 -0.13927118
000090 ed 00 16 be dd 1d 01 be 83 80 c8 be a4 ae 8f 3f
       -0.1464879 -0.12609048 -0.39160547 1.1225171
0000a0 dc b7 69 3e 0b 0b 5a 3f 3b c8 2b be 69 0c c9 be
       0.22824043 0.851731 -0.167756 -0.3926728
0000b0 c6 93 11 3f 38 2a 9f 40 82 be 13 be 57 f2 1e 40
       0.5686611 4.9739037 -0.14428142 2.4835413
0000c0 dc 9a 3b bf 96 64 59 3f 39 a2 49 bf 77 a5 6c bf
       -0.7328317 0.84919107 -0.7876316 -0.9243998
0000d0 e6 c5 0b be 96 7f ac 3d 2e bc da bd 82 24 2a be
       -0.13649711 0.084227726 -0.10680424 -0.16615489
0000e0 a5 67 1b be 80 47 01 3f 10 f0 05 3f f4 a2 c6 bd
       -0.15176256 0.50499725 0.5231943 -0.096990496
0000f0 61 96 14 be b8 bb 9e 3e 1c 4b 25 3f 42 9f db 3e
       -0.1451049 0.31002593 0.6456773 0.42894942
000100 3a 1e 36 3f d8 34 f9 bc de d5 c9 bd eb 8e 5f 3f
       0.7113987 -0.030420706 -0.09855245 0.8732745
000110 7d 1c 28 bf 5f 1d ee bd 22 d8 0d 3f 5e 31 93 bd
       -0.6566847 -0.11626696 0.5540792 -0.071871504
000120 e2 5a 95 bd 85 27 1c be 5d 04 63 c0 1a 2d bb be
       -0.07292725 -0.1524945 -3.5471413 -0.36557847
000130 e7 3e 2c 3f 9a cc 87 40 50 6e f2 bd b2 ff 1e bd
       0.6728348 4.243726 -0.11837447 -0.03881807
000140 1e bc 19 3f 03 73 ac bf eb d0 af be cd d5 e8 3f
       0.6005267 -1.3472599 -0.3433908 1.8190247
000150 fc 07 25 be c9 41 ca bd 7d 98 8b 40 97 a0 e0 bd
       -0.16116327 -0.09875829 4.3623643 -0.1096813
000160 93 1c 50 be e5 ea 88 40 ff 58 cf bd 28 8e 8b 3f
       -0.203234 4.2786736 -0.101243965 1.0902758
000170 3c f4 39 3f 9b 49 f2 3f 24 ae 3c 3f 90 01 b5 bc
       0.726383 1.8928713 0.7370322 -0.022095472
000180 77 5f 6b 40 70 e9 13 40 d6 2a 55 bf ca 19 a4 bd
       3.6777017 2.311123 -0.8326849 -0.080127314
000190 06 7b 4c bf 0d 2b b6 bd 03 bb e1 bf 5f 90 79 3f
       -0.7987522 -0.0889493 -1.7635196 0.9748592
0001a0 55 8e 30 be 2c 9e e3 3e 5e dc 55 bd 27 7a f3 bd
       -0.17241795 0.44456613 -0.05221211 -0.11888533
0001b0 38 09 04 bf 74 1b 5a 3f 2f 0c 07 bf e4 2b 0a bd
       -0.51576567 0.8519814 -0.52752966 -0.033733264
0001c0 a9 db 11 bf 83 b2 26 3f 58 c8 14 be 2d 31 5b 3e
       -0.569758 0.6511614 -0.1452955 0.21405478
0001d0 de 87 e0 bf 73 d6 dc bd 83 ce 0e bf c9 34 05 bb
       -1.7541463 -0.107830904 -0.5578386 -0.0020325652
0001e0 50 46 a3 3f b9 33 e5 3f 7e 82 9e bd 30 8a c8 be
       1.2755833 1.790641 -0.07739733 -0.3916793
0001f0 e6 92 dc be 7c 38 9e 3e 16 c8 18 bd 20 d5 78 bf
       -0.43080825 0.3090247 -0.03730019 -0.972002
000200 10 f3 02 be ba a3 fb 3f ed 6f 92 bd cf 7f 66 bd
       -0.12788033 1.965934 -0.071502544 -0.05627423
000210 0d 42 50 bd dd d6 a5 be 43 68 91 3f 8c 59 e4 bf
       -0.05084424 -0.3239049 1.1359943 -1.7839828
000220 16 1b b9 3f dc 93 d3 bd 37 23 6b 3f 5e 2c 37 bf
       1.4461391 -0.10330936 0.9185061 -0.71552074
000230 e3 1e e8 be a8 ca 1b 3f 45 62 8f 3e a2 11 c5 bd
       -0.45336065 0.60856104 0.2800466 -0.09622504
000240 8e d4 60 bf 87 65 d1 bd 48 19 0b 3f 78 80 e6 bd
       -0.8782433 -0.10224443 0.5433545 -0.11254972
000250 9a 93 b1 3f c7 34 00 bf 7c e7 b8 be 32 46 d8 bd
       1.387317 -0.5008053 -0.3611411 -0.10560264
000260 c1 f1 4c 3f db dd 7d 3f d7 14 3d be 7d f1 8d bf
       0.8005639 0.9916665 -0.18464981 -1.1089321
000270 c3 4a 95 bd 40 76 1c 3f a6 75 0e bf e8 02 fb 3e
       -0.0728965 0.61117935 -0.5564827 0.49025655
000280 fe e7 de 3e 53 53 92 bc 48 86 46 bd 16 d1 ed 3f
       0.4353637 -0.017861998 -0.048467904 1.8579433
000290 a8 57 0c 3e 78 40 20 be b7 ff 2d bf 91 64 f4 3e
       0.13705313 -0.15649593 -0.67968315 0.47732976
0002a0 b4 4c af be 35 84 40 bd f6 9f 35 bb 31 d8 f2 bd
       -0.34238207 -0.047001082 -0.0027713752 -0.118576415
0002b0 b3 06 fe be 3f fd 13 3f 10 f1 cf be 5a a5 66 bf
       -0.49614486 0.578083 -0.40613604 -0.90096056
0002c0 38 62 f3 bc c1 6e c2 3f c4 0a 32 3f e6 b6 a4 3f
       -0.02970992 1.519005 0.6954768 1.2868316
0002d0 1d 00 04 3f a7 07 c1 bd 52 d6 2b 40 cc 79 a1 bd
       0.5156267 -0.09425288 2.684956 -0.07884559
0002e0 c3 24 78 3e f1 39 0d bf 0f fd cc 3e 0f 58 f4 be
       0.24232773 -0.55166537 0.40036818 -0.47723433
0002f0 60 2e e3 3e 23 2e 01 3f ee d4 82 3f 32 60 c5 bd
       0.4437132 0.50461024 1.0221231 -0.096374884
000300 5c d7 5e be c8 72 cb be 65 7e bf be 48 48 e9 be
       -0.2176184 -0.3973601 -0.3740112 -0.4556296
000310 1d 94 7e bf fb 71 e3 3e 61 6c 20 bf 6d e1 02 be
       -0.9944475 0.44422898 -0.62665373 -0.12781306
000320 66 a4 d2 bf 84 19 82 bd 36 26 57 3e 15 49 27 3f
       -1.645642 -0.06352523 0.2101067 0.6534589
000330 39 37 66 bf 79 cc 98 bd 81 90 56 bf 87 35 f3 be
       -0.89928013 -0.07460875 -0.83814245 -0.47501776
000340 6d 4e 2b bf ee bf 67 bd f2 01 85 3f a2 3d b3 bd
       -0.66916543 -0.056579523 1.0391219 -0.0875199
000350 3c dd 06 bf ba 98 c6 be 7d b1 32 40 2c fd cc be
       -0.52681327 -0.38788396 2.792083 -0.40036905
000360 3e d5 11 be 4d 51 76 3f b9 f5 a5 be f1 90 67 3e
       -0.14241502 0.96217805 -0.32414034 0.22613885
000370 9f 2c c0 3f 62 a9 60 be c8 d0 4d 3e 1c 55 27 be
       1.5013617 -0.21939614 0.20099175 -0.1634106
000380 ca d0 63 3e b0 3e 66 3f 05 4d ba bd 07 a5 95 bd
       0.22247615 0.89939404 -0.090967216 -0.07306867
000390 84 22 59 be 37 b5 a0 bf 23 70 b8 bd cf 7a a2 3f
       -0.21204573 -1.2555302 -0.090057634 1.2693728
0003a0 95 9b 59 bf fd 7d 63 3f fb 44 03 bd 7f 21 66 3e
       -0.85003024 0.8886412 -0.032048207 0.22473715
0003b0 b2 4c 28 be bf d5 aa bf 8a e2 e8 bd a1 d5 e9 bd
       -0.16435507 -1.334648 -0.11371334 -0.114176996
0003c0 60 c0 41 3f fd 88 12 3f c4 69 ba bd 27 c9 b3 3e
       0.75684166 0.5724028 -0.091022044 0.35114405
0003d0 8e 0f d4 bd 2d d0 d7 3f e5 ec c4 3f ae 55 8a bd
       -0.10354529 1.6860405 1.5384794 -0.06754623
0003e0 09 6d f3 bd cf 54 d9 bd a9 38 1f be ef 9d 06 3f
       -0.11886031 -0.10611879 -0.15548958 0.5258474
0003f0 65 10 3c bf f2 2e 46 bf 9d 74 58 3f d3 3d 06 be
       -0.73462516 -0.7741538 0.8455294 -0.13109522

output_layer.weight f4 [1, 256]
000000 56 57 8b be af 56 29 bd 08 c3 cf 3c 4c 7e 79 bb
       -0.2721507 -0.041342434 0.025361553 -0.0038069664
000010 9b 86 1c 3c 4f 00 f2 be e9 7d ca bc 81 25 ea 3b
       0.009553577 -0.4726586 -0.024718242 0.007145584
000020 e4 44 11 be 07 db a9 3a 8d 5a 00 3f ad 26 4f be
       -0.14186436 0.0012958952 0.5013817 -0.20229597
000030 2f 15 3b bd 08 2a 7c 3e a3 f5 8e bc 48 a3 91 be
       -0.0456745 0.24625409 -0.017451113 -0.28444886
000040 a3 a3 88 bd a4 07 0a bf 4a aa ae 3c 75 a7 fa be
       -0.06671836 -0.5391791 0.021321435 -0.48955885
000050 a4 1a 29 3d ec 23 50 3b b6 5a 96 3c ec a6 23 3d
       0.041285172 0.0031759692 0.018353801 0.03995411
000060 c2 ee 1f 3d d9 66 1a bd 11 eb c4 3e 77 05 34 3d
       0.039046057 -0.03769574 0.3846059 0.043950524
000070 00 5a 36 3c 41 67 af 3a 48 b2 bd 3d cc 58 c2 3c
       0.011129856 0.0013382212 0.0926252 0.023723982
000080 53 b2 ab 3b f6 ad 6f bb 69 8a 11 bd 16 1f 7c 3d
       0.0052397638 -0.0036572195 -0.03553239 0.061553083
000090 26 24 5e 3c 0d 24 ce 3e 8a 9e 3f bc 8b 54 f5 bc
       0.013558423 0.4026188 -0.0116955135 -0.02994754
0000a0 5e c5 72 bc 4f f2 12 bb e3 e0 00 be d6 72 bc bc
       -0.014817564 -0.002242226 -0.12585787 -0.023003977
0000b0 c7 80 d0 3d bb 79 d2 3c 10 37 04 3f 11 2b 20 3d
       0.10180812 0.025692811 0.5164652 0.03910357
0000c0 bc b5 1f 3c 4e 01 17 3d 74 56 9a 3c 37 da b0 bc
       0.009747919 0.03686648 0.018840052 -0.021588428
0000d0 bf 02 50 bf 5c ae ad 3e 33 49 2a bf 19 c5 26 bf
       -0.8125419 0.33922088 -0.66517943 -0.651445
0000e0 74 48 32 bf 53 67 e6 3c b9 3c ac 3c 52 6d 29 3f
       -0.69641805 0.02812544 0.021025049 0.66182435
0000f0 67 18 e4 bd 41 8e b4 bb 91 4e 4d bb ee e9 96 3c
       -0.11137467 -0.005510122 -0.0031327347 0.018422093
000100 c8 47 6e 3c 28 9b c9 be 31 a0 4e 3f 51 e4 f9 3d
       0.014543481 -0.39376187 0.8071318 0.12201751
000110 57 86 02 bc 47 a6 0a bf cd 19 1d 3c 1d e6 4f 3f
       -0.007966599 -0.5415997 0.009588671 0.812105
000120 d5 64 09 bf 4e a4 87 bc 01 2b 65 bc a9 a1 0b bd
       -0.5366948 -0.016557839 -0.013987304 -0.034089718
000130 39 77 fd 3c f4 f9 c4 3c ef c8 c8 3e 08 54 b9 be
       0.030940639 0.024044968 0.392158 -0.36196923
000140 bd 80 57 3c 96 a6 23 bd 19 ae 05 3b d9 fe d6 3c
       0.013153252 -0.03995379 0.002039796 0.026244568
000150 a5 91 cc be 41 0e b8 be d5 7e 59 3d 6d b2 95 be
       -0.39954868 -0.35948375 0.053099472 -0.2923769
000160 b9 b5 61 3b c0 8b 0f 3d f2 04 4f bf fb 82 07 3d
       0.003444059 0.035045385 -0.8086692 0.033083897
000170 d1 03 2a 3d 1b 0f bb 3b f8 9d f4 3c 92 24 82 bd
       0.041507546 0.005708588 0.029860482 -0.063546315
000180 5a fe 68 3c 22 e3 91 3d b2 e3 b2 bb b9 73 6c 3f
       0.014220798 0.071234 -0.0054592723 0.9236408
000190 99 ac 0b bd df 66 f1 be ef 84 ce bc 26 20 82 3d
       -0.03410015 -0.47148797 -0.025209872 0.06353788
0001a0 6a 76 27 3d f4 68 1a 3c a5 2a 13 bf b5 79 bd 3e
       0.040884413 0.009424437 -0.57486945 0.37006918
0001b0 5c 27 5f bc 50 2c 41 3c 0a 17 58 3c 20 79 10 3f
       -0.013620224 0.01179035 0.013189087 0.5643482
0001c0 b8 eb 50 bd 92 da 18 3d 59 0c 2d bf 9f 70 e1 3c
       -0.05100605 0.03731782 -0.67596966 0.027519522
0001d0 40 64 75 bc 86 93 8f be 7d a5 03 bd cf 7f 8f 3b
       -0.014977515 -0.2804224 -0.032140244 0.0043792496
0001e0 50 07 2c bd 63 fd aa 3c d2 d0 bf bc 81 69 f0 bc
       -0.04199916 0.020872777 -0.023415003 -0.029347183
0001f0 cb 9d 55 bd c6 56 21 3a 09 a7 5f 3d e2 76 e4 bc
       -0.052152436 0.0006154593 0.054602657 -0.027888719
000200 bd 27 54 be a9 c4 8d 3d 4a 44 2b 3f d5 bd 40 3f
       -0.20718284 0.069222756 0.66901076 0.7528966
000210 6d ec 55 be 53 df 32 bb 11 98 f9 3d 9c 71 52 bc
       -0.2089097 -0.0027293756 0.121872075 -0.012844469
000220 5c c0 a5 bc 63 89 d6 3c fe 2c d2 3c ce 74 92 3c
       -0.020233326 0.026188558 0.02565622 0.017877962
000230 7a 66 a1 3c 7d fe 01 3d 6b 04 ef 3c b3 b4 5d bf
       0.019702185 0.03173684 0.029176911 -0.8660385
000240 b8 2d 4e bd 76 6c 2f 3f e3 b3 b9 b8 87 b6 4c bf
       -0.05033657 0.68524873 -8.854994e-05 -0.79966015
000250 a9 59 79 3d f6 2e c8 bc 85 a1 14 3a 4a 91 4a be
       0.060876522 -0.024436455 0.000566982 -0.19781986
000260 55 0c c8 3c 1d 61 5d 3c 7c af bc 3e 0b 21 69 bc
       0.024419943 0.013511923 0.36852634 -0.014229069
000270 c5 40 8c bb 06 68 9b 39 dc 2c 82 3d 2e 51 1a bd
       -0.004280182 0.00029641407 0.063562125 -0.037675075
000280 eb 1a e5 bc db b3 39 bf 73 29 76 be bf 80 04 3d
       -0.027966937 -0.7254006 -0.24039249 0.032349344
000290 26 e2 82 bb ae 5b 22 3f 50 72 bc bb 0f 14 69 3b
       -0.003994244 0.6342114 -0.005750932 0.0035564934
0002a0 f6 3a 47 bc c0 49 d1 3e f5 1c f8 3e 3f 51 83 be
       -0.0121600535 0.4087658 0.48459592 -0.25647923
0002b0 6d 56 94 bc bc 47 c5 3d 7f 5f 36 bd 4e 02 b3 bc
       -0.018107617 0.09632823 -0.044524666 -0.021851685
0002c0 1f aa 47 bd d3 3c fd 3c e4 62 d7 bc ac c6 e8 3c
       -0.048746224 0.030912792 -0.026292272 0.028415047
0002d0 f9 4f 4d 3d 8e 16 b3 be e9 c9 4b 3d fe 6a 5c be
       0.050125096 -0.34978145 0.049753103 -0.2152519
0002e0 bb e7 19 bb 27 8a 1d bd 1b 69 28 3d 6a f5 a8 bb
       -0.002348407 -0.03846183 0.04111586 -0.0051562088
0002f0 2a f3 10 3c 3f ef d2 bb 0b 9c 52 3c df 30 53 bf
       0.008847037 -0.0064372118 0.012854586 -0.82496446
000300 9b 2d 89 bd 3e 59 c9 bc ac 86 b8 bc fd 8f ea bc
       -0.06698152 -0.024578687 -0.022525154 -0.028633112
000310 d2 b1 96 3d 2e 63 0e 3c e9 f3 8f bb 3b 20 34 bf
       0.07358135 0.0086906385 -0.00439309 -0.7036168
000320 ef 81 40 3c db 1a 6a be 3c 86 11 3f 1c 06 ff 3c
       0.011749729 -0.22861807 0.5684545 0.031130843
000330 52 e6 e9 bb f9 4b 59 bf 53 66 71 bc 61 90 85 3c
       -0.007138052 -0.8488155 -0.014733869 0.016304197
000340 a4 87 34 bd 39 ef 1d bd 0b ab 80 3d ed 34 3a bf
       -0.04407467 -0.03855822 0.06282624 -0.7273701
000350 a0 d6 0f 3d b9 c4 d3 bc 32 ec 24 3d cb ac a3 bc
       0.03511679 -0.02585064 0.040264316 -0.019979855
000360 37 bd 1e be 5c 01 14 bc ca dc 1e bd 50 9c 64 3c
       -0.15501867 -0.009033527 -0.03878478 0.013953283
000370 49 af 89 3c e9 7e 18 bd a7 15 d0 bc 72 fb 05 bf
       0.016807215 -0.037230406 -0.02540095 -0.523368
000380 17 83 a2 bc 8b 9a 65 3e 30 da df be 61 88 43 3f
       -0.0198379 0.22422235 -0.4372115 0.7637997
000390 49 27 28 ba 25 93 85 3c 04 35 21 bf e6 72 7e 3d
       -0.00064145454 0.016305516 -0.6297152 0.062121294
0003a0 ac ee df bc cf 61 c4 bc c0 1e 43 3f 6e 22 01 3b
       -0.027335487 -0.02397242 0.76218796 0.001970436
0003b0 44 75 9a 3b 11 67 c4 bc 7e 15 bf 3e 0c cd 83 bc
       0.004713686 -0.023974927 0.37321085 -0.016088985
0003c0 17 8e 5e bb 4b 9a d7 3c 74 d5 fb be 56 d5 86 bc
       -0.0033959204 0.02631869 -0.4918629 -0.016459148
0003d0 21 bc cf be 8a 50 cc bb b1 e5 c5 3c a0 8b dc be
       -0.40573218 -0.006235187 0.024157377 -0.43075275
0003e0 16 35 cf be cd a5 61 bf f2 61 b6 be ea 70 1f 3d
       -0.4047019 -0.88143617 -0.356216 0.038926043
0003f0 21 df 39 bc ee 13 40 3b 26 dc 0a bc e6 b2 39 be
       -0.011344702 0.0029308754 -0.008475339 -0.1813465
