checkpoint_actor.pth (torch, 209481 bytes, 10 tensors)

input_layer.weight f4 [256, 33]
0	0xbdb39c50	-0.087700486
1	0x3e770590	0.24123216
2	0x3d358100	0.044312477
3	0x3e4bd92c	0.19907063
4	0x3df31d1b	0.11870786
5	0xbdc22a21	-0.09480692
6	0xbed72e6a	-0.420276
7	0x3d390d4b	0.045178693
8	0x3e01646a	0.12635961
9	0x3e0dfc22	0.13865712
10	0x3df4e216	0.11957185
11	0x3df0a145	0.1174951
12	0x3d878178	0.06616491
13	0x3d29fa70	0.0414986
14	0x3d99145c	0.07474586
15	0xbcd2309c	-0.025657944
16	0xbe982e2c	-0.29722726
17	0x3ed1b71c	0.40960014
18	0x3ef78d9c	0.48350227
19	0xbe2baa74	-0.16764241
20	0x3c965dd5	0.01835529
21	0xbdb528d1	-0.08845676
22	0xbda78b12	-0.081808224
23	0xbd7a58e4	-0.06111993
24	0x3dae1b06	0.08501248
25	0x3d6e88db	0.058235984
26	0xbdb06cd7	-0.086145096
27	0x3e66163b	0.22469418
28	0x3c330351	0.010926084
29	0x3d6feeca	0.058577336
30	0xbe938672	-0.2881351
31	0x3cca26ac	0.024676643
32	0xbe51f131	-0.20502163
33	0x3e2ef577	0.17085825
34	0xbd0f5d76	-0.03500124
35	0xbd5fa2c6	-0.054598592
36	0x3d822b5d	0.06355927
37	0x3bea1935	0.007144118
38	0xbea45c67	-0.32101747
39	0x3e65d269	0.22443546
40	0xbdb70af6	-0.089376375
41	0x3ba715a5	0.005099016
42	0x3dadebba	0.08492227
43	0x3ca3bbfe	0.019987103
44	0xbc9ecdbf	-0.019385217
45	0x3d8d823c	0.06909606
46	0xbe025b64	-0.12730175
47	0x3c33c287	0.010971672
48	0x3cc73cce	0.024320986
49	0x3f01e806	0.50744665
50	0x3db19d5b	0.08672591
51	0x3e93ba93	0.28853282
52	0x3b1fe503	0.0024397976
53	0xbc9462bc	-0.018113486
54	0xbd3e487c	-0.046455845
55	0x3d217a0b	0.03942303
56	0x3d1fd7f7	0.03902432
57	0x3cd6d437	0.026224239
58	0x3d5a9f5e	0.05337464
59	0x3eaaddfe	0.33372492
60	0x3dcb2dd5	0.09920851
61	0xbdbac9df	-0.09120535
62	0x3d16ad7a	0.036786534
63	0xbdf415ef	-0.11918246
64	0xbd257b90	-0.04040104
65	0x3fc7e10b	1.5615553
66	0xbd862e73	-0.06551828
67	0xbd41e2e1	-0.04733551
68	0x3d07f856	0.033195816
69	0x3eff657a	0.49882108
70	0xbc9ab91b	-0.018887093
71	0x3e8464d2	0.2585817
72	0xbd9c731c	-0.07639143
73	0x3cdf4095	0.027252475
74	0x3e2d388a	0.16916099
75	0xbd3f6019	-0.046722505
76	0xbdae65c7	-0.08515506
77	0x3d5b9fca	0.053619184
78	0xbc0ddd16	-0.008658668
79	0xbdad5df6	-0.08465187
80	0xbcd75c96	-0.026289266
81	0xbd34f116	-0.04417523
82	0xbf183fb4	-0.59472203
83	0x3eb446f6	0.3521039
84	0x3df83b9b	0.12120744
85	0x3ee46013	0.4460455
86	0xbc66401c	-0.014053371
87	0x3c9349da	0.017979551
88	0xbe092138	-0.13391578
89	0xbd896778	-0.06709188
90	0xbcd79bef	-0.026319472
91	0xbcf7889c	-0.030216508
92	0xbd8fa9cd	-0.07014809
93	0x3d846405	0.0646439
94	0x3d7e45df	0.062078353
95	0xbcecaea8	-0.028891876
96	0xbd20e04b	-0.039276402
97	0xbcd2c628	-0.025729254
98	0x3f217afc	0.63078284
99	0x3d5ad673	0.05342717
100	0x3dc73325	0.09726552
101	0x3e04b3cb	0.1295921
102	0x3eae68f5	0.3406445
103	0xbc1187c0	-0.008882463
104	0x3ef1304d	0.47107163
105	0xbac099a3	-0.0014694225
106	0xbbf4cdf3	-0.00747084
107	0xbbab02b2	-0.005218827
108	0x3ddb9960	0.10722613
109	0xbb8c2f2a	-0.0042780833
110	0x3d08ad80	0.033368587
111	0xbcf44de8	-0.029822305
112	0xbc3bd1f6	-0.011463633
113	0xbd75c2b0	-0.06000012
114	0xbd5e0aab	-0.054209393
115	0x3aff6f63	0.0019488152
116	0x3ccc96f9	0.024974333
117	0x3e403eb3	0.18773918
118	0xbd634c67	-0.055492785
119	0x3be968d6	0.007123093
120	0xbd0beb15	-0.03415974
121	0xbc9e3fa2	-0.019317452
122	0x39c3c1d9	0.00037337726
123	0xbcecec77	-0.028921349
124	0xbc5bedf9	-0.013423436
125	0xbc245d6b	-0.010032038
126	0xbcf68b0b	-0.030095598
127	0xbd2a199e	-0.041528337
128	0xbc8c8e50	-0.017157704
129	0x3d43f5dd	0.047841895
130	0xbcde6318	-0.027146861
131	0xc05c0f36	-3.4384284
132	0x3ce03698	0.027369782
133	0x3e6e055e	0.23244235
134	0x3df621d0	0.12018168
135	0xbcaf0c87	-0.021368278
136	0x3e42591a	0.18979302
137	0x3d8a911e	0.0676596
138	0xbe7b0d30	-0.2451675
139	0xbe239a46	-0.1597682
140	0xbcff4357	-0.03116004
141	0x3dde5a57	0.10857075
142	0x3ddf74b6	0.10910933
143	0x3c11be92	0.008895533
144	0xbd00ecdb	-0.031475883
145	0x3dba1d5e	0.090876326
146	0x3e239288	0.15973866
147	0x3d453e5f	0.048155185
148	0xbdd36794	-0.1032249
149	0x3cc145ec	0.023592912
150	0x3d5fcc08	0.05463794
151	0x3e01884f	0.12649654
152	0xbc97257d	-0.018450493
153	0x3c7b96f0	0.0153558105
154	0xbe4491ee	-0.19196293
155	0xbd98882a	-0.07447846
156	0xbd09d42c	-0.03364961
157	0x3b4729c8	0.0030389894
158	0x3cf62315	0.030046025
159	0x3e7c741e	0.2465367
160	0xbde85ce4	-0.113458425
161	0xbcdb01e4	-0.0267343
162	0xbe34fdaf	-0.17674898
163	0x3d12caca	0.035837926
164	0x3ecf67c8	0.40508866
165	0x3d3039d7	0.04302391
166	0xbdd60ca3	-0.10451629
167	0xbcc60990	-0.024174482
168	0xbf00d61a	-0.50326693
169	0xbe5ae3b6	-0.21375927
170	0xbf0a1b23	-0.5394766
171	0x3c603173	0.013683665
172	0xbd260afb	-0.040537816
173	0x3dcd37d3	0.10020413
174	0x3dc313d3	0.095252655
175	0x3d41b57d	0.04729222
176	0xbcc5400f	-0.024078397
177	0xb7bc2cee	-2.2432268e-05
178	0xbcce3d43	-0.025175696
179	0x3d4ffaad	0.050776172
180	0x3d02e1eb	0.031953733
181	0x3e9fdab5	0.31221548
182	0x3df31028	0.11868316
183	0xbe0f5026	-0.13995418
184	0xbe3714a6	-0.1787897
185	0xbcb89b06	-0.022534858
186	0xbc3377b6	-0.010953834
187	0xbb95e6c3	-0.004574628
188	0xbd2dd2a4	-0.04243721
189	0xbca55cfd	-0.020185942
190	0xbd024dcf	-0.031812485
191	0xbd55e286	-0.052217983
192	0xbe287288	-0.1644994
193	0x3d958bf7	0.07302087
194	0x3b9dec90	0.00481946
195	0x3e74ef01	0.23919298
196	0xbba6a680	-0.0050857663
197	0x3fc1de78	1.5146017
198	0x3db78414	0.08960739
199	0x3daaca4d	0.08339367
200	0x3d68d2e5	0.05684175
201	0x3d060b8e	0.032725863
202	0xbd3a57c3	-0.045493852
203	0xbf0548c4	-0.52064157
204	0x3c02d0a4	0.007984314
205	0xbda8cc06	-0.082420394
206	0xbe7974f2	-0.24361017
207	0xbe2d4fee	-0.16925022
208	0xbd5e312c	-0.054246113
209	0x3d1a0c1d	0.03760921
210	0xbc84af2b	-0.016196808
211	0xbd680c23	-0.0566522
212	0xbb8bef25	-0.0042704516
213	0x3c4ec3a3	0.012619886
214	0x3e9f943a	0.31167775
215	0xbe164199	-0.14673461
216	0xbe39a22e	-0.18128273
217	0xbec9dada	-0.39424783
218	0xbd4046c2	-0.04694248
219	0x3c7d12c3	0.015446368
220	0x3c6fd232	0.014637517
221	0xbd1e951c	-0.03871642
222	0x3b38c023	0.0028190694
223	0x3c20f5c4	0.00982422
224	0xbdbe9db6	-0.09307425
225	0x3e257712	0.16158703
226	0x3dc294ef	0.09501063
227	0xbc914150	-0.017731339
228	0xbe1475ae	-0.14498016
229	0xbd7d5e26	-0.061857365
230	0xc003cc61	-2.0593493
231	0xbddc2e20	-0.10750985
232	0x3e038907	0.1284524
233	0x3b382d7e	0.0028103287
234	0xbe42f942	-0.19040397
235	0xbdfddd20	-0.12395692
236	0xbdcf3b4a	-0.1011873
237	0xbda7e320	-0.081976175
238	0x3e0aed70	0.13567138
239	0xbd308183	-0.043092262
240	0x3d70e104	0.05880834
241	0x3e05054e	0.12990305
242	0x3d1d97eb	0.03847496
243	0xbb6ddd01	-0.0036295059
244	0x3d1f64c6	0.038914464
245	0x3d074390	0.033023417
246	0xbcc0858a	-0.023501176
247	0x3d004fdd	0.031326164
248	0x3cfa613e	0.030563947
249	0xbe4bbbf3	-0.19895916
250	0xbe7fc6a8	-0.24978125
251	0xbd28f5ea	-0.041250147
252	0x3d78e32c	0.060763523
253	0x3c0d59a3	0.008627328
254	0x3e20e1a8	0.15711081
255	0x3dae3763	0.08506658

input_layer.bias f4 [256]
0	0xbe1f8e09	-0.15581526
1	0xbb7da453	-0.0038702681
2	0xbe14e083	-0.1453877
3	0x3e2b330b	0.1671869
4	0xbe54b621	-0.20772602
5	0x3d434d52	0.04768116
6	0xbea77c5e	-0.32712072
7	0xbe87a16c	-0.26490343
8	0xbe8b3868	-0.27191472
9	0x3ecdc585	0.40189758
10	0xbdd771a2	-0.105197206
11	0xbd7c6922	-0.0616237
12	0xbe6b2d22	-0.22966436
13	0x3a8f8ef4	0.0010952638
14	0x3b3ab055	0.002848645
15	0xbc856bad	-0.016286695
16	0xbe96c7e4	-0.2944938
17	0xbdcb2419	-0.099189945
18	0x3c289eff	0.010291814
19	0xbe953ee1	-0.29149535
20	0xbdfa5493	-0.122231625
21	0xbddbed29	-0.10738594
22	0x3db5e2e8	0.088811696
23	0xbd9579ef	-0.072986476
24	0xbc1af123	-0.009456906
25	0xbd4970f2	-0.04917998
26	0x3d24c74d	0.04022913
27	0x3dfc202c	0.12310824
28	0x3de85966	0.113451764
29	0xbe261649	-0.16219439
30	0x3e6c4341	0.2307253
31	0xbe0462bb	-0.12928288
32	0xbd63d782	-0.055625446
33	0xbdfc2e02	-0.12313463
34	0x3e196b12	0.1498225
35	0xbe3809e0	-0.17972517
36	0x3e2ab163	0.1666923
37	0x3df2b0d6	0.11850135
38	0xbe7a9a63	-0.24472956
39	0x3dd485f6	0.103771135
40	0xbdc05b13	-0.09392371
41	0xbd8f0565	-0.06983451
42	0x3e2fc83e	0.1716623
43	0xbea8c756	-0.3296458
44	0x3e0819a9	0.13291039
45	0xbea13038	-0.314821
46	0xbcbe8b7b	-0.023259869
47	0xbd556717	-0.052100267
48	0x3ddfc4be	0.109261975
49	0xbd972644	-0.073803455
50	0xbdc0fc02	-0.09423067
51	0x3d82eb71	0.06392563
52	0xbe8de4be	-0.2771358
53	0xbd2e150a	-0.042500533
54	0xbea26359	-0.3171642
55	0x3dab6ab9	0.08369965
56	0xbde2402a	-0.110473946
57	0xbe060720	-0.13088655
58	0xbdf99612	-0.12186827
59	0x3dc5fc54	0.096672684
60	0xbe031a21	-0.12802936
61	0x3bcfc22f	0.006340287
62	0xbe8892fc	-0.2667464
63	0xbe11f961	-0.14255287
64	0xbe92b9c2	-0.28657347
65	0xbe3f3ba7	-0.186751
66	0x3cb256dc	0.021769933
67	0x3da18f94	0.078887135
68	0xbe6c9da5	-0.23107012
69	0x3dfcefea	0.123504475
70	0x3dd6eec8	0.10494763
71	0x3da0953d	0.07840965
72	0xbdc13973	-0.09434786
73	0xbe8047ac	-0.2505468
74	0x3e2ed287	0.17072497
75	0xbd709495	-0.05873545
76	0xbe17a462	-0.14808801
77	0xbe339cec	-0.1754033
78	0xbc5d79c3	-0.0135178
79	0x3c1f58d4	0.009725768
80	0xbeae0a8b	-0.3399242
81	0x3e19fa6a	0.15036932
82	0xbdffae19	-0.12484378
83	0xbd8af0bd	-0.067841984
84	0x3d8508e0	0.064958334
85	0xbe751947	-0.23935424
86	0xbdf6ca5f	-0.12050318
87	0xbe281499	-0.16414107
88	0x3beceb40	0.0072301924
89	0x3e5ce299	0.21570815
90	0x3e49944f	0.19685481
91	0xbe477571	-0.19478394
92	0x3db37919	0.08763332
93	0xbe6fc3c9	-0.2341453
94	0xbe46a157	-0.19397484
95	0x3da06ec6	0.07833628
96	0x3e452275	0.19251426
97	0xbe622de6	-0.22087821
98	0x3e3e6ef8	0.18597019
99	0xbe1c7ae9	-0.15281262
100	0x3d10eefd	0.035384167
101	0xbd4459c0	-0.047937155
102	0xbde5dda8	-0.11223918
103	0xbbc81956	-0.006106536
104	0xbe5d460e	-0.21608755
105	0xbd8ef533	-0.06980362
106	0xbe2c260d	-0.1681139
107	0xbccbc15a	-0.02487247
108	0x3deb89e1	0.11500908
109	0xbdf9bda9	-0.12194378
110	0xbc1de5d3	-0.009637314
111	0x3e359c44	0.17735392
112	0xbdf4e6df	-0.11958098
113	0x3cfbef08	0.030753627
114	0x3d12ecd7	0.0358704
115	0xbdccc9e7	-0.09999447
116	0x3d6ab5fa	0.057302453
117	0xbea79829	-0.32733276
118	0x3cfc908d	0.030830646
119	0xbe89ab8a	-0.26888686
120	0x3eab6143	0.33472642
121	0xbddf2335	-0.10895387
122	0x3c953d3c	0.018217675
123	0x3ca75522	0.020426337
124	0xbe7f2864	-0.24917752
125	0xbd5bdcdc	-0.053677425
126	0xbcc328be	-0.023823138
127	0x3d5cf0b7	0.0539405
128	0xbdd096e8	-0.10185033
129	0x3da3ca0c	0.07997522
130	0xbe9158bd	-0.28388014
131	0xbe70fc96	-0.23533854
132	0xbe281095	-0.16412576
133	0x3e15e7f5	0.14639266
134	0x3c11535d	0.008869973
135	0xbe2614e4	-0.16218907
136	0xbe75c2b6	-0.24000058
137	0xbcea61b8	-0.028611049
138	0xbe1219d4	-0.14267665
139	0xbe96bdca	-0.29441673
140	0xbaab677a	-0.0013077103
141	0xbceadd41	-0.028669955
142	0xbe19514f	-0.14972423
143	0x3e0c6b90	0.13712907
144	0x3c4ac120	0.012375146
145	0xbc3d897e	-0.011568425
146	0xbe32ee7a	-0.17473784
147	0xbe2a4fbb	-0.16631977
148	0xbd4b606c	-0.049652502
149	0x3df6f90c	0.12059221
150	0xbe0eabd7	-0.13932739
151	0x3dadda68	0.08488923
152	0xbd57ffdc	-0.05273424
153	0x3ce2d058	0.027687237
154	0x3cf7a577	0.030230267
155	0xbca13177	-0.019676907
156	0x3dc036af	0.0938543
157	0x3bb4bf01	0.0055159335
158	0xbe609609	-0.21932234
159	0xbe93f590	-0.28898287
160	0x3d78e48f	0.060764845
161	0xbeb07a2d	-0.34468213
162	0xbe992a3c	-0.29915035
163	0xbdbb3fbc	-0.09143016
164	0x3dbbb056	0.09164493
165	0x3bc7c5c3	0.006096573
166	0x3e2f38ee	0.1711156
167	0xbb82f589	-0.003996555
168	0xbe493774	-0.1965006
169	0xbc5f50ec	-0.013630133
170	0xbc3eedb4	-0.0116533525
171	0xbb186eb0	-0.0023259334
172	0x3e19ed0e	0.15031835
173	0x3e4b70d4	0.1986726
174	0x3c519562	0.012791963
175	0x3c87a5ba	0.016558517
176	0x3e048fc7	0.12945472
177	0xbe1f4b1c	-0.15555996
178	0x3e985573	0.29752693
179	0xbe563458	-0.20918405
180	0x3dd7d793	0.105391644
181	0x3e0a3d0a	0.13499847
182	0xbe2f74c5	-0.17134388
183	0xbe38446a	-0.17994848
184	0xbd318019	-0.043335054
185	0xbd609095	-0.054825384
186	0xbddc27d2	-0.107497826
187	0x3d0e0f55	0.03468259
188	0xbdb9ccd1	-0.09072269
189	0xbc7515c5	-0.014958804
190	0xbe54b017	-0.20770298
191	0xbe03600d	-0.12829609
192	0x3d9be093	0.076111935
193	0x3d6473e8	0.0557746
194	0x3e7b1bc8	0.24522316
195	0x3c968ff9	0.018379198
196	0xbe030628	-0.12795317
197	0xbd70fea9	-0.058836613
198	0xbd90a6ca	-0.070630625
199	0xbe9b8829	-0.3037732
200	0xbe35a574	-0.17738897
201	0x3c4c1c6d	0.012457949
202	0xbda846ee	-0.08216654
203	0xbe024c97	-0.12724529
204	0x3e427bfb	0.18992607
205	0xbcc7bd19	-0.024382161
206	0xbd2afaf7	-0.041743245
207	0xbd94702b	-0.07247957
208	0x3cbb7424	0.022882529
209	0xbd9974ed	-0.07493005
210	0xba0e8ed4	-0.0005438153
211	0x3e90dfb6	0.28295678
212	0xbdbbe393	-0.09174266
213	0xbe148f3c	-0.14507765
214	0x3b545288	0.0032397825
215	0xbbcda117	-0.006275307
216	0xbdd3dd13	-0.10344901
217	0x3e1d7001	0.15374757
218	0x3d0b63e7	0.03403082
219	0x3e49831c	0.1967892
220	0x3e8ff24e	0.2811455
221	0xbd9a627e	-0.07538317
222	0xbe922676	-0.28544968
223	0xbe971dd4	-0.29514945
224	0x3dafcb1a	0.085836604
225	0xbdd19dbf	-0.10235166
226	0xbdd0d36d	-0.10196576
227	0xbc81e641	-0.015856864
228	0x3bca4de8	0.006173838
229	0xbe0fcc6c	-0.14042825
230	0xbd1bb562	-0.038014777
231	0x3cdecb72	0.02719662
232	0xbe84c968	-0.2593491
233	0xbe4f1ba7	-0.20225392
234	0x3e4bd579	0.19905652
235	0xbdc62b71	-0.096762545
236	0xbe01d431	-0.12678601
237	0xbd65fa96	-0.05614718
238	0xbdd40767	-0.103529744
239	0xbe09cfd2	-0.13458183
240	0xbd6a5de3	-0.057218444
241	0xbe38a528	-0.18031752
242	0x3dde7a70	0.10863197
243	0x3dc53d5b	0.09630843
244	0xbcdd2ddd	-0.026999408
245	0x3c44ef80	0.012019992
246	0xbdb262ff	-0.08710288
247	0x3e4cb61f	0.19991349
248	0xbdad6468	-0.084664166
249	0xbd48555f	-0.04890954
250	0x3cc240a0	0.023712456
251	0xbe3872bd	-0.18012519
252	0x391b0994	0.0001478552
253	0xbe0984b6	-0.13429531
254	0xbd0993a4	-0.033588067
255	0x3d12dd31	0.035855476

hidden_layers.0.weight f4 [126, 256]
0	0x3e48b659	0.1960081
1	0xbd9c6bad	-0.07637725
2	0x3c1de305	0.009636645
3	0xbc4a0ada	-0.012331689
4	0xbe479e12	-0.19493893
5	0x3e50817b	0.20361893
6	0xbcf41640	-0.029795766
7	0xbc890d11	-0.016729863
8	0xbd3384d9	-0.043827865
9	0x3d943a59	0.072376914
10	0x3e20b6e3	0.15694766
11	0x3e5a30e0	0.21307707
12	0xbcba1222	-0.022713725
13	0xbbae5ab1	-0.00532087
14	0x3e205434	0.15657121
15	0x3b91ffb0	0.004455529
16	0x3dde5195	0.10855404
17	0xbea9e8c3	-0.33185396
18	0x3e439962	0.1910148
19	0xbd061b19	-0.032740686
20	0xbe30d2a7	-0.17267857
21	0xbe503cfc	-0.20335764
22	0xbea49aff	-0.32149503
23	0x3e63caac	0.22245282
24	0x3e37c39a	0.1794571
25	0x3e2a2583	0.16615872
26	0x3d01f275	0.031725366
27	0xbe84e817	-0.2595832
28	0x3da4d2b5	0.08048002
29	0xbd8f144f	-0.069862954
30	0xbc5cb770	-0.013471469
31	0xbc7a4f33	-0.015277672
32	0xbe58bedf	-0.21166562
33	0xbea0401f	-0.3129892
34	0x3e00e6ff	0.12588118
35	0xbc4f2ff0	-0.012645707
36	0xbcb6c8b7	-0.022312505
37	0xbd2279bd	-0.03966688
38	0xbd3fce08	-0.046827346
39	0xbd34b3d7	-0.04411682
40	0xbe24c189	-0.16089453
41	0x3c8ad86f	0.016948907
42	0x3d7ee315	0.06222828
43	0x3d691d50	0.05691272
44	0xbeb47888	-0.35248208
45	0xbc1cb958	-0.009565674
46	0x3dec60ed	0.115419246
47	0x3e91bd1e	0.28464597
48	0x3de8f825	0.11375455
49	0x3ecf5a79	0.40498713
50	0x3e422324	0.18958718
51	0x3b21004d	0.002456683
52	0xbe5f1162	-0.21783975
53	0x3d967aa7	0.07347613
54	0xbdd628bd	-0.10456989
55	0xbdef386f	-0.11680686
56	0x3a378880	0.0007001236
57	0x3ca89bd8	0.020582125
58	0x3d014571	0.031560365
59	0xbe9a489f	-0.3013353
60	0x3e1e2cb2	0.15446737
61	0x3c9810b2	0.018562648
62	0xbe7ed0ea	-0.24884382
63	0x3e1e84fc	0.15480417
64	0xbe105959	-0.14096583
65	0x3de68a16	0.112568066
66	0xbddfe306	-0.10931973
67	0xbd8cc414	-0.068733364
68	0x3d83c674	0.06434336
69	0x3e898955	0.2686259
70	0x3d86daf9	0.065847345
71	0xbdf647e3	-0.1202543
72	0xbda1a507	-0.078928046
73	0xbd31fa8c	-0.04345183
74	0xbc958d80	-0.018255949
75	0xbd1486b4	-0.036261275
76	0xbdf9a3b2	-0.121894255
77	0xbca12079	-0.019668804
78	0x3e026a0e	0.12735769
79	0x3e393187	0.180853
80	0xbe42767b	-0.18990509
81	0x3e02130b	0.12702577
82	0xbd0e413f	-0.034730192
83	0xbd55485f	-0.05207097
84	0xbe55a57d	-0.2086391
85	0x3d280d73	0.04102845
86	0x3c7d3640	0.015454829
87	0xbeba66eb	-0.36406645
88	0x3df42a72	0.11922158
89	0xbe8afa09	-0.27143887
90	0x3e973f28	0.29540372
91	0xbd7cd8b0	-0.061730087
92	0x3e7a4122	0.24438909
93	0xbd3609c7	-0.04444292
94	0xbda9f80c	-0.08299264
95	0x3c0627e5	0.008188223
96	0xbd109413	-0.035297465
97	0xbd498c1c	-0.049205884
98	0x3df86e69	0.12130434
99	0x3e16987a	0.14706603
100	0x3e5e2ba8	0.21696341
101	0x3da50ae7	0.0805872
102	0xbbd113a8	-0.006380517
103	0x3e22623f	0.1585779
104	0x3cf0dde1	0.029402675
105	0xbdb6ad37	-0.08919757
106	0xbd9d459c	-0.076792926
107	0xbe5e3a9d	-0.21702047
108	0x3e25cfe3	0.16192584
109	0xbc35d213	-0.011097449
110	0x3defe4c5	0.11713556
111	0x3dbf0d1d	0.09328673
112	0xbdb525ec	-0.08845124
113	0x3d6907a2	0.056892045
114	0xbd83d97b	-0.064379655
115	0x3d3491bf	0.044084307
116	0x3e0f864d	0.14016075
117	0xbc75ef18	-0.015010618
118	0x3eb095aa	0.34489185
119	0x3c889752	0.016673718
120	0xbe68a7e5	-0.22720297
121	0x3d880dea	0.06643279
122	0x3d16abc1	0.03678489
123	0xbc5a8c23	-0.013339075
124	0xbe0256ff	-0.12728499
125	0xbe4d6d0d	-0.20061131
126	0x3d917ead	0.071042396
127	0x3da16dad	0.07882247
128	0xbd6d591a	-0.057946302
129	0xbe63731e	-0.22211882
130	0x3d4ddbb4	0.050258353
131	0xbc98f467	-0.018671228
132	0x3e7cbb57	0.2468084
133	0x3e2c92c3	0.1685286
134	0x3e32d942	0.1746569
135	0xbbb7e8dd	-0.0056124763
136	0xbc4f9606	-0.012670046
137	0x3e2d7584	0.1693936
138	0xbdafc327	-0.08582144
139	0x3e2ea7f7	0.17056261
140	0x3dc284f1	0.09498013
141	0xbd7438ba	-0.05962441
142	0x3e60a933	0.21939544
143	0xbd4782cf	-0.048708733
144	0x3dc00a9d	0.09377024
145	0x3dc190e5	0.094514646
146	0xbe847eda	-0.2587803
147	0x3dc2520e	0.09488307
148	0x3d73c552	0.05951435
149	0x3d8598d4	0.0652329
150	0xbe16e372	-0.14735201
151	0xbebe82c0	-0.3720913
152	0x3dc133fb	0.094337426
153	0xbe35109a	-0.17682114
154	0x3e1cc8c0	0.15310955
155	0xbd96a2ae	-0.073552474
156	0xbdc01a7f	-0.09380054
157	0x3d0f767d	0.03502511
158	0x3df42944	0.11921933
159	0xbc6118b3	-0.013738799
160	0x3df1719f	0.1178925
161	0x3e6b83a6	0.22999439
162	0xbbae4148	-0.0053178407
163	0xbda2e71e	-0.07954238
164	0x3e4b9ce2	0.19884065
165	0x3e2acbb5	0.1667927
166	0xbd95683c	-0.07295272
167	0xbeb39ea8	-0.35081983
168	0xbd29d193	-0.04145963
169	0xbb2759aa	-0.0025535622
170	0x3e92b667	0.28654787
171	0x3c674ae8	0.01411698
172	0xbd6dbf32	-0.058043666
173	0x3cb45872	0.02201483
174	0x3e414fa2	0.18878034
175	0xbbf70a03	-0.0075390353
176	0x3e1de582	0.15419582
177	0xbd8cce6f	-0.068753116
178	0x3d210d35	0.039319236
179	0xbd73aa9d	-0.05948888
180	0xbea13f15	-0.3149344
181	0xbd9284c9	-0.07154233
182	0xbec993d3	-0.39370593
183	0xbd7d87d5	-0.061897118
184	0x3df59126	0.119905755
185	0x3c3a60b7	0.011375598
186	0x3e065650	0.13118863
187	0xbe68052e	-0.22658226
188	0x3d64bad2	0.05584223
189	0xbe6e1277	-0.23249231
190	0xbe0556a0	-0.13021326
191	0xbdfbf7fe	-0.1230316
192	0x3c857a56	0.016293686
193	0x3d577633	0.052602958
194	0x3e203e03	0.15648656
195	0x3e7b4af4	0.24540311
196	0xbdb7fda8	-0.08983928
197	0xbdac35a8	-0.084086716
198	0x3dc7e854	0.0976111
199	0x3d0cec96	0.034405313
200	0xbd450aa4	-0.04810585
201	0xbe2a8451	-0.16652037
202	0xbdf3f592	-0.11912073
203	0xbe6b43ff	-0.22975157
204	0x3deeb1e1	0.116550215
205	0x3dc4bb35	0.096060194
206	0x3da738c2	0.081651226
207	0x3cda8bb4	0.026677944
208	0xbe1bac4a	-0.15202442
209	0xbe979f27	-0.2961361
210	0xbc6cff35	-0.014465143
211	0xbec77c8f	-0.38962218
212	0xbe3c88ba	-0.18411532
213	0x3e9fdd77	0.31223652
214	0x3e299b45	0.16563137
215	0xbe8d8517	-0.27640602
216	0xbd4ffac9	-0.050776277
217	0xbdda9a73	-0.1067399
218	0x3dc6e321	0.0971129
219	0x3df4fcff	0.11962318
220	0x3deb9c5b	0.11504432
221	0x3de4a163	0.111635946
222	0xbdc0f701	-0.09422112
223	0x3e0e03ac	0.13868588
224	0x3e2a8c8e	0.1665518
225	0xbd6099b4	-0.054834083
226	0x3e530e0c	0.20610827
227	0x3d423dbd	0.04742216
228	0xbde66dda	-0.11251421
229	0xbd076bb4	-0.033061698
230	0xbd2c9404	-0.042133346
231	0x3d895aeb	0.06706794
232	0xbe533498	-0.20625532
233	0x3de1aba9	0.1101907
234	0xbd28f4d2	-0.041249104
235	0x3e324ba5	0.17411669
236	0x3d85abdc	0.0652692
237	0xbcdbdb7c	-0.026838057
238	0xbe4cbca7	-0.1999384
239	0xbe4c48d6	-0.1994966
240	0x3d8d253e	0.06891869
241	0xbc96bddd	-0.01840108
242	0x3a7ac9b7	0.0009566801
243	0x3debe838	0.115189016
244	0x3e1dc357	0.15406547
245	0xbabfdff7	-0.001463889
246	0x3d28c1b2	0.041200347
247	0xbe0b2b57	-0.13590752
248	0x3de0f186	0.10983567
249	0xbe325b0c	-0.17417544
250	0xbdabb8c1	-0.083848484
251	0x3d7b6538	0.061375827
252	0xbd0af74b	-0.033927243
253	0xbdb874fa	-0.090066865
254	0x3da96d89	0.08272845
255	0x3d88bd1a	0.06676693

hidden_layers.0.bias f4 [126]
0	0xbd0acc27	-0.0338861
1	0xbd4bb0b1	-0.049729053
2	0xbd2a1a3f	-0.041528936
3	0xbdc99689	-0.098431654
4	0x3d435aee	0.04769414
5	0x3bea9d22	0.007159845
6	0xbdf6ae9f	-0.12045025
7	0xbe2b86bf	-0.1675062
8	0xbe20cab0	-0.15702319
9	0xbd1fa011	-0.03897101
10	0x3d43838c	0.047732875
11	0xbc111ced	-0.008856994
12	0xbd6fa025	-0.058502335
13	0x3d9beb87	0.07613283
14	0xbdbcfd4d	-0.09228001
15	0x3d3dd334	0.046343997
16	0x3c90db03	0.017682558
17	0x3d912513	0.070871495
18	0x3cd03178	0.025414214
19	0x3d3aa054	0.045563057
20	0x3cfe080c	0.031009696
21	0xbd20eaef	-0.03928655
22	0xbd57db8d	-0.052699614
23	0x3d148e29	0.036268387
24	0xbe39ecfe	-0.18156812
25	0xbda00df9	-0.07815165
26	0xbd11a60d	-0.03555875
27	0x3d8af0d1	0.06784213
28	0x3d48cf0b	0.049025577
29	0xbd055a73	-0.032556962
30	0xbcdfe5cb	-0.027331254
31	0x3cf9b313	0.030480897
32	0xbc6176e8	-0.01376126
33	0x3c8a60d2	0.01689187
34	0xbd935739	-0.07194371
35	0xbdd11c02	-0.1021042
36	0xbcb75b9f	-0.022382556
37	0xbd357249	-0.044298444
38	0xbc6cae33	-0.014445829
39	0x3d4a2a67	0.049356844
40	0xbc641eff	-0.013923406
41	0x3d110c19	0.035411928
42	0x3cf915ae	0.030405845
43	0x3d718d60	0.058972716
44	0xbd9f2a80	-0.07771778
45	0xbb844ef7	-0.0040377337
46	0x3d56828f	0.052370604
47	0x3b10f45e	0.002211831
48	0x3d1b7dfc	0.037961945
49	0x3e01d59f	0.12679146
50	0xbda6cc13	-0.08144393
51	0x3c443869	0.01197634
52	0xbc18dde0	-0.009330243
53	0xbcd2cd82	-0.02573276
54	0xbdb03b3d	-0.08605049
55	0xbd319c9e	-0.043362252
56	0x3ba1da55	0.0049393573
57	0xbd997132	-0.074922934
58	0x3e002617	0.1251453
59	0xba2a60a2	-0.0006499385
60	0xbdc505d7	-0.096202545
61	0xbdfd5b4f	-0.12370931
62	0xbdb3d657	-0.087811165
63	0x3c56a704	0.013101343
64	0xbd8c6694	-0.06855503
65	0xbd9bd58d	-0.07609091
66	0x3db5e41e	0.088814005
67	0xbdac9125	-0.084261216
68	0x3d9a9815	0.075485386
69	0xbd8e0da7	-0.06936198
70	0x3d10eb03	0.035380375
71	0x3db4f440	0.088356495
72	0x3cf2794f	0.02959886
73	0xbe96827f	-0.29396436
74	0x3cce4cd4	0.025183119
75	0xbc88980a	-0.01667406
76	0xbd2de822	-0.042457707
77	0x3dad491e	0.084612116
78	0x3d571075	0.05250593
79	0xbd662b2d	-0.05619352
80	0xbdb74d5f	-0.08950304
81	0xbddd1b4e	-0.107962236
82	0x3ddbcfad	0.107329704
83	0xbe6027ef	-0.21890233
84	0xbd29fff4	-0.04150386
85	0x3cc81c4b	0.024427554
86	0x3d60a0e9	0.054840956
87	0x3c347f69	0.011016705
88	0xbcd67fb2	-0.026183937
89	0xbc9644d0	-0.01834336
90	0xbcedb353	-0.029016173
91	0x3c48af61	0.012248845
92	0xbd8fd1a7	-0.0702241
93	0x3d0dbb8b	0.034602683
94	0xbd27d62a	-0.040975727
95	0x3b985a0a	0.0046494054
96	0xbd520791	-0.051276747
97	0x3d8af6dc	0.06785366
98	0x3d023818	0.031791776
99	0xbd7fcdec	-0.06245224
100	0x3d1e4b48	0.038646013
101	0x3d69cbde	0.05707919
102	0xbda2b82e	-0.07945286
103	0x3d681351	0.056659047
104	0x3d1fbc25	0.038997788
105	0xbdb3b2db	-0.08774348
106	0x3ccd3afd	0.025052542
107	0xbd230a85	-0.039804954
108	0x3d947c58	0.07250279
109	0xbe3e6a2f	-0.18595193
110	0xbbbfc1b2	-0.0058519477
111	0xbbbcab95	-0.005757759
112	0xbcc6668e	-0.024218824
113	0xbd43ae2e	-0.047773533
114	0xbd922d10	-0.07137501
115	0xbcdebe6b	-0.027190408
116	0xbd7c174a	-0.061545648
117	0x3bad9765	0.0052975887
118	0xbd3bb92b	-0.045830887
119	0x3cf0312b	0.02932032
120	0xbddf9694	-0.109173924
121	0x3d52dacc	0.051478192
122	0xbca170d8	-0.019707128
123	0xbc9f2863	-0.019428438
124	0xbbc3493e	-0.005959659
125	0x3d174ab2	0.03693647

hidden_layers.1.weight f4 [64, 126]
0	0x3da10f31	0.07864226
1	0xbdf2f009	-0.11862189
2	0x3dd48eb6	0.103787825
3	0x3e9f53d5	0.31118646
4	0x3ea9d472	0.33169895
5	0xbde43420	-0.111427546
6	0xbdfbbb7f	-0.122916214
7	0xbed95f90	-0.4245572
8	0xbed026d7	-0.40654632
9	0x3e118e4e	0.14214441
10	0x3db12312	0.08649267
11	0x3dc68700	0.09693718
12	0x3ec0c7b9	0.37652376
13	0x3ea024d0	0.31278086
14	0xbe648e89	-0.22319998
15	0x3e7b1d20	0.24522829
16	0xbca7ef74	-0.020499922
17	0x3d9f9835	0.07792703
18	0x3d476d48	0.048688203
19	0x3e32b2ba	0.17450991
20	0xbcafdf71	-0.02146885
21	0x3e0f423e	0.13990113
22	0x3e0a297d	0.13492389
23	0xbc7c82dd	-0.01541206
24	0xbefcc99e	-0.49372572
25	0xbe523a3d	-0.20530029
26	0xbe98ba00	-0.29829407
27	0x3dd8f121	0.10592867
28	0x3d4fb96c	0.05071394
29	0x3dda7290	0.10666382
30	0x3d81099b	0.0630066
31	0x3cc4a461	0.024004163
32	0x3da68bd4	0.08132139
33	0x3e1bf2c0	0.1522932
34	0xbe60b920	-0.2194562
35	0xbe8e833f	-0.27834508
36	0xbe0d15be	-0.13777825
37	0xbd8ae2b4	-0.067815214
38	0x3e07ab93	0.13249044
39	0x3e8dd86f	0.27704188
40	0xbda684aa	-0.081307724
41	0xbe83f779	-0.25774744
42	0xbe0f3479	-0.1398486
43	0x3e33038f	0.17481826
44	0xbcf74f46	-0.030189168
45	0xbd12538a	-0.0357242
46	0x3e024247	0.12720595
47	0x3d9b3438	0.07578319
48	0x3d8f9e81	0.07012654
49	0x3d12a001	0.035797123
50	0x3ecfc174	0.4057728
51	0x3e34911e	0.17633483
52	0x3e082242	0.13294318
53	0xbd388a13	-0.045053553
54	0x3e35711d	0.1771893
55	0x3b9f2498	0.0048566572
56	0x3e3d05e5	0.1845928
57	0x3eb05514	0.3443991
58	0xbd4c38f4	-0.049859002
59	0x3e3c078e	0.18362257
60	0x3e1d5ee8	0.15368235
61	0x3e0bc629	0.13649811
62	0x3dcf0a18	0.10109347
63	0x3eae22ff	0.34011075
64	0x3d2195b9	0.039449427
65	0x3e95eae2	0.29280764
66	0xbde9792f	-0.11400067
67	0xb87ba76b	-5.9998983e-05
68	0x3dd2833d	0.10278938
69	0xbd6050a8	-0.05476442
70	0xbd93765b	-0.07200309
71	0xbc91a2c8	-0.017777815
72	0xbdc0b348	-0.09409195
73	0xbf1d1db0	-0.61373425
74	0x3d0f7b41	0.035029653
75	0x3e06207c	0.1309833
76	0x3d9b355a	0.075785354
77	0xbdca401f	-0.098755114
78	0xbde34832	-0.110977545
79	0x3e0b44c2	0.13600448
80	0xbd80907f	-0.062775604
81	0xba56c7b1	-0.00081932085
82	0x3e63250f	0.22182105
83	0xbed2023c	-0.4101733
84	0xbe05b9d4	-0.13059169
85	0x3e555dec	0.2083661
86	0xbdc15730	-0.09440458
87	0x3e811f5a	0.25219232
88	0xbd98796f	-0.074450366
89	0x3d2d79ee	0.04235261
90	0x3e847607	0.25871298
91	0x3ddcadfe	0.10775374
92	0xbe879c0f	-0.2648625
93	0xbe197b97	-0.14988552
94	0xbc89b916	-0.016811889
95	0x3cfa94c9	0.030588524
96	0xbdff2be3	-0.124595426
97	0x3dc1e19e	0.09466861
98	0x3e81ff62	0.25390154
99	0xbe7b4ddb	-0.24541418
100	0xbd1db758	-0.03850493
101	0x3cd708f3	0.026249385
102	0xbdd6a4f7	-0.10480683
103	0x3e450d43	0.1924334
104	0x3d44b224	0.04802145
105	0x3dc60ce4	0.096704274
106	0x3c140d54	0.009036381
107	0xbe80bf5e	-0.25146002
108	0x3e259bcd	0.16172715
109	0xbd902d06	-0.070398375
110	0x3e073867	0.1320511
111	0x3e2bb46f	0.16768049
112	0x3d75f93e	0.06005215
113	0x3e6a9978	0.22910106
114	0x3dec645f	0.11542582
115	0x3e9a1f42	0.30101973
116	0x3e16c1ee	0.14722416
117	0x3b9034b9	0.0044008163
118	0x3e4383cb	0.19093244
119	0xbc59d9c0	-0.013296545
120	0x3e3b9877	0.1831988
121	0x3e2380f9	0.15967168
122	0xbea61b89	-0.32442883
123	0xbe6c49cb	-0.23075025
124	0x3e28b1c2	0.16474059
125	0xbd863452	-0.06552948
126	0x3e9a1685	0.30095306
127	0x3df4993d	0.119432904
128	0xbda46c57	-0.08028477
129	0x3e354afd	0.17704387
130	0x3e1a3a18	0.15061224
131	0x3e285377	0.1643809
132	0xbdc68ded	-0.09695039
133	0xbea3c1ac	-0.31983697
134	0x3d0191d5	0.031633217
135	0xbdcd2a91	-0.100178845
136	0x3e9dee86	0.3084604
137	0x3ca3217b	0.019913426
138	0x3d0f245a	0.034946777
139	0x3df78fdf	0.12087988
140	0xbea8c857	-0.32965347
141	0x3e266061	0.16247703
142	0x3ec05994	0.37568343
143	0xbe440a90	-0.19144654
144	0x3e657beb	0.22410552
145	0x3d57ebfb	0.052715283
146	0x3e1060d7	0.14099441
147	0x3d04eb18	0.032450765
148	0x3ea3ff2c	0.32030618
149	0x3c8985bb	0.0167874
150	0xbf112283	-0.56693286
151	0xbd455c9f	-0.048184033
152	0x3e3279cd	0.17429276
153	0x3e0912d0	0.13386083
154	0xbc820052	-0.015869293
155	0x3e0944b7	0.13405119
156	0x3e42fb41	0.19041158
157	0x3e950a58	0.29109454
158	0xbe3edfc0	-0.18640041
159	0xbd903ec0	-0.070432186
160	0x3d7128e5	0.05887689
161	0x3ea394f2	0.31949574
162	0x3e98a034	0.29809725
163	0x3ec45649	0.3834708
164	0x3dca1aab	0.09868368
165	0x3d9c6b6e	0.07637678
166	0xbd92e09e	-0.071717486
167	0x3ef576e1	0.4794226
168	0x3e878ccb	0.26474604
169	0x3e503eb0	0.20336413
170	0xbe756994	-0.23966056
171	0x3cdbc685	0.02682806
172	0x3e6ecb1a	0.23319665
173	0x3e333060	0.17498922
174	0x3db0afe7	0.08627301
175	0x3de8796d	0.11351285
176	0xbe6f268d	-0.2335455
177	0x3eafd7b5	0.3434426
178	0x3e2220aa	0.15832773
179	0xbe32313b	-0.17401592
180	0x3e8307e2	0.25591952
181	0x3d0d60d4	0.03451617
182	0x3e7266de	0.23672053
183	0x3e11bce5	0.14232214
184	0x3c0c1450	0.008549765
185	0xbd936b1d	-0.071981646
186	0x3e0aa1e5	0.1353832
187	0xbd14b3f3	-0.036304425
188	0x3d82aaef	0.06380259
189	0xbc8a3e5c	-0.016875438
190	0x3e462eea	0.19353834
191	0x3e8c10be	0.27356523
192	0x3deeb955	0.11656443
193	0x3e9c42ab	0.30519614
194	0x3d977a48	0.0739637
195	0x3e0cb653	0.13741426
196	0x3e1ea6a2	0.15493253
197	0x3e5b9ac4	0.21445757
198	0xbea00449	-0.3125327
199	0x3ea25eae	0.3171286
200	0x3ce6a94d	0.0281569
201	0x3c4fe60c	0.012689125
202	0x3cfd705b	0.030937364
203	0xbcbf4318	-0.023347422
204	0x3e3533f1	0.17695595
205	0x3e9063ee	0.2820124
206	0x3e3c4d80	0.18388939
207	0xbd0a9cdf	-0.03384101
208	0x3df64579	0.120249696
209	0xbd6d1eab	-0.057890575
210	0x3da9bcc6	0.08287959
211	0xbe18c628	-0.1491934
212	0x3db108aa	0.08644231
213	0x3c5177f2	0.012784945
214	0xbcc090cd	-0.023506546
215	0x3e395c77	0.18101679
216	0x3d2d012e	0.042237453
217	0x3e9b3ae4	0.30318367
218	0x3d6b8ca3	0.05750717
219	0x3e8fb37f	0.28066632
220	0x3e0a5d76	0.13512215
221	0xbe0098e7	-0.12558328
222	0x3debe7f9	0.11518855
223	0x3e987f24	0.297845
224	0x3e1bea62	0.15226129
225	0x3e98d211	0.29847768
226	0x3e865166	0.26233977
227	0xbbe4a1f1	-0.0069773127
228	0xbde4d91f	-0.11174225
229	0x3e77e202	0.24207309
230	0x3e92abcf	0.28646705
231	0x3e2d78ca	0.16940609
232	0x3e32f8ec	0.17477769
233	0x3d3c7b39	0.04601595
234	0x3e40045d	0.18751664
235	0xbced8463	-0.028993791
236	0xbe01df22	-0.12682775
237	0x3e116146	0.14197263
238	0x3e6a48f1	0.22879387
239	0x3ec11732	0.3771301
240	0x3da97b48	0.08275467
241	0x3e41af57	0.18914543
242	0x3ec4f848	0.38470674
243	0x3de0260a	0.109447554
244	0x3ea92f9c	0.33044136
245	0x3bdd0ebc	0.0067461412
246	0xbd3b3589	-0.045705352
247	0x3d382175	0.044953782
248	0xbeb2e0e3	-0.349372
249	0xbd1df69b	-0.03856526
250	0x3e1b1d46	0.15147886
251	0x3e7457e4	0.23861653
252	0x3e261fc2	0.16223052
253	0xbcea0b23	-0.028569764
254	0xbd23cc17	-0.039989557
255	0x3e386e37	0.18010794

hidden_layers.1.bias f4 [64]
0	0x3df20bdc	0.11818668
1	0x3e99ff6e	0.3007769
2	0x3d4177f8	0.04723355
3	0x3de61cca	0.1123596
4	0x3d95233f	0.07282113
5	0xbdbf2bd1	-0.09334529
6	0x3de46618	0.11152285
7	0xbdee4761	-0.11634708
8	0x3dc09021	0.094024904
9	0x3ca7dccc	0.020491026
10	0xbb97e4a1	-0.004635409
11	0xbc2d1539	-0.010564142
12	0x3d59a6d6	0.053137623
13	0x3e105613	0.14095335
14	0x3e03e6d1	0.12881018
15	0x3dc175e4	0.09446314
16	0xbddd3fe1	-0.108031996
17	0x3c3dad73	0.011576998
18	0x3c8296bd	0.015941018
19	0xbd10f23b	-0.03538726
20	0xbd694209	-0.05694774
21	0x3ca247a9	0.01980956
22	0xbe092c70	-0.13395858
23	0x3cbca8b5	0.023029665
24	0x3dbb110c	0.09134111
25	0xbd501dcf	-0.050809678
26	0x3d96e6a4	0.0736821
27	0x3daace9f	0.08340191
28	0x3d752ddd	0.05985819
29	0x3da10256	0.07861774
30	0x38b62bdd	8.6866065e-05
31	0xbded4916	-0.11586206
32	0x3d747242	0.059679277
33	0xbcf71b09	-0.030164259
34	0x3da352f4	0.079748064
35	0x3e026db7	0.12737165
36	0x3e0ee316	0.13953814
37	0x3d282a44	0.041055933
38	0xbddef4d8	-0.10886544
39	0xbdd2c39e	-0.10291217
40	0x3a8f182b	0.0010917237
41	0x3b9eacc5	0.004842373
42	0x3e3f9f38	0.18713081
43	0xbe320a70	-0.17386794
44	0xbd3f00d3	-0.046631645
45	0x3d217434	0.03941746
46	0xbc1c0ac2	-0.009524049
47	0x3e156238	0.14588249
48	0x3c155450	0.00911434
49	0xbcce08ee	-0.025150742
50	0x3dbda06d	0.092591144
51	0x3e33937b	0.17536728
52	0xbd51d87f	-0.051231857
53	0xbecb3097	-0.3968551
54	0x3e7164dc	0.23573631
55	0x3e0578fd	0.13034435
56	0xbc1e3d78	-0.00965821
57	0xbe09c9fb	-0.13455956
58	0x3cbf3ff1	0.02334592
59	0xbdfb25f4	-0.12263098
60	0x3d9e0c3f	0.077171795
61	0xbcd9d292	-0.026589666
62	0x3dae15e8	0.08500272
63	0x3d76db62	0.060267814

hidden_layers.2.weight f4 [32, 64]
0	0x3e4abaea	0.19797865
1	0x3e323ec9	0.17406763
2	0x3e4bc596	0.19899592
3	0x3bb57749	0.0055379015
4	0xbcaaf6c1	-0.020869615
5	0xbeef7563	-0.46769246
6	0x3ee4c94e	0.44684833
7	0xbccf6408	-0.025316253
8	0x3e94aff4	0.29040492
9	0x3d624aa8	0.05524698
10	0x3cf0c3d2	0.02939025
11	0x3ddd8538	0.10816425
12	0xbe84419a	-0.258313
13	0xbeb2983d	-0.34881774
14	0xbc243f2d	-0.010024828
15	0xbe14b82f	-0.14523385
16	0x3f66926c	0.9006717
17	0xbf351c6b	-0.7074649
18	0x3e94c789	0.29058483
19	0x3e243395	0.16035302
20	0xbd35bd46	-0.04436996
21	0xb8663f79	-5.4895387e-05
22	0xbdd135c6	-0.102153346
23	0xbdf73cde	-0.12072156
24	0xbde32657	-0.11091297
25	0xbece10d2	-0.40247208
26	0xbf2e316a	-0.6804415
27	0x3ecd571f	0.4010553
28	0x3e9a911c	0.30188835
29	0x3d4054bd	0.046955813
30	0xbf57a0c8	-0.8422971
31	0xbf4c1f07	-0.79734844
32	0xbce49c52	-0.02790657
33	0xbf44e378	-0.7690959
34	0xbba45072	-0.0050144726
35	0x3f7a7869	0.9783998
36	0xbc60c165	-0.013717984
37	0xbe6b6180	-0.22986412
38	0x3ea0fb6b	0.31441817
39	0xbe73023b	-0.2373132
40	0x3f093a2f	0.53604406
41	0x3ec42be7	0.38314745
42	0x3e9bc46f	0.30423304
43	0x3e8b556e	0.27213615
44	0x3efa8c00	0.48934937
45	0x3e9a7303	0.30165872
46	0xbe9e8250	-0.30958796
47	0x3e813c83	0.2524148
48	0xbcc83f0e	-0.02444413
49	0x3ee4c1e8	0.4467919
50	0x3daaf223	0.08346965
51	0xbd39b772	-0.045340963
52	0x3e3350ac	0.17511243
53	0x3f38fbc8	0.7225919
54	0x3f429ca0	0.7602024
55	0xbe3ce1cf	-0.18445514
56	0xbf699933	-0.9124939
57	0x3df58086	0.119874045
58	0xbed5b0cd	-0.4173645
59	0xbf569acc	-0.8382995
60	0x3d73741c	0.059436902
61	0xbf476fe8	-0.7790513
62	0xbdbee861	-0.093216665
63	0x3db0ee2f	0.0863918
64	0x3d4101be	0.047120802
65	0x3e5806b1	0.21096303
66	0xbbe56bb9	-0.007001367
67	0x3e855837	0.26043865
68	0xbe598fcb	-0.21246259
69	0xbe64489a	-0.2229332
70	0xbcb64f4e	-0.022254612
71	0x3f2b1dbc	0.66842246
72	0x3e42d660	0.1902709
73	0x3d0a5177	0.033769097
74	0x3d51d417	0.051227655
75	0x3db765c0	0.08954954
76	0xbf48afda	-0.7839333
77	0xbf52fe1f	-0.8241901
78	0x3cb0b385	0.021569977
79	0x3ebaf7d3	0.365172
80	0x3ef9e1e0	0.4880514
81	0xbe4559f1	-0.19272591
82	0x3e295de1	0.16539718
83	0x3e0fe7b4	0.14053231
84	0x3e724fdb	0.23663275
85	0x3ec78bd7	0.38973877
86	0xbf9b5544	-1.2135396
87	0xbe379d07	-0.17930995
88	0xbe726fca	-0.23675457
89	0x3e5dd96e	0.21664974
90	0x3e4b0ff9	0.19830312
91	0xbedca298	-0.430928
92	0xbe448486	-0.19191179
93	0x3e995026	0.2994396
94	0xbe7fd776	-0.24984536
95	0xbee25f1f	-0.44213197
96	0x3e479911	0.19491984
97	0xbdce6087	-0.10077005
98	0xbe4878c0	-0.19577312
99	0x3e112b6d	0.14176722
100	0xbf033959	-0.5125938
101	0xbee74d26	-0.45176047
102	0x3e4846c9	0.19558252
103	0x3eb5586c	0.35419023
104	0x3d8ea3b1	0.069648154
105	0xbf2ba214	-0.67044187
106	0x3ca81b29	0.020520763
107	0x3f0bbc64	0.54584336
108	0x3e3044e0	0.17213774
109	0xbd4a65fa	-0.04941366
110	0xbde7d500	-0.113199234
111	0xbe9e4a3f	-0.3091602
112	0x3e496b06	0.19669732
113	0x3dceeb77	0.10103505
114	0x3f3ee327	0.74565357
115	0xbf564838	-0.8370395
116	0xbe7a6af8	-0.24454868
117	0x3e8edc06	0.2790224
118	0x3f46865c	0.77548766
119	0x3e2bae8d	0.16765805
120	0xbe9153af	-0.28384158
121	0x3eb8ef6c	0.36120164
122	0xbf3705ce	-0.7149323
123	0xbf074829	-0.5284448
124	0x3e6dc0ec	0.23218125
125	0xbe0d53c8	-0.13801491
126	0xbe320203	-0.1738358
127	0x3d6e889a	0.058235742
128	0x3cd4b15c	0.025963478
129	0x3d20d420	0.0392648
130	0xbe0962e5	-0.13416632
131	0x3eea64e7	0.45780107
132	0x3e7dcd2c	0.24785298
133	0x3e4aad70	0.19792724
134	0x3ee22620	0.44169712
135	0x3dbc69e1	0.09199882
136	0x3e6960bb	0.22790806
137	0x3f426d80	0.75948334
138	0xbd2e4ace	-0.042551808
139	0x3e9a2421	0.3010569
140	0xbe204dd6	-0.15654692
141	0x3f26c229	0.65140015
142	0x3d987c92	0.07445635
143	0x3e883e73	0.26610145
144	0x3e9a59e2	0.301467
145	0x3f0c5032	0.5480987
146	0xbd9190e5	-0.071077146
147	0xbc957058	-0.018242046
148	0x3f03df42	0.5151254
149	0xbd271fb8	-0.040801734
150	0xbe90192a	-0.281442
151	0xbf256e31	-0.64621264
152	0xbee13572	-0.43986088
153	0x3dbe745a	0.09299536
154	0x3ececaea	0.40389186
155	0xbebf1a01	-0.37324527
156	0x3e4d0e26	0.20024928
157	0x3e9dc351	0.30813077
158	0xbe704dae	-0.23467132
159	0x3da29986	0.079394385
160	0x3eccad24	0.39975846
161	0x3e07a881	0.13247873
162	0xbe80307d	-0.25036994
163	0xbe812c83	-0.25229272
164	0x3e0cd2eb	0.13752334
165	0x3eb3bd56	0.3510539
166	0x3ef10c7f	0.47079846
167	0x3ef30295	0.47462907
168	0xbe849161	-0.25892165
169	0xbe09676a	-0.13418356
170	0xbcc2909f	-0.023750601
171	0x3e002e18	0.12517583
172	0xbbc9b886	-0.00615603
173	0xbeb38501	-0.3506241
174	0xbe23b432	-0.15986708
175	0xbdecc670	-0.115612864
176	0xbf0626c1	-0.52402884
177	0xbe125906	-0.14291772
178	0x3e951eae	0.2912497
179	0xbe6fb556	-0.23409018
180	0x3b4b2077	0.0030994692
181	0xbf012427	-0.5044579
182	0x3e2de904	0.1698342
183	0x3e7bfff0	0.24609351
184	0x3d8bd51a	0.06827755
185	0xbf00033d	-0.5000494
186	0x3deaced9	0.11465234
187	0xbe3a4e77	-0.18193994
188	0x3e629f12	0.22130993
189	0x3e2a4045	0.1662608
190	0xbe1e9ccb	-0.154895
191	0x3e51814b	0.20459478
192	0xbd3ec7de	-0.046577327
193	0x3e82bdc4	0.25535405
194	0xbe97aa39	-0.29622057
195	0xbed51ff9	-0.41625956
196	0x3cf95724	0.03043706
197	0x3f056a59	0.521154
198	0x3b8136bc	0.0039432924
199	0x3d2bc6e6	0.04193773
200	0xbe89cda4	-0.26914704
201	0xbc76f505	-0.015073066
202	0x3e053e9b	0.13012163
203	0x3e8f5840	0.27997017
204	0x3e78bad5	0.24290021
205	0x3f5f58f2	0.87245095
206	0x3e04d46e	0.1297166
207	0x3ec408ce	0.38287967
208	0xbf176646	-0.5914043
209	0x3f322ea0	0.69602394
210	0xbe833752	-0.25628144
211	0x3db0e497	0.0863735
212	0xbd3ce95e	-0.046120994
213	0x3e3e1037	0.18560873
214	0x3e0b2ab2	0.13590506
215	0x3eb714e9	0.3575814
216	0x3ee10adf	0.43953606
217	0x3ea6586e	0.32489341
218	0x3f3f923a	0.748325
219	0xbed3fc09	-0.41403225
220	0xbe1338ee	-0.14377186
221	0xbdd14842	-0.1021886
222	0x3f5905a5	0.8477424
223	0x3f97d9f3	1.1863388
224	0x3ef91132	0.4864593
225	0x3f42127c	0.75809455
226	0x3e1e5498	0.15461957
227	0xbf41f27b	-0.7576062
228	0x3ef1b074	0.47204936
229	0x3f1040e4	0.56349015
230	0x3e84684e	0.25860828
231	0x3e98408e	0.2973675
232	0xbeff0dd4	-0.49815238
233	0x3e0f9671	0.14022233
234	0x3e11f667	0.14254151
235	0xbedcc072	-0.43115574
236	0xbe29f910	-0.16598916
237	0xbf0b98f1	-0.54530245
238	0x3cb23542	0.02175391
239	0x3d08feb6	0.033446036
240	0xbe8515f0	-0.259933
241	0xbd6cfb7a	-0.057857014
242	0xbf0665f3	-0.5249931
243	0x3e82a16b	0.25513777
244	0x3d467fe1	0.0484618
245	0xbf55b7b6	-0.83483446
246	0xbf1da8de	-0.61585796
247	0x3e598687	0.21242724
248	0x3f1e4463	0.618231
249	0x3d43968c	0.047750995
250	0x3ec0b7ab	0.37640128
251	0x3f843a92	1.0330374
252	0x3dd55fea	0.10418685
253	0x3f70c794	0.9405453
254	0x3f32c1d0	0.69826984
255	0x3e309175	0.17242987

hidden_layers.2.bias f4 [32]
0	0x3cad3798	0.021144673
1	0x3e1f3e48	0.15551102
2	0x3e485c51	0.19566466
3	0xbcc7682a	-0.024341661
4	0x3b318da6	0.0027092486
5	0x3db963d0	0.09052241
6	0x3de0f0e5	0.10983447
7	0x3e1b8ae9	0.15189709
8	0x3dd01c03	0.10161593
9	0x3e89a613	0.26884517
10	0x3dc51e08	0.09624869
11	0x3d8ea4bc	0.06965014
12	0xb9ea3e46	-0.00044678355
13	0x3e75cfe3	0.24005084
14	0x3d4340a9	0.047669087
15	0x3decf87b	0.115708314
16	0x3df96e26	0.12179212
17	0x3bae947a	0.0053277584
18	0x3df26d0a	0.11837204
19	0x3dd9d23f	0.106358044
20	0xbb3e044c	-0.002899426
21	0x3e3872a7	0.18012486
22	0x3d49f988	0.049310237
23	0x3d8d2e72	0.06893624
24	0xbdab8b9e	-0.08376239
25	0x3dcc526a	0.09976657
26	0x3d706b7e	0.058696263
27	0x3d53da9e	0.05172216
28	0x3e11a508	0.1422311
29	0x3d5f0a22	0.054453023
30	0x3e9b73ec	0.3036188
31	0xbd9a36eb	-0.07530006

output_layer.weight f4 [4, 32]
0	0xbed6ac2e	-0.41928238
1	0xbf9d7ee4	-1.2304349
2	0x3f8d6ece	1.104944
3	0x3f4117d4	0.75426984
4	0x3f93bdd8	1.1542311
5	0x3e11d084	0.14239699
6	0x3e21622a	0.15760103
7	0xbf94ef50	-1.1635532
8	0xbf383e94	-0.71970487
9	0xbf375d3c	-0.7162664
10	0xbf6c977b	-0.9241864
11	0xbf7fd2fd	-0.9993132
12	0x3f47df98	0.7807555
13	0x3ca5ed7b	0.020254841
14	0xbdf699a3	-0.12041023
15	0x3db9d7d2	0.090743676
16	0xbe37bb80	-0.1794262
17	0x3f94ae75	1.161574
18	0x3f781557	0.9690756
19	0x3f9d672e	1.2297113
20	0xbe0d93e6	-0.1382595
21	0x3fb683a2	1.4258921
22	0xbfa05343	-1.252541
23	0xbed6c3ff	-0.41946408
24	0xbf8c763d	-1.0973583
25	0x3f24c2a9	0.6435953
26	0xbe07f31a	-0.1327633
27	0x3f2b694f	0.66957563
28	0xbf66b2fb	-0.9011685
29	0x3d1115a7	0.03542104
30	0x3ea03ee3	0.3129798
31	0xbf1e7c14	-0.6190808
32	0x3ee6b455	0.45059457
33	0xbede44b0	-0.4341178
34	0xbee51f07	-0.44750234
35	0xbf2204e3	-0.63288707
36	0xbeb03f75	-0.34423414
37	0x3da4774f	0.08030569
38	0x3f9902d7	1.1953992
39	0xbef84cf8	-0.48496222
40	0x3f105ff8	0.56396437
41	0x3fb96877	1.4485005
42	0xbf31f3c2	-0.6951257
43	0xbe496d42	-0.19670585
44	0x3f28cf55	0.65941364
45	0xbf21f713	-0.6326763
46	0x3f0f84ac	0.56061816
47	0xbfcf0d8d	-1.617601
48	0x3f53bd67	0.8271088
49	0xbdf15e89	-0.11785609
50	0x3d53e31f	0.05173027
51	0xbf5d0cc5	-0.8634761
52	0xbf7530d5	-0.95777637
53	0x3f53baa0	0.8270664
54	0x3f4dfd00	0.8046417
55	0x3f872fef	1.0561503
56	0xbf160a58	-0.58609533
57	0x3f549e2b	0.83053845
58	0xbf45379c	-0.7703798
59	0x3f74519f	0.95437044
60	0xbe7cdf0e	-0.24694464
61	0xbf1fb4ea	-0.6238543
62	0x3f380f8f	0.7189874
63	0x3e92e40a	0.28689605
64	0xbfa68723	-1.300999
65	0xbf0bfa74	-0.54679036
66	0xbea6e6b2	-0.32597882
67	0x3f2b78d3	0.6698124
68	0x3f07f53c	0.5310857
69	0x3f6b2fd6	0.91869867
70	0x3f3077d7	0.6893286
71	0x3c1ea812	0.009683626
72	0xbfa1b2c9	-1.2632686
73	0x3ef0da7d	0.47041693
74	0xbea1dd91	-0.31614354
75	0xbfb41113	-1.4067711
76	0x3f89c4bf	1.0763167
77	0x3f0713b4	0.5276444
78	0x3e5ac6b3	0.2136486
79	0x3e9d4e64	0.3072387
80	0x3dae7b87	0.08519655
81	0xbee75d5e	-0.4518842
82	0x3d2a8a73	0.04163594
83	0xbeb85523	-0.36002454
84	0xbf927a66	-1.1443603
85	0xbf53ed14	-0.8278363
86	0xbf19eb59	-0.6012474
87	0x3f755c0a	0.95843565
88	0x3f43dce1	0.7650891
89	0xbec8bba9	-0.39205673
90	0x3f587959	0.8456016
91	0xbeba1ea1	-0.36351493
92	0x3fb7b39e	1.435169
93	0xbf6912d0	-0.9104433
94	0xbf97fe0f	-1.1874408
95	0x3e995fff	0.29956052
96	0x3ea54331	0.32277825
97	0xbf98c218	-1.1934233
98	0xbf6f1aa4	-0.93400025
99	0x3e9a603e	0.30151552
100	0xbe9d8957	-0.30768844
101	0xbf8ff52a	-1.1246693
102	0x3eef0897	0.4668624
103	0xbf0a4ace	-0.5402039
104	0x3f70b48d	0.940255
105	0xbe5fcb77	-0.2185496
106	0xbf71c76f	-0.94444937
107	0xbe7d77f9	-0.24752797
108	0x3e939261	0.28822616
109	0x3f5b0717	0.85557693
110	0x3f8ddf50	1.1083775
111	0xbf526d33	-0.82197875
112	0xbf93de02	-1.1552126
113	0xbf388366	-0.720755
114	0xbfeae2e8	-1.8350496
115	0xbf33fd0d	-0.70308
116	0xbd99940d	-0.074989416
117	0xbf1eece9	-0.62080246
118	0x3fa4f0ae	1.288595
119	0x3eecdcae	0.46262115
120	0xbf04659a	-0.5171753
121	0x3eed359d	0.46329966
122	0x3f62ddff	0.8861999
123	0x3df2bc6c	0.11852345
124	0x3ec737d1	0.38909772
125	0x3f6056e0	0.8763256
126	0xbf5626c1	-0.83652884
127	0xbfbefd40	-1.4921036

output_layer.bias f4 [4]
0	0x3e81853d	0.25296965
1	0xbdf2bb8a	-0.118521765
2	0x3d8c4455	0.06848971
3	0xba60a988	-0.0008570184
