checkpoint_critic.pth (torch, 91922 bytes, 9 tensors)

fcs1.weight f4 [128, 33]
0.6135296 0.14543718 0.09776655 0.07750275 0.09709758 0.018609302 0.027252221 -0.0312392
-0.09011899 0.071001746 -0.02369452 0.007112398 0.044958204 -0.8706329 -0.11627871 -0.053955045
0.16050464 -0.083632156 0.1318792 -0.06229507 0.01121119 -0.048735157 0.058100455 -0.26467264
-0.009257335 0.027176969 0.5233306 0.057780422 0.040851224 -0.029063972 0.02712516 0.054413382
-1.5970858 -0.6864026 -0.1865254 0.006940651 -0.24078618 -0.44387066 0.6249263 -0.4850781
-0.47577378 0.5028243 0.32397646 -0.07719908 0.5539092 0.18932268 -0.18667705 0.3237677
0.14593343 -0.38700774 -0.4189261 -0.38094223 -0.4614256 -0.019311806 0.14574458 -0.62269557
-0.8530193 -0.42458978 0.40545025 0.29076153 0.09759932 -0.33008406 -0.07460441 -0.24528176
-0.05356247 0.15604806 -0.17466982 0.4309044 0.13175213 -0.12428351 0.37180418 -0.18674845
0.12845676 -0.043083187 0.28641385 -0.15670906 -0.123632856 -0.061230056 0.089086175 -0.15743096
0.021241898 0.3033546 -0.04971352 -0.21220025 -0.010450839 0.15672003 0.13834156 -0.006737642
0.011212781 -0.26497725 0.0017644066 -0.0114292735 -0.25151387 0.3824491 -0.26618886 -0.04137026
-0.50211024 0.08173207 -3.1566741 -0.4683649 0.5529579 0.32078454 -0.10756041 -0.4726658
-0.20900387 0.12296168 -0.11046703 -0.013711269 0.124513865 -0.032708794 0.07436643 -0.072500885
0.76261187 -0.3238957 -0.5488158 -0.0075898007 -0.019826997 0.029243914 -0.017358895 -0.02625244
-0.021210266 -0.016030643 0.25177115 -0.11859875 -0.11568454 -0.34032416 -0.28719947 0.2608903
0.060979165 0.21226138 0.0040414613 -0.32539406 -0.78746784 -0.5082519 -0.7588065 0.27077213
-0.4026613 -0.3852818 0.101038136 0.05891966 -0.1893412 0.28389668 -0.08708911 -0.0023827148
-0.017396905 0.13391368 0.6724856 0.1677959 -0.17245823 0.01423227 0.24594176 0.117906615
0.065001324 -0.044900227 -0.4161255 0.29319996 0.15593198 0.09425481 0.55000204 0.0636031
0.30458772 0.022174183 -0.11906523 0.02574947 0.01729233 0.015498819 0.29397157 0.11504564
-0.19472961 0.42717743 0.021558587 0.35372484 0.04446883 0.2399364 0.13403547 0.013890793
0.2245579 -0.21855357 -0.025870368 -0.035153113 0.0917679 0.41422224 0.38772142 0.063746676
0.29975355 0.11398998 0.27865165 0.13828374 -0.74264246 0.027850611 -0.48031297 -0.51238996
0.90725535 -0.5120778 -0.056320738 -0.8225184 0.052510347 -0.5862 -0.17458102 -0.2489499
-0.26107222 0.2584875 0.29430893 0.33358663 -0.39618888 0.065493345 0.025530046 0.17808819
0.2032234 0.16389501 -0.104092635 -0.25667766 0.56769824 0.31446946 0.07179394 0.24993634
0.08933538 0.2092665 0.2158519 0.100507624 -0.33561197 -0.53173006 -0.11387256 0.07135961
-0.36187974 -0.119833425 -0.27500102 0.07794542 0.05297519 -0.06331013 -1.9186416 -0.5854166
0.5478214 -0.34503257 -0.13031915 -0.4871128 0.42464375 -0.5387382 -0.06932567 0.49380305
-0.18639365 0.18775612 -0.116783686 0.06871043 0.46049175 -0.40565643 0.48512283 -0.03665899
-0.020477083 -0.44504178 -0.42572084 -0.11934552 0.4809393 -0.13460092 0.5329327 -0.15691611
00000000: 4710 1d3f 7ced 143e d439 c83d c3b9 9e3d
00000010: 19db c63d 8972 983c 0d40 df3c 5ae9 ffbc
00000020: 4e90 b8bd 5d69 913d 031b c2bc 1e0f e93b
00000030: 1826 383d cce1 5ebf 8823 eebd f7ff 5cbd
00000040: 545b 243e 5647 abbd 570b 073e 1e29 7fbd
00000050: 24af 373c 849e 47bd befa 6d3d 2c83 87be
00000060: 14ac 17bc 3ca2 de3c fff8 053f 2aab 6c3d
00000070: 9d53 273d 9117 eebc 9535 de3c 91e0 5e3d
00000080: 4f6d ccbf 15b8 2fbf 8400 3fbe 676e e33b
00000090: a790 76be 0443 e3be 2cfb 1f3f 285c f8be
000000a0: 9f98 f3be 18b9 003f 3ee0 a53e 8d1a 9ebd
000000b0: fecc 0d3f cedd 413e 4528 3fbe e1c4 a53e
000000c0: 936f 153e e125 c6be 7b7d d6be dc0a c3be
000000d0: fa3f ecbe cb33 9ebc 113e 153e fa68 1fbf
000000e0: 795f 5abf d563 d9be 2d97 cf3e b2de 943e
000000f0: 27e2 c73d c700 a9be 32ca 98bd 242b 7bbe
00000100: 5264 5bbd 10cb 1f3e a5dc 32be 809f dc3e
00000110: 08ea 063e 5a88 febd 1e5d be3e fc3a 3fbe
00000120: 2b8a 033e ff77 30bd d6a4 923e 5778 20be
00000130: 3933 fdbd 5ecc 7abd d072 b63d 9535 21be
00000140: 7d03 ae3c 4b51 9b3e 67a0 4bbd 064b 59be
00000150: ff39 2bbc 377b 203e 69a9 0d3e 70c7 dcbb
00000160: d0b5 373c 19ab 87be a943 e73a d941 3bbc
00000170: 6dc6 80be 5ed0 c33e e849 88be dd73 29bd
00000180: 4c8a 00bf 2563 a73d f306 4ac0 86cd efbe
00000190: a68e 0d3f df3d a43e a248 dcbd 4001 f2be
000001a0: 1c05 56be 55d3 fb3d 8a3c e2bd 3ba5 60bc
000001b0: 2001 ff3d a8f9 05bd 6d4d 983d 587b 94bd
000001c0: 883a 433f a8d5 a5be 317f 0cbf ddb3 f8bb
000001d0: 3a6c a2bc ef90 ef3c 3e34 8ebc 5b0f d7bc
000001e0: 27c1 adbc b252 83bc 26e8 803e e7e3 f2bd
000001f0: 04ec ecbd f83e aebe cf0b 93be 6a93 853e
00000200: 4ac5 793d 0c5b 593e 3c6e 843b 0d9a a6be
00000210: 7e97 49bf cc1c 02bf 2541 42bf a5a2 8a3e
00000220: 9f29 cebe a843 c5be 15ed ce3d be55 713d
00000230: a9e2 41be e85a 913e c65b b2bd 5227 1cbb
00000240: f483 8ebc ab20 093e 0428 2c3f b0d2 2b3e
00000250: e498 30be 782e 693c 28d8 7b3e 0679 f13d
00000260: 6a1f 853d 4de9 37bd 670e d5be 4e1e 963e
00000270: a2ac 1f3e aa08 c13d efcc 0c3f 5842 823d
00000280: ecf2 9b3e a2a6 b53c 79d8 f3bd 8df0 d23c
00000290: a5a8 8d3c c2ee 7d3c 7183 963e 0c9d eb3d
000002a0: 3367 47be 00b7 da3e a29b b03c 6c1b b53e
000002b0: f324 363d e3b1 753e 9840 093e 3596 633c
000002c0: 82f2 653e 82cc 5fbe 18ee d3bc b6fc 0fbd
000002d0: cff0 bb3d f014 d43e 6c83 c63e 9e8d 823d
000002e0: 4c79 993e 9473 e93d 6eab 8e3e 419a 0d3e
000002f0: d11d 3ebf f726 e43c 95eb f5be fd2b 03bf
00000300: e341 683f 8817 03bf 93b0 66bd 9190 52bf
00000310: 1715 573d 3411 16bf 5ec5 32be b9ec 7ebe
00000320: 42ab 85be 7958 843e a9af 963e decb aa3e
00000330: 45d9 cabe 6021 863d 6324 d13c c05c 363e
00000340: cc19 503e 18d4 273e 852e d5bd 416b 83be
00000350: ac54 113f 2402 a13e b408 933d 50ef 7f3e
00000360: 78f5 b63d f549 563e 4808 5d3e f1d6 cd3d
00000370: 55d5 abbe 761f 08bf 0436 e9bd fd24 923d
00000380: 4d48 b9be 3a6b f5bd efcc 8cbe d9a1 9f3d
00000390: 83fc 583d bea8 81bd 0c96 f5bf dddd 15bf
000003a0: 063e 0c3f 1ca8 b0be 6272 05be d966 f9be
000003b0: e86a d93e bfea 09bf 9efa 8dbd c1d3 fc3e
000003c0: fadd 3ebe 2443 403e 492c efbd 0eb8 8c3d
000003d0: 93c5 eb3e 33b2 cfbe 0562 f83e bd27 16bd
000003e0: 8ebf a7bc 84dc e3be 15f8 d9be 6d6b f4bd
000003f0: ad3d f63e d3d4 09be 476e 083f 9eae 20be

fcs1.bias f4 [128]
0.053671528 -0.045456875 -0.2860345 0.36183974 -0.22464226 -0.81533515 -0.028478319 -0.8426352
-0.14215188 -0.5207003 -0.2342851 -0.05763562 -0.40384677 -0.0075367815 -0.2809761 -0.03918422
-0.64406437 0.3296839 -0.110400654 -0.56263864 -0.28375247 -0.29878667 -0.56438 -0.21406138
-0.065273404 -0.28201622 -0.16552325 0.06280373 -0.27386248 0.22131468 -0.3943807 -0.09672136
-0.3482199 -0.6728824 -0.29404527 -0.035804663 0.3206572 -0.19477858 -0.56940925 0.0019102455
-0.1702217 0.158892 -0.4489951 0.18993708 -0.1137229 -0.43812317 0.15549773 -0.7193334
-0.61536723 0.38891655 -0.15671986 -0.43664813 -0.22985354 -0.6333668 -0.4204281 0.6712745
-1.0211499 -0.13160083 -0.85653853 -0.2634381 0.5893151 -0.48224276 -0.4851549 -0.41584557
-0.5839636 -0.1252932 -0.5723002 0.44248044 -0.6119235 -0.43461204 -0.73000497 0.12223852
-0.7564115 -0.055140592 0.41875684 -0.08821261 -0.051809255 -0.16325852 -0.20668396 -0.34012255
0.38994274 0.619738 -0.5583366 -0.49144754 -0.7766259 -0.21616657 -0.46318436 -0.5441659
0.00032646416 -0.979705 0.3337112 -0.19747452 -0.5114067 -0.4370598 -0.7949164 -0.44145244
-0.37543774 -0.049646486 -0.8515185 -0.44993687 0.045007553 0.19057946 -0.2109557 -0.61057556
-0.57802755 -0.8354638 -0.6033875 -0.338549 0.32706213 0.17997554 0.08778749 0.42234805
-0.8386668 -0.23231758 -0.56795025 -0.53479075 -0.17284599 0.1803638 -0.6012509 -0.5406152
-0.5252725 -0.45899862 -0.43274617 -1.0344858 -0.2658074 0.43415824 -0.9135197 -0.3843187
00000000: add6 5b3d fd30 3abd 1d73 92be 0f43 b93e
00000010: 9f08 66be ceb9 50bf 5d4b e9bc f1b6 57bf
00000020: 4390 11be 9d4c 05bf 6fe8 6fbe 5413 6cbd
00000030: 01c5 cebe 1bf7 f6bb 19dc 8fbe a27f 20bd
00000040: 67e1 24bf 54cc a83e bd19 e2bd 1609 10bf
00000050: 0148 91be 91fa 98be 357b 10bf e832 5bbe
00000060: 10ae 85bd 6e64 90be ed7e 29be 3e9f 803d
00000070: b437 8cbe 51a0 623e 44ec c9be d915 c6bd
00000080: e149 b2be 0542 2cbf 1a8d 96be e9a7 12bd
00000090: 2e2d a43e 0974 47be cec4 11bf 3461 fa3a
000000a0: 994e 2ebe 96b4 223e b0e2 e5be de7e 423e
000000b0: 8de7 e8bd ae51 e0be cc3a 1f3e 3c26 38bf
000000c0: b588 1dbf 1220 c73e 2c7b 20be 5890 dfbe
000000d0: ba5e 6bbe 5424 22bf 5a42 d7be a5d8 2b3f
000000e0: 0ab5 82bf 5ec2 06be 1c46 5bbf 5ce1 86be
000000f0: 5bdd 163f 86e8 f6be 3966 f8be b6e9 d4be
00000100: a37e 15bf dc4c 00be 4482 12bf cc8c e23e
00000110: 05a7 1cbf 7885 debe 9be1 3abf 3058 fa3d
00000120: 2fa4 41bf 1adb 61bd 4c67 d63e d0a8 b4bd
00000130: f135 54bd 3e2d 27be f6a4 53be 8b24 aebe
00000140: 93a6 c73e 26a7 1e3f 26ef 0ebf 039f fbbe
00000150: f4d0 46bf c55a 5dbe 8026 edbe 754e 0bbf
00000160: 4729 ab39 f2cd 7abf 32dc aa3e c336 4abe
00000170: 8deb 02bf 4dc6 dfbe a47f 4bbf 0e06 e2be
00000180: 6039 c0be 1d5a 4bbd 1efd 59bf 205e e6be
00000190: d759 383d 4327 433e c504 58be ae4e 1cbf
000001a0: 9df9 13bf f5e0 55bf 9a77 1abf 4b56 adbe
000001b0: b074 a73e 824b 383e edc9 b33d 013e d83e
000001c0: deb2 56bf a9e4 6dbe 3065 11bf 0ce8 08bf
000001d0: 8afe 30be 4ab1 383e 94eb 19bf c265 0abf
000001e0: 4278 06bf de01 ebbe e890 ddbe 086a 84bf
000001f0: e817 88be fd49 de3e 6ddc 69bf 6cc5 c4be

bns.weight f4 [128]
0.5818717 0.039657336 0.27266034 0.41249335 0.35532492 0.0878789 0.43912542 0.20925875
0.25693458 0.17013986 0.6560644 0.35726056 0.05355598 0.4035275 0.2748522 0.52831155
0.49845442 0.4641078 0.23867653 0.23476903 0.5995027 0.40663826 0.23345792 0.19817021
0.17394793 0.2811358 0.18485446 0.2402078 0.32490936 0.3056702 0.21324962 0.052638013
0.23335351 0.21884319 0.077588566 0.02869154 0.20247059 0.5066299 -0.032415513 0.1843068
0.2571913 0.19915026 0.26790377 0.29203403 0.5444831 0.053924087 0.4433217 0.08896726
0.13013624 0.18867172 0.47824976 0.12942646 0.107695445 0.3284376 0.27900273 0.13979757
0.09787732 0.2181716 -0.009593831 0.114247344 0.26758564 0.009272914 0.2136987 0.28850135
0.0029980377 0.808067 0.39135173 0.25358176 0.23281424 0.17490727 0.1875798 0.44673362
0.34923488 0.09214643 0.28412122 0.44890353 0.20721467 0.05662855 0.30241978 0.94897735
0.5862082 0.34617376 0.09985666 0.14649664 -0.09848778 0.061726708 0.82856053 0.1764679
0.5849279 0.0035577 0.35683757 0.42180547 0.19056568 0.23258129 0.30170095 0.16045794
0.3725315 0.044767443 0.12644474 0.48703542 0.19928744 0.37401837 0.2837613 0.4154427
0.4321768 0.14016905 0.17217503 0.21756604 0.09197299 0.39641145 0.094606966 0.09816216
-0.0074350983 0.36582246 0.60940254 0.3737881 0.2611312 0.48666945 0.22119679 0.21839714
0.42876488 0.3191297 0.12962192 0.21424872 0.6171114 0.22442132 0.071457185 -0.024202848
00000000: 8bf5 143f bb6f 223d 239a 8b3e 5432 d33e
00000010: 26ed b53e daf9 b33d 0cd5 e03e ed47 563e
00000020: ee8c 833e 2539 2e3e d6f3 273f dbea b63e
00000030: 845d 5b3d 289b ce3e 6db9 8c3e 6d3f 073f
00000040: 6b35 ff3e 8a9f ed3e 9f67 743e 4b67 703e
00000050: 0279 193f e432 d03e 980f 6f3e 22ed 4a3e
00000060: 681f 323e 08f1 8f3e 7d4a 3d3e 09f9 753e
00000070: 855a a63e ce80 9c3e 1c5e 5a3e f59a 573d
00000080: 39f4 6e3e 6e18 603e c1e6 9e3d 850a eb3c
00000090: 7354 4f3e 7fb2 013f 21c6 04bd ecba 3c3e
000000a0: 94ae 833e 0cee 4b3e af2a 893e 7c85 953e
000000b0: 3f63 0b3f 81df 5c3d 10fb e23e 7834 b63d
000000c0: 6f42 053e 2933 413e 27dd f43e 5f88 043e
000000d0: 6e8f dc3d f928 a83e 72d9 8e3e 1827 0f3e
000000e0: e873 c83d 6068 5f3e 722f 1dbc 83fa e93d
000000f0: fc00 893e 6ced 173c d5d3 5a3e 73b6 933e
00000100: ba7a 443b 7bdd 4e3f 415f c83e 78d5 813e
00000110: db66 6e3e e41a 333e eb14 403e 45ba e43e
00000120: eace b23e 44b7 bc3d 5678 913e afd6 e53e
00000130: 1530 543e 57f3 673d c4d6 9a3e 2ef0 723f
00000140: be11 163f b03d b13e a681 cc3d 3703 163e
00000150: f6b3 c9bd 25d5 7c3d 8b1c 543f 00b4 343e
00000160: d6bd 153f 4d28 693b 6ab3 b63e e3f6 d73e
00000170: a623 433e ca29 6e3e 8c78 9a3e 164f 243e
00000180: 73bc be3e 115e 373d bb7a 013e b55c f93e
00000190: 0212 4c3e 567f bf3e 2949 913e e8b4 d43e
000001a0: 4746 dd3e 7a88 0f3e a74e 303e a2c9 5e3e
000001b0: 565c bc3d 71f6 ca3e 4cc1 c13d 3e09 c93d
000001c0: 20a2 f3bb 154d bb3e ce01 1c3f 2761 bf3e
000001d0: fdb2 853e bd2c f93e 6981 623e 80a3 5f3e
000001e0: 1287 db3e f864 a33e 9cbb 043e 0464 5b3e
000001f0: 03fb 1d3f b4ce 653e 2558 923d 0d45 c6bc

bns.bias f4 [128]
-0.17702967 0.3216361 -0.39581573 -0.35344616 0.044591792 0.58717674 0.26132366 0.024069333
-0.023954147 -0.4788904 0.0750333 0.12504204 0.69280356 0.4290772 -0.03432993 -0.27355668
0.13823503 0.21036524 -0.020617424 -0.22059576 0.28881282 -0.44341877 -0.03640065 -0.10937875
-0.091553025 -0.032316823 -0.12379422 -0.07241647 0.08611353 0.27843022 -0.15206651 0.55803156
-0.03933807 -0.11277455 0.048338924 -0.4723336 -0.095404744 -0.17847623 -0.035847858 -0.14558849
0.21423148 0.70162433 0.17565694 -0.12357068 -0.10326971 -0.0021528641 -0.28465602 0.0016353428
0.4687717 -0.14132825 -0.05523597 -0.38013428 -0.02183761 0.11697441 -0.17310694 -0.28264764
0.0009652154 -0.15638742 0.29396757 0.006346304 0.13414659 0.6927231 0.014022687 -0.09285379
0.001173817 0.13589032 0.05664441 -0.217885 -0.27892044 -0.19747435 0.03869278 -0.18188557
0.014915293 0.4289564 0.73340154 -0.29289183 -0.38215 -0.54795164 -0.10079315 -0.037449434
0.3448425 0.024459068 -0.18366201 -0.18874201 0.0006571558 -0.3864367 0.08074649 0.065927766
-0.25703987 0.46839938 -0.044085868 -0.17466114 -0.049317796 -0.039779086 -0.25861204 -0.012219422
-0.0062987963 -0.104149334 -0.0020579083 -0.04377017 0.08944768 0.2457268 -0.27011853 -0.057590913
-0.4893469 0.05555417 -0.094435975 0.05184324 0.47395948 0.10820602 -0.78473717 -0.069230326
0.80936223 -0.18009667 0.106641605 0.060310204 -0.05499571 -0.015559715 -0.020901293 0.038267292
0.040995445 -0.042725485 0.00026728507 0.049504977 0.13592497 -0.14990328 -0.026345398 0.49568367
00000000: 4447 35be 7dad a43e 5ca8 cabe e5f6 b4be
00000010: e2a5 363d 3751 163f 37cc 853e 0d2d c53c
00000020: 7d3b c4bc 1f31 f5be 0fab 993d 050b 003e
00000030: 935b 313f 02b0 db3e 8a9d 0cbd 9f0f 8cbe
00000040: 7c8d 0d3e fc69 573e dfe5 a8bc dbe3 61be
00000050: 46df 933e c907 e3be d918 15bd f701 e0bd
00000060: 2780 bbbd a55e 04bd d387 fdbd 164f 94bd
00000070: 4a5c b03d 688e 8e3e 53b7 1bbe 28db 0e3f
00000080: f520 21bd 58f6 e6bd 09ff 453d b6d5 f1be
00000090: 9063 c3bd 79c2 36be 34d5 12bd 2615 15be
000000a0: 7f5f 5b3e a79d 333f 6adf 333e a012 fdbd
000000b0: 127f d3bd 1117 0dbb 6fbe 91be 0059 d63a
000000c0: d802 f03e 5ab8 10be 1d3f 62bd f6a0 c2be
000000d0: cae4 b2bc 4890 ef3d f242 31be 31b7 90be
000000e0: 8206 7d3a 0624 20be eb82 963e a8f4 cf3b
000000f0: b95d 093e 4d56 313f 6abf 653c 212a bebd
00000100: c3da 993a d526 0b3e f803 683d 3f1d 5fbe
00000110: a9ce 8ebe b736 4abe 527c 1e3d 3640 3abe
00000120: 465f 743c 2ca0 db3e 34c0 3b3f ebf5 95be
00000130: 2aa9 c3be 8f46 0cbf a46c cebd 9464 19bd
00000140: 328f b03e 625e c83c e511 3cbe 9645 41be
00000150: fb44 2c3a 08db c5be 6a5e a53d 2305 873d
00000160: bb9a 83be 0bd2 ef3e 6293 34bd 5fda 32be
00000170: 7501 4abd 65ef 22bd cc68 84be f833 48bc
00000180: 2266 cebb 3f4c d5bd f9dd 06bb 5a48 33bd
00000190: 5830 b73d ce9f 7b3e fa4c 8abe 73e4 6bbd
000001a0: ad8b fabe c58c 633d a667 c1bd 9459 543d
000001b0: d1aa f23e 1e9b dd3d 89e4 48bf a1c8 8dbd
000001c0: 5d32 4f3f 436b 38be ea66 da3d d507 773d
000001d0: 2e43 61bd 2dee 7ebc 3039 abbc 2abe 1c3d
000001e0: d7ea 273d eb00 2fbd 6522 8c39 bbc5 4a3d
000001f0: ea2f 0b3e 3f80 19be 4ed2 d7bc 40ca fd3e

bns.running_mean f4 [128]
0.67286956 1.0219307 0.35474032 0.46677554 0.98824704 0.53067213 1.400542 0.23729645
1.1062403 0.097850226 0.48639002 0.52048415 1.7978584 1.8272917 0.5070539 5.0219054
0.19213456 1.4131182 0.35205004 0.60525686 0.48852575 0.3210425 0.44023672 1.4302706
0.1396862 0.120604314 0.8384611 0.15613772 0.47396523 2.1535172 1.139357 1.5273713
0.4482758 0.6734762 1.1480136 1.0275775 1.9492371 0.26138598 9.741918e-06 0.42448327
2.3538945 3.542048 0.48664066 0.1397008 0.53170425 0.0053044194 0.189882 7.6000047e-06
1.571237 1.2249352 0.3322866 0.18582577 0.9712653 0.31435144 0.31925768 0.89917123
7.640724e-06 0.4158842 3.93063e-06 1.7216227 1.9935052 1.5530412 0.21638498 0.09805114
0.011831748 0.9164836 0.75553626 0.2162844 0.13939138 0.5957247 0.09932067 0.5645748
0.14838989 2.0194373 3.1857345 0.2784571 1.4076525 1.4619013 1.0906065 0.33499914
2.391134 1.0576868 1.1387438 0.228702 9.5567366e-08 0.9410107 0.33771083 0.10700103
0.26503333 7.654013e-06 1.0339972 0.7066696 0.38557383 0.4920501 0.19725989 0.46940827
3.8218155 0.5473195 4.135016e-06 0.532636 0.56146103 1.4134216 0.10594482 1.012166
0.17431258 1.6924925 0.07601788 1.0076495 4.384843 0.98303604 2.1072469 0.6034457
1.1961872e-05 0.938105 0.15778558 1.1346042 1.0797983 0.968148 0.647932 0.616531
0.4517168 0.21455139 1.1502613 0.45145923 0.5156846 2.8543406 0.03259324 0.17151819
00000000: 2e41 2c3f a0ce 823f 86a0 b53e 34fd ee3e
00000010: c2fd 7c3f 21da 073f f644 b33f d7fd 723e
00000020: 4899 8d3f b365 c83d 1d08 f93e 733e 053f
00000030: 3920 e63f b2e4 e93f 49ce 013f 73b3 a040
00000040: ecbe 443e 0fe1 b43f e73f b43e 1df2 1a3f
00000050: 0c20 fa3e af5f a43e b566 e13e 1b13 b73f
00000060: e609 0f3e 65ff f63d 63a5 563f 91e2 1f3e
00000070: 92ab f23e 3ad3 0940 73d6 913f e780 c33f
00000080: 6884 e53e f068 2c3f 1cf2 923f a987 833f
00000090: 9a80 f93f 62d4 853e 3871 2337 df55 d93e
000000a0: 35a6 1640 eab0 6240 f728 f93e ba0d 0f3e
000000b0: c51d 083f b2d0 ad3b 6d70 423e 8b03 ff36
000000c0: 4b1e c93f adca 9c3f 7821 aa3e 1c49 3e3e
000000d0: d8a4 783f acf2 a03e be75 a33e 1630 663f
000000e0: a930 0037 c6ee d43e dbe3 8336 225e dc3f
000000f0: 2e2b ff3f 0eca c63f 0694 5d3e 09cf c83d
00000100: f3d9 413c ab9e 6a3f d36a 413f a879 5d3e
00000110: 9dbc 0e3e 6a81 183f a368 cb3d f987 103f
00000120: 85f3 173e 763e 0140 13e3 4b40 ee91 8e3e
00000130: f52d b43f 951f bb3f fe98 8b3f 0285 ab3e
00000140: 5708 1940 4862 873f 5bc2 913f db30 6a3e
00000150: b73a cd33 14e6 703f 6fe8 ac3e 5b23 db3d
00000160: 73b2 873e bc69 0037 055a 843f 4de8 343f
00000170: ef69 c53e feed fb3e 7ffe 493e 4856 f03e
00000180: a098 7440 211d 0c3f 84bf 8a36 d55a 083f
00000190: e9bb 0f3f 00eb b43f 99f9 d83d a88e 813f
000001a0: ff7e 323e 98a3 d83f 43af 9b3d a9fa 803f
000001b0: a250 8c40 40a8 7b3f 22dd 0640 6b7b 1a3f
000001c0: d9af 4837 a627 703f 8b92 213e b63a 913f
000001d0: d536 8a3f 8cd8 773f dfde 253f fad4 1d3f
000001e0: 6d47 e73e 5cb3 5b3e c33b 933f aa25 e73e
000001f0: e803 043f 84ad 3640 7d80 053d 77a2 2f3e

bns.running_var f4 [128]
0.9970625 3.1074529 0.655849 0.42424163 1.7531585 1.4363062 3.41147 0.5597098
3.8256497 0.11313182 0.78479594 0.91437 5.9812355 4.117464 0.92118216 9.5914955
0.22727303 2.3457963 0.69974667 1.4432013 0.98001635 0.55400765 1.6872774 4.7579126
0.18217841 0.16600953 2.4296422 0.28194016 0.5994126 4.948017 3.7441468 5.45585
1.0864656 1.5160264 3.111081 3.0100553 4.156916 0.24629092 9.4941915e-06 0.97525984
5.992363 15.10091 1.2065424 0.21366563 0.57988405 0.008086678 0.1799931 3.9962974e-06
5.6045117 2.9205403 0.3632114 0.3298781 3.1944952 0.4117299 0.5494456 1.3605795
1.4339247e-05 0.83403337 3.959783e-06 5.2085905 5.4741035 5.3057137 0.23001532 0.11100665
0.02032127 2.0866213 1.7518064 0.22354354 0.18288827 1.1861111 0.22386633 0.55542153
0.111433655 8.046236 13.582242 0.18704164 1.9067059 5.9966817 3.0116138 0.48905012
2.863197 1.458892 3.6841805 0.46424744 2.8058352e-08 2.1929407 0.5611767 0.16918127
0.20792012 2.1528846e-05 1.6259583 1.0685432 0.90961224 0.9525255 0.419639 1.083406
20.526117 1.7044847 2.2369488e-06 0.8698944 1.8214734 4.2942758 0.11910688 3.2339597
0.210318 5.445669 0.061586518 2.371378 11.15055 1.8591002 8.030566 1.2875471
3.4608733e-05 2.9617317 0.24478085 2.5705228 1.8859497 1.6350552 1.8457575 1.7559031
0.63961315 0.2708266 3.071194 0.8953819 0.9437149 11.749928 0.045534823 0.31476584
00000000: 7d3f 7f3f 82e0 4640 b8e5 273f 3336 d93e
00000010: 7f67 e03f e2d8 b73f 8655 5a40 2449 0f3f
00000020: 72d7 7440 a8b1 e73d 63e8 483f 2714 6a3f
00000030: 4866 bf40 44c2 8340 98d2 6b3f c476 1941
00000040: 43ba 683e 8721 1640 9922 333f d2ba b83f
00000050: 5ae2 7a3f 72d3 0d3f b5f8 d73f d240 9840
00000060: fa8c 3a3e 67fe 293e 427f 1b40 765a 903e
00000070: 1b73 193f 2856 9e40 1aa0 6f40 5396 ae40
00000080: 4e11 8b3f 270d c23f f31b 4740 bfa4 4040
00000090: 7505 8540 b033 7c3e 3e49 1f37 a1aa 793f
000000a0: 70c1 bf40 549d 7141 fb6f 9a3f 2acb 5a3e
000000b0: 4873 143f fc7d 043c 1c50 383e ef17 8636
000000c0: 2958 b340 22ea 3a40 d8f6 b93e c8e5 a83e
000000d0: 9c72 4c40 43ce d23e 78a8 0c3f 7827 ae3f
000000e0: 9992 7037 3683 553f 47de 8436 c6ac a640
000000f0: db2b af40 68c8 a940 2389 6b3e 7457 e33d
00000100: cb78 a63c 348b 0540 313b e03f 99e8 643e
00000110: 1047 3b3e 7dd2 973f 373d 653e 1b30 0e3f
00000120: 5437 e43d 62bd 0041 dd50 5941 d887 3f3e
00000130: f00e f43f d1e4 bf40 48be 4040 c764 fa3e
00000140: 9f3e 3740 f9bc ba3f 9dc9 6b40 d7b1 ed3e
00000150: f804 f132 2459 0c40 47a9 0f3f db3d 2d3e
00000160: 03e9 543e d898 b437 671f d03f 06c6 883f
00000170: 59dc 683f b6d8 733f ecda d63e 0cad 8a3f
00000180: 7d35 a441 8e2c da3f 7d1e 1636 66b1 5e3f
00000190: 0a26 e93f b56a 8940 4fee f33d 32f9 4e40
000001a0: 9a5d 573e ec42 ae40 2542 7c3d a8c4 1740
000001b0: a768 3241 fff6 ed3f 337d 0041 58ce a43f
000001c0: d828 1138 038d 3d40 d5a7 7a3e 7283 2440
000001d0: cd66 f13f 7d49 d13f c841 ec3f 6fc1 e03f
000001e0: b0bd 233f c9a9 8a3e 718e 4440 c037 653f
000001f0: 4d97 713f b5ff 3b41 b982 3a3d fd28 a13e

fc2.weight f4 [128, 132]
0.017017886 -0.14422822 0.13054147 -0.07299604 0.057964653 -0.18419477 -0.03437943 -0.21844074
-0.06232687 0.079999864 -0.045429565 0.035176136 -0.1271298 -0.20221525 -0.12934063 0.045265526
-0.14555825 -0.1250734 -0.16446406 0.05352093 0.04543396 0.01729395 -0.03780694 0.17767803
-0.16120222 -0.018265126 0.038799413 0.05215155 -0.030405972 -0.065744035 0.06767998 0.012961137
-0.094448715 0.086938314 0.089622945 0.053402573 0.02286308 -0.09204806 -0.04671636 -0.00080353155
-0.07931076 -0.06778915 -0.27481195 -0.2631425 0.15406068 0.17321415 0.06642222 0.04327989
-0.16263461 -0.061998244 -0.07487735 -0.050094657 0.105162635 -0.026563633 -0.004353512 0.0037198244
-0.084418215 0.024029937 0.0330815 -0.013284053 0.032612808 -0.13834418 -0.099469274 0.06832639
-0.16475673 0.004204999 -0.22537023 0.07134457 -0.06690844 0.07080824 -0.15582056 -0.0877492
-0.23473364 -0.051359262 -0.047103092 0.0061205183 0.027009979 0.22228199 0.084458746 -0.06680627
0.05996945 -0.030804014 0.117689416 0.06784044 0.056008734 0.13844605 0.07619089 -0.19622134
-0.03929637 -0.09619302 -0.07036185 0.037542515 0.0034633747 0.074788496 0.09073494 -0.07380998
0.1293743 0.111529425 0.15923086 -0.22559886 0.08866185 0.078564435 -0.036209404 0.052804273
0.0565409 0.029982587 0.0036604828 -0.00053233514 -0.061054517 0.024975568 0.13562338 0.046514247
-0.18854207 0.1370228 -0.13490728 -0.124092326 0.13454728 -0.023750424 -0.011991159 0.05160514
-0.118275344 -0.09666726 0.04965876 -0.16537017 0.015493511 0.189278 -0.100545414 0.053871054
-0.01282987 -0.13558257 0.16496733 -0.08576559 -0.04527912 -0.37117615 0.02062562 -0.024493404
-0.026207138 -0.16261604 -0.0077176527 -0.18539593 -0.068909094 0.033695187 -0.2040105 -0.02030929
-0.2222501 -0.13790761 -0.019141609 0.067148 -0.07529403 -0.033255618 -0.0324023 0.020920306
-0.0029926682 0.008079062 0.05003995 -0.0583713 -0.08998043 0.09171087 0.29092905 0.13587625
-0.10941055 -0.013816178 0.011039414 0.015889179 -0.20566912 0.11292861 -0.06731146 0.19660772
0.06311102 -0.063340195 0.056084484 -0.05468948 -0.15910485 -0.14988524 -0.23116058 -0.20893528
0.071854025 0.13695197 -0.062055554 -0.15745226 -0.082997926 -0.09192078 -0.00074865937 -0.0056270803
0.1412911 -0.022562915 0.18076901 -0.14848362 -0.198509 0.124999054 -0.058811408 -0.038724966
0.13278775 -0.28943178 -0.21465789 -0.0033562873 -0.15541811 0.10252535 -0.076277986 -0.21489629
0.06648057 -0.034277026 -0.076222464 0.031436242 -0.19838816 0.024854053 -0.3777133 -0.09138979
0.1606158 0.13315922 0.06734136 -0.0033859438 -0.028315142 0.018124972 -0.08038027 0.19953722
0.0056935158 0.0071697333 -0.013837943 -0.08717146 -0.00840687 -0.1817272 -0.102906965 0.010981065
-0.006411097 -0.03442971 0.1627436 -0.12989989 0.013755283 0.11678403 0.025480287 -0.028790487
-0.108019225 -0.10051874 0.046700165 0.05967331 0.010563217 0.15851277 -0.102822855 0.100353345
-0.08734176 -0.04332486 0.35133997 0.0078478055 -0.16919094 0.017487258 -0.1285056 -0.12215555
0.109277084 -0.16268371 -0.22477248 -0.15127964 -0.21447681 -0.0015350946 0.112983435 0.021380106
00000000: 1869 8b3c 90b0 13be aaac 053e f37e 95bd
00000010: 586c 6d3d 8e9d 3cbe 72d1 0cbd eeae 5fbe
00000020: 764a 7fbd f8d6 a33d 5a14 3abd da14 103d
00000030: 502e 02be 8411 4fbe df71 04be 5868 393d
00000040: 390d 15be 3e13 00be 4469 28be c338 5b3d
00000050: f618 3a3d 0bac 8d3c 73db 1abd 3bf1 353e
00000060: 3212 25be bfa0 95bc 22ec 1e3d dd9c 553d
00000070: f215 f9bc cfa4 86bd cd9b 8a3d f35a 543c
00000080: 546e c1bd b70c b23d 3c8c b73d a8bc 5a3d
00000090: 5b4b bb3c b183 bcbd a759 3fbd 17a4 52ba
000000a0: ae6d a2bd 0ad5 8abd 27b4 8cbe 9dba 86be
000000b0: 15c2 1d3e 0d5f 313e 5f08 883d 4146 313d
000000c0: b089 26be dff1 7dbd 4c59 99bd 0e30 4dbd
000000d0: 825f d73d fa9b d9bc e8a7 8ebb 4cc8 733b
000000e0: 75e3 acbd 6eda c43c 7880 073d 5ba5 59bc
000000f0: 0295 053d 19aa 0dbe 8cb6 cbbd b5ee 8b3d
00000100: fdb5 28be 17ca 893b 74c7 66be 1a1d 923d
00000110: 4b07 89bd e903 913d 6d8f 1fbe dab5 b3bd
00000120: 045e 70be 175e 52bd 2cef 40bd a18e c83b
00000130: 0844 dd3c e49d 633e b5f8 ac3d bad1 88bd
00000140: 87a2 753d b358 fcbc 2607 f13d eeef 8a3d
00000150: 6a69 653d cdc4 0d3e f809 9c3d 3fee 48be
00000160: 3bf5 20bd d900 c5bd e019 90bd 2ec6 193d
00000170: c9f9 623b b62a 993d 3dd3 b93d b029 97bd
00000180: b27a 043e 8a69 e43d 6a0d 233e 6303 67be
00000190: 5894 b53d 64e6 a03d 5050 14bd 4b49 583d
000001a0: 6e97 673d 0b9e f53c b6e4 6f3b 688c 0bba
000001b0: 4d14 7abd 9099 cc3c dbe0 0a3e b985 3e3d
000001c0: 2c11 41be b44f 0c3e 2225 0abe 1e24 febd
000001d0: c3c6 093e 4090 c2bc 9176 44bc e95f 533d
000001e0: 583a f2bd 7cf9 c5bd fc66 4b3d cc56 29be
000001f0: 7fd8 7d3c 18d2 413e c1ea cdbd e5a7 5c3d
00000200: 6034 52bc 28d6 0abe 32ed 283e dfa5 afbd
00000210: 9976 39bd cd0a bebe 0ff7 a83c 64a6 c8bc
00000220: 5ab0 d6bc d284 26be 5de4 fcbb 6ed8 3dbe
00000230: 3620 8dbd f703 0a3d 21e8 50be ab5f a6bc
00000240: 8895 63be a737 0dbe ddce 9cbc e484 893d
00000250: c233 9abd 0b37 08bd 46b8 04bd 1061 ab3c
00000260: a420 44bb 0b5e 043c b1f6 4c3d bf16 6fbd
00000270: a947 b8bd e9d2 bb3d a7f4 943e 2523 0b3e
00000280: a312 e0bd 405d 62bc a9de 343c 062a 823c
00000290: ed9a 52be 1d47 e73d 97da 89bd 8953 493e
000002a0: 5a40 813d 81b8 81bd d8b8 653d 1402 60bd
000002b0: 62ec 22be 847b 19be 5cb5 6cbe 21f3 55be
000002c0: 3428 933d 233d 0c3e f72d 7ebd 2a3b 21be
000002d0: d1fa a9bd f640 bcbd ae41 44ba 5f63 b8bb
000002e0: 9dae 103e ddd5 b8bc 831b 393e 170c 18be
000002f0: f145 4bbe 81ff ff3d 3be4 70bd 129e 1ebd
00000300: 83f9 073e 6730 94be 47cf 5bbe 28f5 5bbb
00000310: ed25 1fbe d0f8 d13d a237 9cbd c60d 5cbe
00000320: f726 883d 1166 0cbd 861a 9cbd 4ac3 003d
00000330: 4426 4bbe ba9a cb3c a363 c1be 922a bbbd
00000340: 7878 243e e45a 083e 44ea 893d b6e6 5dbb
00000350: 28f5 e7bc d27a 943c 699e a4bd 7c53 4c3e
00000360: ac90 ba3b 15f0 ea3b 8ab8 62bc f386 b2bd
00000370: f8bc 09bc b216 3abe e3c0 d2bd ede9 333c
00000380: 2e14 d2bb 2b06 0dbd 42a6 263e 7a04 05be
00000390: d75d 613c 772c ef3d 09bc d03c 07da ebbc
000003a0: 2f39 ddbd c5dc cdbd ac48 3f3d 006c 743d
000003b0: 5811 2d3c 2c51 223e ca94 d2bd 0e86 cd3d
000003c0: 3de0 b2bd 6975 31bd d5e2 b33e 1594 003c
000003d0: 6440 2dbe 7041 8f3c f996 03be b02c fabd
000003e0: aacc df3d 8f96 26be c22a 66be 0de9 1abe
000003f0: cf9f 5bbe 3a35 c9ba dc63 e73d 5525 af3c

fc2.bias f4 [128]
-0.24001856 -0.2832893 -0.11830558 -0.34840214 -0.3785124 -0.2755869 -0.25523415 -0.26136246
-0.49401262 -0.29185992 -0.01608799 -0.2479523 -0.0011944786 -0.21587683 -0.14203465 -0.25755706
-0.2943072 -0.364157 -0.44395247 -0.57023656 -0.29912665 0.030046636 -0.4262491 -0.25643152
-0.3380166 -0.18826187 -0.46398085 -0.39695266 -0.1183826 -0.33301368 -0.62485176 -0.27614352
-0.2670225 -0.14198554 -0.2793897 -0.37956175 0.13497344 -0.27753365 -0.36136 -0.33088773
-0.57533073 -0.30315125 -0.28172576 -0.4881972 -0.36313823 -0.34419456 -0.6967436 0.119496144
-0.2141155 -0.6323706 -0.21778153 -0.19666304 0.7432874 -0.41268796 -0.3623025 -0.35404465
-0.30269718 -0.23938064 -0.18408577 -0.34727597 -0.2335796 -0.5173481 -0.303779 -0.3413098
-0.32755932 -0.31342027 0.116795205 -0.2998955 -0.29215407 0.08625144 -0.24168886 -0.35443014
-0.35201696 -0.4107516 -0.26840818 -0.32717693 -0.2240437 -0.39170685 -0.4060692 -0.49893162
-0.3998492 -0.07695179 -0.38329506 -0.0076517374 -0.29785654 -0.34075668 -0.38160282 -0.19718632
-0.3286991 -0.20512407 -0.48563534 -0.39294732 -0.33820578 -0.28394157 -0.1884936 -0.3425271
0.30132484 -0.026791956 -0.27631736 -0.2928067 -0.11392161 -0.10963286 -0.34083557 -0.2488575
-0.096532315 -0.3077714 -0.30798042 -0.3436495 -0.28494784 -0.4507747 -0.27368075 -0.44116288
-0.33849865 -0.28334743 -0.39297584 -0.35883433 0.3938733 -0.30278835 -0.5586387 -0.3807374
-0.054742273 -0.37967905 -0.28276595 -0.273881 -0.33608127 -0.4057166 -0.25394264 -0.26748604
00000000: 6dc7 75be 4c0b 91be 324a f2bd c461 b2be
00000010: 61cc c1be ba19 8dbe 0dae 82be 4dd1 85be
00000020: 39ef fcbe aa6e 95be f6ca 83bc 35e7 7dbe
00000030: 0d90 9cba d10e 5dbe 8871 11be 85de 83be
00000040: 6faf 96be c972 babe bd4d e3be 06fb 11bf
00000050: 2127 99be 5d24 f63c 523d dabe fe4a 83be
00000060: 8310 adbe b8c7 40be e68e edbe 613d cbbe
00000070: 9472 f2bd c580 aabe 49f6 1fbf af62 8dbe
00000080: 2cb7 88be a864 11be 2b0c 8fbe eb55 c2be
00000090: 7a36 0a3e e418 8ebe 2e04 b9be 1e6a a9be
000000a0: e048 13bf a436 9bbe 5c3e 90be fcf4 f9be
000000b0: 41ed b9be 453a b0be ca5d 32bf 65ba f43d
000000c0: 1841 5bbe 0ae3 21bf 1f02 5fbe 0962 49be
000000d0: 1548 3e3f d64b d3be b77f b9be 5745 b5be
000000e0: 20fb 9abe 3320 75be fb80 3cbe 28ce b1be
000000f0: 7e2f 6fbe ed70 04bf ec88 9bbe 28c0 aebe
00000100: dbb5 a7be 9f78 a0be 5332 ef3d e78b 99be
00000110: 3895 95be 98a4 b03d 497d 77be de77 b5be
00000120: 913b b4be 094e d2be cc6c 89be bc83 a7be
00000130: b66b 65be cd8d c8be 4de8 cfbe f773 ffbe
00000140: 09b9 ccbe e698 9dbd 403f c4be 6dbb fabb
00000150: a780 98be a977 aebe 7261 c3be 36eb 49be
00000160: 404b a8be 0b0c 52be 32a5 f8be 6430 c9be
00000170: 4f29 adbe ca60 91be 7704 41be b65f afbe
00000180: 4047 9a3e ce7a dbbc 7879 8dbe c3ea 95be
00000190: bc4f e9bd 3187 e0bd 0082 aebe 80d4 7ebe
000001a0: bcb2 c5bd 3794 9dbe 9caf 9dbe d4f2 afbe
000001b0: afe4 91be f1cb e6be e21f 8cbe 1ae0 e1be
000001c0: b24f adbe ea12 91be 2134 c9be 22b9 b7be
000001d0: c3a9 c93e 1307 9bbe f202 0fbf 03f0 c2be
000001e0: 6f39 60bd 4b65 c2be b3c6 90be 213a 8cbe
000001f0: d812 acbe 16ba cfbe c504 82be eef3 88be

fc3.weight f4 [1, 128]
0.00241436 0.023218427 0.026621263 -0.08273326 0.01359687 0.0060382136 -0.008018015 -0.024192493
-0.021699222 -0.04803912 0.0508207 -0.022648074 0.04329279 0.022124493 0.0029243177 -0.01833339
0.046714593 -0.00023412525 -0.056646552 0.017732361 0.000586152 0.041362125 0.023454238 -0.02121304
0.04328437 0.031680316 6.4163774e-05 -0.0030357803 0.019992629 -0.0027074795 -0.053365145 0.010046662
-0.005062502 0.03918003 0.050156984 0.038438175 0.02060408 0.00088840764 -0.010406354 0.00078720634
-0.040010363 -0.075652875 0.0077033206 -0.0070856432 0.029182231 0.064388655 -0.07546422 0.019671038
0.028656181 -0.035995733 0.0009096726 0.031601287 0.20178612 -0.020196432 -0.037542246 -0.014163279
-0.020016642 0.017248796 0.008392029 -0.13131207 -0.0026957232 0.009353604 0.0050345766 0.01893498
-0.027248733 0.0014262206 0.023756463 0.0234516 -0.004474044 0.024714842 0.005719533 0.032542225
0.0012260799 0.024679394 -0.008042155 -0.0007927422 0.01166988 0.014157571 0.016008971 -0.028228479
-0.008538301 0.07336471 -0.067329265 0.03170799 0.028308941 -0.026615448 -0.01790144 0.013026368
0.008662631 0.004419698 -0.009947609 0.007988064 -0.025913801 0.010350612 0.06535539 0.024360858
0.033137087 0.023523021 0.00025216021 -0.012698913 0.01670262 -0.056848284 -0.03047277 0.015581106
0.023503011 0.0035678823 0.008766458 -0.00639203 -0.024012035 -0.036757246 0.0071495734 -0.019350925
-0.0058419807 0.020576617 0.0045967903 -0.040799215 0.047298025 -0.014644574 -0.040454574 -0.0018989899
0.023559878 -0.013396708 0.009050147 -0.039042037 -0.0026420394 0.0015806087 0.019838136 0.00087782077
00000000: 3d3a 1e3b 9234 be3c d614 da3c 0e70 a9bd
00000010: 68c5 5e3c 35dc c53b fe5d 03bc 562f c6bc
00000020: 91c2 b1bc abc4 44bd 5e29 503d 7488 b9bc
00000030: c853 313d 6d3e b53c e9a5 3f3b e82f 96bc
00000040: cd57 3f3d 857f 75b9 3706 68bd 7543 913c
00000050: ffa7 193a 556b 293d 1a23 c03c f8c6 adbc
00000060: f44a 313d 38c3 013d aa8f 8638 f1f3 46bb
00000070: 95c7 a33c f86f 31bb 6995 5abd c19a 243c
00000080: 58e3 a5bb 3d7b 203d 6971 4d3d 5971 1d3d
00000090: e3c9 a83c 07e4 683a 6a7f 2abc 865c 4e3a
000000a0: e8e1 23bd e5ef 9abd 236c fc3b af2e e8bb
000000b0: 930f ef3c 33de 833d fc8c 9abd 2825 a13c
000000c0: 5ec0 ea3c 4370 13bd 1877 6e3a 5a70 013d
000000d0: 05a1 4e3e fd72 a5bc e6c5 19bd 190d 68bc
000000e0: f1f9 a3bc 594d 8d3c b97e 093c ac76 06be
000000f0: bbaa 30bb dc3f 193c 17f9 a43b 881d 9b3c
00000100: bc38 dfbc 06f0 ba3a ea9c c23c 921d c03c
00000110: 009b 92bb c876 ca3c ec6a bb3b ff4a 053d
00000120: 6ab4 a03a 712c ca3c 3ec3 03bc 07d0 4fba
00000130: 0633 3f3c 28f5 673c 3f25 833c 693f e7bc
00000140: 3be4 0bbc 3d40 963d ede3 89bd 3de0 013d
00000150: 27e8 e73c a408 dabc 0aa6 92bc 8c6c 553c
00000160: b5ed 0d3c 1dd3 903b 4cfb 22bc 5ee0 023c
00000170: 2e49 d4bc 9d95 293c 0cd9 853d 6c90 c73c
00000180: c1ba 073d 5ab3 c03c 5f34 8439 1a0f 50bc
00000190: efd3 883c bfd9 68bd 08a2 f9bc e547 7f3c
000001a0: 6389 c03c 22d3 693b 31a1 0f3c 3c74 d1bb
000001b0: e3b4 c4bc c48e 16bd f846 ea3b d585 9ebc
000001c0: 166e bfbb 4b90 a83c aca0 963b 141d 27bd
000001d0: 93bb 413d ccef 6fbc b2b3 25bd 87e7 f8ba
000001e0: a500 c13c de7d 5bbc 1147 143c 8bea 1fbd
000001f0: 1126 2dbb 6d2c cf3a 9683 a23c 8e1d 663a
